model/Ag2TeS.pth (torch, 139928 bytes, 8 tensors)

net.0.weight f4 [128, 6]
-0.381233 0.23921067 -0.3727596 -0.18698165 -0.35323104 0.2079104 0.17109871 0.34244314
-0.18410324 -0.4575624 0.060675845 -0.42817587 -0.11117913 -0.2264076 0.082988374 -0.36167797
0.496845 -0.33496115 0.05794741 0.054457534 -0.5782802 0.19824453 0.23424459 -0.36252424
0.11153599 -0.2622742 -0.02911465 0.33611524 0.5473493 0.032248616 0.26414993 -0.13370757
0.36481422 0.13376158 -0.066882536 0.23906876 -0.01982591 -0.10756807 0.42732957 -0.32247877
0.2322276 0.4231894 0.20347443 -0.2743741 0.2533699 -0.3208119 -0.3145315 0.25483617
0.07592623 -0.0083812885 -0.13244331 0.20074464 0.10250724 0.18370302 0.08542926 -0.13989815
0.27695346 0.062359385 0.29588562 -0.46919963 0.03025837 -0.38857275 0.38077965 0.08551896
-0.02372423 -0.5588496 0.17322856 -0.03748381 0.37201086 -0.30924153 0.13711587 -0.46291673
0.35469964 0.0931107 0.14773445 -0.077438354 0.25625524 -0.49715304 0.12907861 0.18676777
-0.4829179 0.04642049 0.0967416 -0.20056413 -0.07713349 -0.0029622163 0.3127501 -0.23481366
0.17469968 0.33381006 0.1352407 0.1705279 0.06413248 -0.1133363 0.22596043 -0.47839063
0.28546152 0.14259616 -0.2659678 0.3389754 0.09715445 0.261663 -0.36206177 0.002168363
-0.35935202 0.36706817 -0.05955108 -0.033948977 -0.2157662 -0.04175609 0.19419563 -0.24915613
-0.083242506 -0.5228988 -0.13718063 0.34092996 0.27976313 -0.36930972 -0.19921342 -0.43100712
0.3076679 -0.25773352 -0.47461146 -0.16109538 0.054048453 0.004353097 0.020766085 -0.4389858
0.010198375 0.08031005 0.14648312 0.37633273 0.422466 -0.22522628 -0.60842615 -0.12570356
0.24613513 -0.11965277 0.2330857 -0.043684155 -0.253096 0.6081514 -0.6797174 -0.038180843
-0.2844617 -0.154559 0.030365169 -0.21204567 -0.20955558 -0.067924984 0.4168621 0.38551822
-0.21986106 0.22650298 -0.19099486 0.30467725 0.29797742 0.19586718 0.31921485 0.014795098
0.037093505 0.32719082 -0.32590738 0.06355496 -0.41489172 -0.018672837 0.3500088 0.32163143
0.15143183 0.3379599 -0.48672548 0.014853137 0.3175269 0.0032730028 0.044582743 0.35973072
-0.49758157 -0.12418892 -0.12760971 0.105576105 -0.443893 -0.44725442 0.24607642 -0.36674356
0.15208627 0.1502131 -0.3942956 -0.121182874 0.34835777 -0.37410942 -0.009521168 0.28266832
0.3242296 -0.22405338 -0.31300607 -0.0760797 -0.017150676 0.13974918 0.2875906 -0.055422366
0.23747438 -0.33322814 0.15941231 0.053605337 -0.47454715 -0.3802564 0.19108027 -0.09426386
0.48654696 0.26797277 0.18227704 -0.48765796 0.25270328 0.1623888 0.37685695 0.32381716
0.15121934 0.24742587 0.21001863 0.29165676 0.36660847 -0.3518932 0.2825978 -0.103080116
-0.3964968 -0.31005722 0.3233611 -0.38848504 0.2534302 0.09868209 -0.07020508 -0.20450333
-0.11810435 0.21512334 0.13832653 -0.41420346 0.19370213 -0.24298996 -0.09416529 0.44183552
-0.13971227 -0.09905647 0.06715154 0.10565722 -0.08879046 0.40371045 -0.22353226 -0.36482266
0.27023137 0.23168756 -0.025539355 -0.33280692 0.10602898 -0.17182241 -0.20709655 0.7177412
00000000: f930 c3be a4f3 743e 59da bebe 1e78 3fbe
00000010: b3da b4be 77e6 543e 8034 2f3e b554 af3e
00000020: 8f85 3cbe 9e45 eabe 3c87 783d de39 dbbe
00000030: e2b1 e3bd 65d7 67be cff5 a93d db2d b9be
00000040: 7862 fe3e 0780 abbe 435a 6d3d dd0e 5f3d
00000050: 2c0a 14bf 9d00 4b3e d0dd 6f3e c79c b9be
00000060: fb6c e43d ce48 86be d981 eebc 4c17 ac3e
00000070: 151f 0c3f 2017 043d a93e 873e a3ea 08be
00000080: eec8 ba3e ccf8 083e b6f9 88bd 71ce 743e
00000090: f269 a2bc a64c dcbd f1ca da3e f01b a5be
000000a0: 12cd 6d3e 48ac d83e 9a5b 503e c37a 8cbe
000000b0: b3b9 813e 7541 a4be 460a a1be e379 823e
000000c0: 367f 9b3d ac51 09bc 389f 07be 0190 4d3e
000000d0: 51ef d13d a51c 3c3e 89f5 ae3d 7641 0fbe
000000e0: d8cc 8d3e 8e6c 7f3d 527e 973e ef3a f0be
000000f0: 67e0 f73c 02f3 c6be 8df5 c23e 9124 af3d
00000100: 5159 c2bc c410 0fbf d462 313e a088 19bd
00000110: 3578 be3e e854 9ebe 1a68 0c3e 6c03 edbe
00000120: 319b b53e d3b0 be3d b347 173e 0098 9ebd
00000130: e333 833e d88a febe 2f2d 043e 0d40 3f3e
00000140: 0441 f7be 6923 3e3d 7620 c63d af60 4dbe
00000150: 2af8 9dbd be21 42bb c820 a03e fe72 70be
00000160: 79e4 323e 27e9 aa3e 8a7c 0a3e de9e 2e3e
00000170: e457 833d dd1c e8bd 2c62 673e 9eef f4be
00000180: 0328 923e ba04 123e ee2c 88be 2f8e ad3e
00000190: eaf8 c63d b1f8 853e 2960 b9be 181b 0e3b
000001a0: fdfc b7be 5cf0 bb3e d5eb 73bd 150e 0bbd
000001b0: d1f1 5cbe 6f08 2bbd 38db 463e c922 7fbe
000001c0: 0c7b aabd b2dc 05bf 1479 0cbe 5f8e ae3e
000001d0: 1d3d 8f3e 2a16 bdbe 9afe 4bbe f7ac dcbe
000001e0: a686 9d3e a6f5 83be 4600 f3be 30f6 24be
000001f0: e961 5d3d 6da4 8e3b a31d aa3c bfc2 e0be
00000200: 1617 273c 9879 a43d acff 153e afae c03e
00000210: 774d d83e b8a1 66be d1c1 1bbf 6fb8 00be
00000220: d90a 7c3e 830c f5bd 05ae 6e3e 28ee 32bd
00000230: cd95 81be cfaf 1b3f f601 2ebf 8463 1cbd
00000240: f7a4 91be b744 1ebe 60c0 f83c 8022 59be
00000250: bd95 56be 411c 8bbd f36e d53e a562 c53e
00000260: 4223 61be 66f0 673e 2894 43be a8fe 9b3e
00000270: 7f90 983e 6891 483e 2170 a33e 2467 723c
00000280: 5cef 173d 8e85 a73e 55dd a6be 1a29 823d
00000290: b06c d4be c7f7 98bc 5a34 b33e e0ac a43e
000002a0: f210 1b3e 1409 ad3e 1534 f9be 925a 733c
000002b0: e392 a23e e07f 563b 659c 363d a02e b83e
000002c0: 03c3 febe c356 febd 1fac 02be 4938 d83d
000002d0: f145 e3be 88fe e4be 75fb 7b3e d0c5 bbbe
000002e0: 81bc 1b3e 76d1 193e 1de1 c9be ba2e f8bd
000002f0: f35b b23e 458b bfbe acfe 1bbc e7b9 903e
00000300: 6c01 a63e 406e 65be 5542 a0be accf 9bbd
00000310: 937f 8cbc 691a 0f3e 133f 933e 9002 63bd
00000320: 7c2c 733e e19c aabe fb3c 233e 4591 5b3d
00000330: d8f7 f2be f8b0 c2be 8caa 433e 690d c1bd
00000340: af1c f93e ba33 893e d5a6 3a3e 4eae f9be
00000350: 5362 813e 4049 263e 65f3 c03e 5dcb a53e
00000360: 3ed9 1a3e 355d 7d3e 200f 573e 0954 953e
00000370: 1bb4 bb3e 582b b4be a9b0 903e ab1b d3bd
00000380: a101 cbbe d2bf 9ebe 968f a53e 83e7 c6be
00000390: 9ac1 813e d619 ca3d aec7 8fbd 5269 51be
000003a0: b2e0 f1bd 4b49 5c3e 78a5 0d3e 7a12 d4be
000003b0: da59 463e 5cd2 78be bbd9 c0bd 4438 e23e
000003c0: bc10 0fbe 1ede cabd bf86 893d d062 d83d
000003d0: c6d7 b5bd 23b3 ce3e a4e5 64be 09ca babe
000003e0: c45b 8a3e 813f 6d3e e937 d1bc ab65 aabe
000003f0: b925 d93d 37f2 2fbe 1e11 54be e3bd 373f

net.0.bias f4 [128]
-0.04776567 0.45359045 0.23121165 0.0757792 0.02559932 0.1923182 0.00094693457 0.475635
-0.24286486 -0.13363403 -0.032598495 -0.22458383 0.611124 -0.038120817 0.30357176 1.0018939
-0.026736747 0.16299509 -0.35231486 0.11031252 0.25627765 -0.25723553 -0.61865246 -0.34884545
0.006553443 0.39524668 0.2526062 0.11965534 0.05966866 -0.06794793 -0.14104502 0.11706357
0.5825647 0.60310054 -0.15014337 -0.35945243 0.6336199 -0.16584672 0.47168314 -0.040636938
0.13524081 -0.062881604 -0.44906473 -0.32964122 -0.27686742 0.037526645 -0.2884161 0.54628485
-0.3836115 -0.049037054 0.059596453 0.08990545 -0.4486214 -0.44343013 0.001896541 0.27178517
-0.48980135 -0.00585454 -1.0992354 0.099725455 0.3326783 -0.26902327 0.010703371 0.293658
-0.3449768 0.013257197 -0.07306336 -0.18727362 -0.044917203 0.0612465 0.17158301 -0.31043378
-0.32352313 -0.4411317 0.20946446 0.23182832 0.33177075 -0.15044296 0.2991885 0.8620934
-0.27455097 -0.45629868 -0.09506757 0.15759362 -0.12684527 0.73622876 -0.04119116 0.01160271
0.3442268 0.37783462 0.4039812 0.122595556 -0.2233773 0.30148217 0.29152632 0.49679437
0.33884063 -0.29379144 -0.23802961 -0.08691851 -0.27337655 0.25846612 0.18603194 0.09454986
-0.31540683 -0.1753025 0.21080396 -0.34276652 -0.2247387 0.3603761 -0.11320416 0.13282184
-0.09929059 -0.31509542 -0.3248318 -0.38430828 0.0630647 0.17856264 0.61882454 0.54105335
0.60987455 0.13134931 0.34182772 -0.41709527 0.31117204 0.30918968 -0.12781143 0.33709204
00000000: efa5 43bd 023d e83e bfc2 6c3e 2032 9b3d
00000010: aab5 d13c 10ef 443e b43b 783a 6e86 f33e
00000020: 91b1 78be 5cd7 08be 0086 05bd 4ef9 65be
00000030: 9f72 1c3f 9324 1cbd c26d 9b3e 0f3e 803f
00000040: 0607 dbbc 2fe8 263e 9d62 b4be 88eb e13d
00000050: d336 833e 60b4 83be 0260 1ebf df9b b2be
00000060: 44be d63b c65d ca3e 9a55 813e dc0d f53d
00000070: 2067 743d 4928 8bbd 1b6e 10be 06bf ef3d
00000080: f622 153f cc64 1a3f 2fbf 19be 260a b8be
00000090: ea34 223f b9d3 29be 7480 f13e eb72 26bd
000000a0: 917c 0a3e 12c8 80bd d0eb e5be bcc6 a8be
000000b0: 91c1 8dbe 8ab5 193d 46ab 93be 53d9 0b3f
000000c0: ba68 c4be 14db 48bd 691b 743d 5920 b83d
000000d0: b4b1 e5be 4609 e3be 5b95 f83a 6d27 8b3e
000000e0: 3ec7 fabe 71d7 bfbb bfb3 8cbf dc3c cc3d
000000f0: cf54 aa3e 6bbd 89be 315d 2f3c 575a 963e
00000100: cda0 b0be b734 593c 3ea2 95bd a8c4 3fbe
00000110: 1afb 37bd 9cdd 7a3d 75b3 2f3e 2df1 9ebe
00000120: d3a4 a5be 04dc e1be da7d 563e 6764 6d3e
00000130: dbdd a93e b80d 1abe 3c2f 993e 27b2 5c3f
00000140: f291 8cbe fb9f e9be c9b2 c2bd 3960 213e
00000150: bae3 01be 7d79 3c3f 10b8 28bd 4b19 3e3c
00000160: 7f3e b03e 8a73 c13e a0d6 ce3e 6113 fb3d
00000170: 05bd 64be df5b 9a3e f042 953e d55b fe3e
00000180: 857c ad3e d56b 96be 09be 73be 5502 b2bd
00000190: 03f8 8bbe ac55 843e 287f 3e3e 5ba3 c13d
000001a0: 017d a1be 8082 33be fedc 573e 187f afbe
000001b0: e721 66be 3783 b83e 95d7 e7bd 7302 083e
000001c0: dd58 cbbd 3054 a1be 5b50 a6be 0ec4 c4be
000001d0: 1128 813d 20d9 363e 496b 1e3f 7982 0a3f
000001e0: bd20 1c3f 6f80 063e 0b04 af3e 838d d5be
000001f0: f151 9f3e 1c4e 9e3e 00e1 02be 5497 ac3e

net.2.weight f4 [128, 128]
0.11196176 0.06244975 -0.13550477 0.10072482 -0.14094448 -0.050814737 -0.040519588 0.0694558
0.098595984 0.0005072558 0.016629012 0.08260832 -0.08004539 0.15105212 -0.028070508 -0.014673447
0.08535653 0.03798164 -0.07860542 -0.06048167 -0.023335474 0.08178021 0.05464669 -0.028046133
-0.025502667 0.02819391 0.046672754 0.076565534 0.045119923 -0.043777682 -0.00921431 0.034161113
0.0329291 -0.1426656 -0.079356104 -0.0038163601 -0.04533347 -0.0055410755 0.032887746 0.04513132
-0.011261916 0.045506045 -0.036799736 0.028323233 0.013090975 0.07608826 -0.044958677 0.026996896
0.048557546 0.04099796 -0.05766321 0.18427831 0.057847556 0.077215925 -0.005176659 -0.11800225
0.096483186 0.049804393 -0.012390258 -0.038695965 -0.022743793 0.069229744 0.032060757 0.059712347
0.10588698 -0.0983112 -0.048153974 -0.049282335 -0.06383713 -0.101098984 -0.09983923 -0.016564736
0.07033273 0.004490078 -0.060561895 0.00018713406 -0.07119466 0.0744191 -0.024997024 -0.052728985
-0.033565313 0.014394505 -0.050271675 0.055927422 0.0049986346 -0.018188788 0.17287691 -0.050375115
-0.07325685 -0.026549026 0.02114614 0.010638499 -0.0048105023 -0.11496428 -0.021321623 -0.025677614
0.08382208 -0.057455935 -0.06880822 -0.06607504 0.05523808 -0.0150336465 -0.12298403 -0.065888904
0.076413475 0.0048516216 0.01491148 0.08375522 -0.058746554 0.0879977 0.05585149 0.013492044
0.031396713 -0.034448702 0.14763455 0.04213053 0.025828347 -0.07272211 -0.010451175 -0.11119808
-0.139885 -0.012133898 -0.084458694 -0.0008530829 -0.06175514 0.060681965 -0.05502036 0.0070891418
0.082221314 -0.10818129 0.023710659 0.011124389 0.09079795 -0.06883524 -0.0032144557 0.07728864
-0.050720807 -0.022688042 0.051945623 -0.08991503 0.02133323 -0.016225433 -0.04709578 0.009075356
-0.05077491 0.06852412 -0.08562748 -0.021717932 -0.07014929 0.022577249 -0.061983284 -0.045392912
0.016300047 0.01856201 0.037107356 -0.057443358 0.054388702 0.032595806 0.08592449 0.06712787
-0.075151704 0.03226148 -0.081116125 -0.028154455 0.036394488 -0.002904407 -0.057872135 0.002411377
-0.055394806 -0.057503417 -0.055337694 -0.07034443 0.04125874 0.055416655 -0.0058866125 0.030356362
-0.05423352 0.02468462 -0.073618576 0.0027445718 0.047062837 0.033699535 -0.0022353316 -0.016914323
-0.0029402704 0.01756595 -0.07320158 0.08644697 -0.053993113 -0.008269359 -0.03535521 -0.05496516
-0.10497682 0.013066233 0.033188708 0.07066071 0.01218372 -0.05971738 0.074774 -0.04797713
0.025843885 -0.030510642 -0.0714784 -0.060310934 -0.08132875 0.0068227607 0.020008797 0.03285436
-0.03049799 -0.06808358 0.074852936 0.055772338 -0.013301628 0.02042473 -0.038212735 -0.012288387
0.040957842 -0.063683674 0.020598207 0.024245413 -0.015860958 -0.021687267 0.08264011 -0.023753757
-0.027044563 -0.03597178 0.06059119 0.015853684 -0.06938041 0.027943645 -0.056441937 -0.004578194
-0.009288399 -0.016015913 0.028075915 0.0032595461 0.026574915 0.03230627 -0.04199634 -0.07589403
0.020509081 0.00571594 -0.037923057 -0.032617897 -0.010806047 -0.04861813 -0.03157244 0.066796154
-0.03411278 -0.048144035 0.06505909 -0.012107669 -0.033754643 -0.0485476 -0.09656262 0.016510788
00000000: 354c e53d 4fcb 7f3d c3c1 0abe d048 ce3d
00000010: c053 10be 1d23 50bd def7 25bd d83e 8e3d
00000020: b1ec c93d 5cf9 043a 9139 883c 8d2e a93d
00000030: d6ee a3bd 68ad 1a3e 1ff4 e5bc e668 70bc
00000040: 68cf ae3d a392 1b3d e1fb a0bd a1bb 77bd
00000050: 092a bfbc 627c a73d 35d5 5f3d 01c1 e5bc
00000060: f8ea d0bc eaf6 e63c ee2b 3f3d 64ce 9c3d
00000070: abcf 383d 3a50 33bd 9ef7 16bc 86ec 0b3d
00000080: aae0 063d ee16 12be 7485 a2bd e61b 7abb
00000090: 97af 39bd e991 b5bb 4db5 063d 9edb 383d
000000a0: e683 38bc 8c64 3a3d 52bb 16bd 2006 e83c
000000b0: 877b 563c 29d4 9b3d 9726 38bd 9828 dd3c
000000c0: 47e4 463d 7aed 273d 4230 6cbd 74b3 3c3e
000000d0: 8ff1 6c3d 6223 9e3d f7a0 a9bb 2aab f1bd
000000e0: fa98 c53d b1ff 4b3d 8200 4bbc a97f 1ebd
000000f0: 3151 babc 53c8 8d3d 2452 033d ef94 743d
00000100: 46db d83d 6257 c9bd 1a3d 45bd 46dc 49bd
00000110: 0bbd 82bd fc0c cfbd 8378 ccbd c5b2 87bc
00000120: 9b0a 903d 8121 933b c00f 78bd 6b39 4439
00000130: 82ce 91bd 0b69 983d 8fc6 ccbc 59fa 57bd
00000140: c87b 09bd eed6 6b3c ace9 4dbd 2714 653d
00000150: 96cb a33b a700 95bc a506 313e 2356 4ebd
00000160: b007 96bd 587d d9bc ab3a ad3c 194d 2e3c
00000170: 6ba1 9dbb 6472 ebbd afaa aebc dc59 d2bc
00000180: e9aa ab3d ea56 6bbd 53eb 8cbd 5a52 87bd
00000190: 5341 623d af4f 76bc 0ddf fbbd c3f0 86bd
000001a0: ab7e 9c3d 5afa 9e3b 484f 743c db87 ab3d
000001b0: 3aa0 70bd 2338 b43d 88c4 643d bc0d 5d3c
000001c0: d799 003d 151a 0dbd 832d 173e 1091 2c3d
000001d0: f895 d33c 54ef 94bd 683b 2bbc d2bb e3bd
000001e0: 033e 0fbe 42cd 46bc aef8 acbd 6da1 5fba
000001f0: f5f2 7cbd a78d 783d 075d 61bd 084c e83b
00000200: a663 a83d 278e ddbd db3c c23c 1243 363c
00000210: 47f4 b93d 7ef9 8cbd 9ea9 52bb 8249 9e3d
00000220: 9fc0 4fbd 46dc b9bc efc4 543d 5f25 b8bd
00000230: 07c3 ae3c 33eb 84bc 81e7 40bd cdb0 143c
00000240: 5af9 4fbd 6056 8c3d 765d afbd cee9 b1bc
00000250: 6eaa 8fbd ecf3 b83c 2fe2 7dbd ebed 39bd
00000260: ad87 853c 5b0f 983c e2fd 173d ba49 6bbd
00000270: b0c6 5e3d 2e83 053d 2ef9 af3d 567a 893d
00000280: 23e9 99bd 9d24 043d 3620 a6bd 2ca4 e6bc
00000290: 6312 153d dd57 3ebb 550b 6dbd 3108 1e3b
000002a0: aae5 62bd b488 6bbd c7a9 62bd be10 90bd
000002b0: edfe 283d 93fc 623d 7ce4 c0bb e8ad f83c
000002c0: f823 5ebd 6637 ca3c 56c5 96bd 46de 333b
000002d0: f6c4 403d 8608 0a3d a47e 12bb e88f 8abc
000002e0: 8db1 40bb 78e6 8f3c b6ea 95bd 1c0b b13d
000002f0: e227 5dbd 357c 07bc a0d0 10bd 2623 61bd
00000300: 16fe d6bd c113 563c e2f0 073d 90b6 903d
00000310: 3a9e 473c 369a 74bd 1c23 993d ab83 44bd
00000320: 8eb6 d33c 74f1 f9bc 4463 92bd 9908 77bd
00000330: b08f a6bd 7791 df3b 7de9 a33c 4b92 063d
00000340: ecd6 f9bc 676f 8bbd 7f4c 993d 8971 643d
00000350: 12ef 59bc c351 a73c f584 1cbd 3b55 49bc
00000360: 69c3 273d 966c 82bd 92bd a83c 519e c63c
00000370: d7ee 81bc 7fa9 b1bc 383f a93d 3d97 c2bc
00000380: 8f8c ddbc 2557 13bd 782e 783d 96df 813c
00000390: 5117 8ebd 12ea e43c a92f 67bd ad04 96bb
000003a0: 5e2e 18bc ce33 83bc 76ff e53c 1c9e 553b
000003b0: a3b3 d93c 9453 043d 5b04 2cbd 546e 9bbd
000003c0: a902 a83c c84c bb3b 3555 1bbd 589a 05bd
000003d0: d90b 31bc ce23 47bd 1a52 01bd 6ccc 883d
000003e0: d8b9 0bbd ae32 45bd b33d 853d 3f5f 46bc
000003f0: 4f42 0abd d9d9 46bd 9fc2 c5bd a241 873c

net.2.bias f4 [128]
-0.11574624 -0.032919385 0.1093052 0.07384372 0.2940565 -0.043791924 -0.057894114 -0.015002658
0.06441345 0.031947426 -0.1936078 -0.0026082809 0.16687578 0.14893931 -0.05724957 0.022128826
-0.14154205 0.048776828 0.3375502 -0.16173844 -0.042370595 -0.05144383 0.18446003 -0.14525591
0.12686104 0.015744474 0.048549615 0.047825232 0.00041195765 0.010321192 -0.13662286 -0.035719138
0.03159633 0.03191817 -0.114427604 -0.015595171 0.013254387 0.003441375 0.10465702 0.080615096
0.08600783 -0.123598985 -0.0072126966 0.018395737 0.14630267 0.0042668777 -0.52121276 -0.047484692
0.06520967 -0.11585682 0.013674404 0.16052453 -0.05363122 -0.06575255 0.017332917 -0.036381
0.033720553 0.08360672 0.026134107 0.09202596 0.13084807 0.20037118 -0.50509846 0.09846552
-0.060099445 0.04191942 -0.0840134 0.095044136 -0.05008693 -0.09575546 -0.09199534 0.017644245
0.2655767 0.060463194 -0.038255386 0.076107346 0.038886614 -0.1307258 0.20932053 -0.1283659
0.015496414 -0.087634 -0.038401887 0.047415648 -0.048759066 0.038944628 0.090164036 0.046760507
0.0027816098 -0.049865033 -0.1776302 0.16608329 0.06902253 0.03800855 0.06330914 0.06998971
-0.12435805 0.028621709 -0.023687914 0.021428876 -0.0012985807 0.012982176 0.026174124 0.012649867
-0.050712187 0.02816372 0.02888729 -0.04813762 0.13742046 0.15187341 0.017729467 0.039710764
0.10051221 0.008270267 -0.14472052 0.12994643 0.047638636 0.08425746 -0.039420966 -0.06524418
-0.23248716 -0.06884207 -0.06677292 0.040979773 -0.09871038 -0.093980774 0.11996966 -0.08967066
00000000: 5d0c edbd 7ad6 06bd 68db df3d 603b 973d
00000010: 938e 963e 295f 33bd 6122 6dbd b5cd 75bc
00000020: 33eb 833d 4edb 023d 2041 46be b1ef 2abb
00000030: 7ce1 2a3e 8c83 183e 867e 6abd 8347 b53c
00000040: 66f0 10be 36ca 473d 61d3 ac3e c39e 25be
00000050: ca8c 2dbd c4b6 52bd 17e3 3c3e f7bd 14be
00000060: dce7 013e 8efa 803c f6db 463d 64e4 433d
00000070: 05fc d739 381a 293c dde6 0bbe 3b4e 12bd
00000080: 276b 013d a1bc 023d 0559 eabd e382 7fbc
00000090: ee28 593c b188 613b 6b56 d63d 8719 a53d
000000a0: e024 b03d 7721 fdbd 7c58 ecbb a8b2 963c
000000b0: 5ed0 153e 2ad1 8b3b 336e 05bf 4f7f 42bd
000000c0: a68c 853d 5746 edbd 9b0a 603c 8b60 243e
000000d0: 69ac 5bbd 46a9 86bd c3fd 8d3c 3e04 15bd
000000e0: 901e 0a3d 003a ab3d 3217 d63c 1b78 bc3d
000000f0: 09fd 053e 1a2e 4d3e 224e 01bf 4aa8 c93d
00000100: d62a 76bd b3b3 2b3d 380f acbd 80a6 c23d
00000110: f427 4dbd 701b c4bd 0e68 bcbd aa8a 903c
00000120: abf9 873e 41a8 773d aeb1 1cbd 2bde 9b3d
00000130: 9247 1f3d fcdc 05be 1f58 563e 5a72 03be
00000140: ace4 7d3c 7479 b3bd 4c4b 1dbd e936 423d
00000150: 96b7 47bd 6784 1f3d eca7 b83d f287 3f3d
00000160: ab4b 363b 473f 4cbd b1e4 35be bd11 2a3e
00000170: af5b 8d3d daae 1b3d 39a8 813d c456 8f3d
00000180: 6faf febd 1378 ea3c 280d c2bc 9c8b af3c
00000190: 2335 aaba 31b3 543c 1e6b d63c 6341 4f3c
000001a0: 95b7 4fbd 9ab7 e63c 0aa5 ec3c f42b 45bd
000001b0: f3b7 0c3e b484 1b3e 633d 913c c1a7 223d
000001c0: 58d9 cd3d 0480 073c 9e31 14be ad10 053e
000001d0: bb20 433d 2d8f ac3d e177 21bd be9e 85bd
000001e0: 1d11 6ebe 12fd 8cbd 3ec0 88bd 68da 273d
000001f0: ab28 cabd fe78 c0bd a7b2 f53d 40a5 b7bd

net.4.weight f4 [128, 128]
-0.030142438 -0.035751138 -0.09241425 0.1360209 -0.058192566 0.009917032 0.019774124 0.108318105
0.0709703 0.043848082 -0.12740257 0.019259054 -0.05168256 -0.09469673 0.13203642 -0.0038471234
0.05816499 0.006968849 -0.11454108 -0.0363969 0.011773644 0.007847913 0.03973887 0.043374564
0.05063106 0.06701525 0.052930605 0.046662737 0.04638697 0.07341463 -0.03259774 0.022211868
0.037917465 -0.067681424 -0.017265396 0.07641983 0.0025436576 -0.06632672 0.011223198 0.043674972
0.07391805 0.07194055 0.065415226 -0.024017684 0.033700068 0.017374104 0.109082446 0.08277416
-0.10050819 0.028525738 0.033429682 -0.04676771 0.122696795 -0.04354314 -0.0082380455 -0.12286461
-0.0701875 -0.024533534 0.004956427 0.0026186602 0.047225926 0.011992879 0.033624083 -0.056731895
-0.07240457 0.0780415 0.0114732785 -0.09562976 0.054074902 0.112494156 0.015293943 0.0072600716
0.008388065 -0.014218171 0.07012034 0.007381489 -0.09503076 -0.006592715 -0.084895276 0.11517646
0.049783453 -0.008108732 0.025228463 0.08494329 0.032557305 0.10043727 -0.07813821 -0.04482413
-0.013970392 0.11459788 0.03169521 -0.02909598 0.058232237 0.035859652 0.07151895 -0.010692016
0.063471876 0.10784969 0.022733856 -0.01865499 -0.024137167 -0.036803495 -0.12408396 -0.007768108
-0.045440342 0.04849255 0.043708723 0.021990802 -0.06662365 0.009454509 0.04919273 -0.07364619
-0.02167292 0.04597088 -0.00946825 0.110576384 0.04850858 -0.06617484 0.080299534 0.0061733723
0.12128303 -0.020725744 -0.005259243 0.05976776 -0.04083849 0.1091295 0.05630362 0.007855472
0.037047975 -0.0130709065 -0.088256255 0.04864208 -0.116397135 0.022017252 0.07861264 0.02842184
-0.011421953 0.01943092 -0.010111177 0.04806948 0.049825147 -0.04059482 0.06973651 0.039785158
0.08702594 0.01025053 -0.008157133 -0.035281714 0.041967623 -0.0024509511 -0.0192499 -0.020206109
-0.038583033 0.05508822 -0.011733896 0.061972562 -0.011237998 0.06496651 0.04808485 -0.032428816
-0.047003794 -0.0946667 0.044530563 0.03747072 -0.062079366 0.06658587 -0.028324658 0.06129918
0.046892818 -0.01834839 -0.09280527 0.031691287 -0.07733964 -0.10007513 0.11252629 0.04747206
-0.059393935 0.074919224 0.028450273 -0.009225085 -0.08183245 -0.0078124576 0.050785758 -0.015934534
-0.05494893 0.002675121 0.014638009 -0.06433123 -0.047565866 -0.006936189 -0.097005256 0.005263625
-0.015134233 0.037320103 0.0010023741 -0.024433656 0.02449073 0.017931899 0.04600874 0.032493345
0.002599476 -0.004260755 -0.04726875 -0.08977801 -0.06941527 0.035605554 0.015751379 0.07007297
-0.04610913 0.010619493 0.08257483 -0.045705397 -0.06160883 0.012440772 -0.091346025 -0.023578249
0.09712787 0.071034916 0.08191161 0.014703275 0.022052154 0.052003328 0.1059358 0.087582715
0.033708386 0.06874633 -0.04216186 0.005090208 -0.0047270237 -0.102572255 0.021226997 0.006424015
0.0029663946 -0.08478955 0.011484008 0.1083203 -0.023238283 -0.08201539 -0.0068785436 0.025714051
0.01884564 0.01971389 0.013212811 -0.016645595 0.06426918 -0.022702869 0.036581747 0.13574116
0.17887074 0.07894513 0.10028326 0.024509776 -0.018767778 -0.02164357 0.0059450124 0.08833153
00000000: 46ed f6bc c96f 12bd af43 bdbd 1049 0b3e
00000010: 545b 6ebd 0c7b 223c 58fd a13c e2d5 dd3d
00000020: e058 913d 0c9a 333d d275 02be 2ac5 9d3c
00000030: 18b1 53bd 5cf0 c1bd 8e34 073e 0520 7cbb
00000040: 6a3e 6e3d f15a e43b 8494 eabd ea14 15bd
00000050: 3ee6 403c 8894 003c 3ac5 223d 87a9 313d
00000060: 8462 4f3d 4b3f 893d c3cd 583d 6d21 3f3d
00000070: 4300 3e3d 695a 963d 3585 05bd aaf5 b53c
00000080: 584f 1b3d 8f9c 8abd 2970 8dbc 0082 9c3d
00000090: 7eb3 263b 4ed6 87bd 81e1 373c 87e4 323d
000000a0: 5962 973d 9155 933d 6bf8 853d bcc0 c4bc
000000b0: 1509 0a3d 2354 8e3c 9e66 df3d 8085 a93d
000000c0: 3dd7 cdbd cfae e93c 90ed 083d 808f 3fbd
000000d0: 7548 fb3d 4b5a 32bd def8 06bc 71a0 fbbd
000000e0: 77be 8fbd 8dfa c8bc 8669 a23b d49d 2b3b
000000f0: f96f 413d c87d 443c 68b9 093d b45f 68bd
00000100: d948 94bd 39d4 9f3d 6bfa 3b3c 89d9 c3bd
00000110: a57d 5d3d 5663 e63d 7293 7a3c e5e5 ed3b
00000120: 186e 093c 55f3 68bc 419b 8f3d 6be0 f13b
00000130: 7d9f c2bd b407 d8bb 93dd adbd a3e1 eb3d
00000140: bce9 4b3d 7dda 04bc ecab ce3c bff6 ad3d
00000150: cf5a 053d 0eb2 cd3d ed06 a0bd 8299 37bd
00000160: 12e4 64bc 4bb2 ea3d d6d2 013d b15a eebc
00000170: ed84 6e3d 92e1 123d 8778 923d 912d 2fbc
00000180: 8bfd 813d 4ce0 dc3d 5a3c ba3c 59d2 98bc
00000190: 4fbb c5bc 43bf 16bd bb1f febd 9d8b febb
000001a0: a71f 3abd 20a0 463d eb07 333d 0e26 b43c
000001b0: fb71 88bd 16e7 1a3c 517e 493d d0d3 96bd
000001c0: 688b b1bc f64b 3c3d b820 1bbc df75 e23d
000001d0: efb0 463d ad86 87bd 1574 a43d 004a ca3b
000001e0: 3d63 f83d 09c9 a9bc ba55 acbb 0acf 743d
000001f0: 4346 27bd 4a7f df3d a09e 663d 3db4 003c
00000200: 9ebf 173d 5b27 56bc b2bf b4bd eb3c 473d
00000210: 9f61 eebd 865d b43c aaff a03d ebd4 e83c
00000220: 2523 3bbc 982d 9f3c 5aa9 25bc 81e4 443d
00000230: 7415 4c3d c146 26bd 04d2 8e3d c3f5 223d
00000240: a83a b23d d7f1 273c 7fa5 05bc 8f83 10bd
00000250: 3ee6 2b3d 23a0 20bb f7b1 9dbc 4887 a5bc
00000260: 3e09 1ebd 2fa4 613d 873f 40bc f1d6 7d3d
00000270: 941f 38bc 290d 853d 9ff4 443d 14d4 04bd
00000280: 0d87 40bd 9de0 c1bd ae65 363d e67a 193d
00000290: ef46 7ebd 2c5e 883d 1d09 e8bc d914 7b3d
000002a0: af12 403d 5d4f 96bc b010 bebd b9ce 013d
000002b0: 3f64 9ebd 31f4 ccbd 2f74 e63d 1072 423d
000002c0: 0e47 73bd 406f 993d 8c10 e93c d024 17bc
000002d0: c697 a7bd a5ff ffbb ba04 503d 2489 82bc
000002e0: 2112 61bd 1551 2f3b 42d4 6f3c 18c0 83bd
000002f0: 6dd4 42bd f848 e3bb b1aa c6bd 7d7a ac3b
00000300: 93f5 77bc f7dc 183d 1862 833a 1729 c8bc
00000310: c9a0 c83c ebe5 923c a973 3c3d be17 053d
00000320: f85b 2a3b ce9d 8bbb e09c 41bd 89dd b7bd
00000330: 9829 8ebd 21d7 113d 0909 813c 6b82 8f3d
00000340: eddc 3cbd 62fd 2d3c fe1c a93d 9535 3bbd
00000350: 8a59 7cbd 61d4 4b3c a013 bbbd 2c27 c1bc
00000360: faea c63d c17a 913d 46c1 a73d 01e6 703c
00000370: b8a6 b43c 7101 553d def4 d83d 915e b33d
00000380: ce11 0a3d e0ca 8c3d eab1 2cbd c2cb a63b
00000390: 26e5 9abb 6711 d2bd 3de4 ad3c 8b80 d23b
000003a0: d867 423b 25a6 adbd 6c27 3c3c 09d7 dd3d
000003b0: 365e bebc aff7 a7bd 6865 e1bb 46a6 d23c
000003c0: 2c62 9a3c 067f a13c 8c7a 583c 585c 88bc
000003d0: 8f9f 833d 5efb b9bc bed6 153d bbff 0a3e
000003e0: e429 373e fcad a13d 4f61 cd3d bac8 c83c
000003f0: e2be 99bc db4d b1bc 61ce c23b 29e7 b43d

net.4.bias f4 [128]
-4.1286406e-05 -0.023584597 0.25527948 0.042045675 -0.02545235 0.052378483 0.029474257 -0.03972801
0.07543213 0.042407926 0.014719231 0.093895465 -0.059726257 0.03254815 -0.042856805 0.035139322
0.01630143 0.111412644 0.079599395 0.045777686 0.026263129 -0.04662353 0.029484145 0.08603251
-0.065838106 -0.1208843 -0.06435971 0.081386134 -0.006876909 -0.011827361 0.04323062 -0.055349484
-0.033315353 -0.03763658 -0.09440213 -0.108880326 -0.03977207 0.07068979 -0.034956813 -0.0292028
-0.1327055 0.0120126 0.09125856 -0.055800002 0.042898696 -0.10012869 -0.0065319347 0.08599032
0.058689605 -0.04975317 -0.032745145 0.04434215 0.047863662 -0.012940666 0.108057365 0.12563166
-0.02367473 0.061921235 -0.074314386 -0.030672029 -0.05636385 0.07721881 -0.12012344 0.006033906
0.018984834 -0.07881712 -0.036331173 0.09089335 -0.056426443 -0.0086940555 0.022846466 0.09437422
-0.008456249 -0.107573025 0.086746335 0.33799276 -0.06296807 0.012917301 0.00010191828 -0.14975232
0.0577285 0.01938817 0.03854011 -0.010470893 -0.14086254 0.02782797 -0.15785055 0.045704193
0.01713041 0.024143865 0.052252203 -0.030144751 0.0926875 -0.051076744 0.03897506 0.04742933
0.033923868 -0.10226804 -0.08591003 0.0037458593 -0.07624426 -0.12285461 0.038697034 -0.03702789
0.06138748 0.09984742 -0.0039793416 -0.050820187 0.0974524 0.0687691 -0.0929772 0.036399074
0.007349434 0.0790663 0.013431449 -0.0155647835 0.10747672 0.0011924576 0.04378991 0.016465824
0.013038456 0.08325567 -0.0745632 0.07452651 0.06888721 -0.118729435 -0.027508633 -0.016348027
00000000: f12a 2db8 7c34 c1bc feb3 823e 1638 2c3d
00000010: 7281 d0bc d28a 563d ff73 f13c d6b9 22bd
00000020: 297c 9a3d efb3 2d3d ee28 713c 444c c03d
00000030: 85a3 74bd 3551 053d 9e8a 2fbd 40ee 0f3d
00000040: 948a 853c 502c e43d 0205 a33d 6281 3b3d
00000050: c625 d73c 51f8 3ebd bc88 f13c d031 b03d
00000060: 21d6 86bd 3092 f7bd 06cf 83bd c6ad a63d
00000070: b257 e1bb 8cc7 41bc 9712 313d 24b6 62bd
00000080: ae75 08bd d128 1abd e755 c1bd a6fc debd
00000090: 0ae8 22bd cfc5 903d e02e 0fbd b63a efbc
000000a0: f3e3 07be 7fd0 443c c5e5 ba3d 8b8e 64bd
000000b0: 8bb6 2f3d 4510 cdbd d709 d6bb b11b b03d
000000c0: 8364 703d fbc9 4bbd c61f 06bd 1da0 353d
000000d0: b00c 443d 1605 54bc 2e4d dd3d 96a5 003e
000000e0: 82f1 c1bc 1fa1 7d3d 2432 98bd e843 fbbc
000000f0: c8dd 66bd e524 9e3d 4703 f6bd 12b8 c53b
00000100: 1586 9b3c df6a a1bd ffcf 14bd 4b26 ba3d
00000110: 6a1f 67bd 8371 0ebc 8328 bb3c 4547 c13d
00000120: 148c 0abc 3f4f dcbd 10a8 b13d 630d ad3e
00000130: 67f5 80bd 16a3 533c f6bc d538 ac58 19be
00000140: b874 6c3d f1d3 9e3c 3cdc 1d3d 1c8e 2bbc
00000150: 453e 10be 7cf7 e33c 93a3 21be 5234 3b3d
00000160: 1355 8c3c 5bc9 c53c 6806 563d 20f2 f6bc
00000170: f2d2 bd3d d935 51bd 50a4 1f3d 4245 423d
00000180: c1f3 0a3d e871 d1bd 99f1 afbd 177d 753b
00000190: f325 9cbd 339b fbbd c880 1e3d 8faa 17bd
000001a0: 7071 7b3d ce7c cc3d 2365 82bb d428 50bd
000001b0: 2095 c73d d0d6 8c3d d56a bebd 3217 153d
000001c0: 85d3 f03b 83ed a13d 950f 5c3c 6f03 7fbc
000001d0: c11c dc3d 3d4c 9c3a 0c5d 333d 56e3 863c
000001e0: 409f 553c f381 aa3d 97b4 98bd 5ba1 983d
000001f0: bd14 8d3d 6b28 f3bd c959 e1bc 4cec 85bc

net.6.weight f4 [2, 128]
-0.038484745 0.08925047 -0.21444382 0.13175842 -0.23185341 -0.14904086 0.08546217 0.1358946
0.20079392 0.041923683 0.36556876 -0.11039753 0.25459397 0.14611991 -0.25241083 0.22214086
-0.21247531 -0.18574533 0.0045600478 -0.08963023 -0.36507607 -0.18733583 0.24853048 -0.15401442
0.052632876 -0.030997131 -0.22837406 -0.040279254 -0.21534024 -0.13709565 0.09960864 0.093780346
-0.013223584 -0.20599866 -0.07461984 0.35710064 -0.08360463 0.33896574 0.18634455 0.23855764
0.09019362 -0.037098967 0.01933015 -0.4007058 -0.24158044 -0.021513935 0.3672007 -0.007513091
0.06637314 0.24039829 0.2949048 0.31729364 -0.09148286 -0.03129946 0.2915916 -0.18084435
-0.055496976 0.12051236 -0.08112474 -0.08647227 0.051544383 -0.18548185 -0.4183776 0.21537377
0.27075076 -0.31814003 -0.14187971 -0.055971973 0.35721454 -0.26273906 0.08036957 0.33844823
0.08929283 -0.2609819 0.28974414 0.7686849 -0.17353976 -0.24487531 -0.015871352 -0.013491374
0.27467465 -0.06798905 0.23376432 -0.2245325 0.12593533 0.3078794 0.016102046 0.19782098
-0.17006657 -0.1786452 0.19660226 0.002613287 -0.22092915 0.35692912 0.06705117 0.34727302
-0.067974634 0.12662731 -0.08133637 -0.19976151 0.12733182 -0.008074218 -0.1809487 0.064747654
-0.034308415 0.23141026 -0.14327341 -0.28241414 0.2655846 -0.30924225 0.032208882 0.067557074
-0.29727846 0.27783942 -0.20583726 0.34395355 -0.08547234 0.15385693 0.44117647 0.36471784
-0.12750547 0.29561284 -0.32434708 -0.19025932 -0.110038005 -0.0023905444 -0.2675134 0.2842629
0.06738565 0.106879056 0.20139733 0.114249155 -0.015119581 0.012160996 -0.08940212 0.08284643
0.06277675 -0.09012649 -0.025184633 -0.070048906 -0.08723561 0.06399989 0.01387011 0.055917718
-0.08228216 -0.061856132 -0.05124221 -0.08046025 0.03538805 -0.037208755 -0.083365865 -0.060472682
0.059357982 0.13349469 -0.018869713 -0.068208344 -0.060926892 -0.03509959 -0.052700307 0.061546
0.1128673 -0.012268316 0.12423306 -0.004217568 0.039226692 -0.023679106 0.093447514 -0.018956836
0.13223515 -0.071400814 -0.065970644 -0.010453204 0.052502267 0.08012143 0.009855125 -0.08794394
0.11936052 -0.015169153 0.03910396 -0.014164235 -0.07410692 0.08143865 0.0026641246 -0.046568185
-0.08255838 0.034646273 0.07271571 -0.07488068 -0.03961648 0.04425538 -0.013902811 0.053253386
0.054483708 0.0011920693 -0.041263953 -0.07861827 0.016165253 -0.023873903 0.09808445 -0.03771191
0.09722193 0.009158934 -0.026115436 -0.019417083 -0.08369973 -0.008731611 0.115068704 0.108014554
-0.025085863 0.09540117 0.00915111 -0.06752192 0.094922096 -0.0075093405 0.12270262 -0.07030974
0.06979291 -0.06675361 -0.036122642 0.0929863 -0.011312444 -0.0010936772 0.07157324 -0.014202739
0.09760649 0.13076086 0.12908141 0.003849677 0.09191584 0.100393675 -0.07599902 0.109588645
-0.084536165 -0.05569065 -0.0909572 0.011381254 -0.029978042 -0.030255804 0.10119759 0.039832134
0.02417121 -0.04292935 -0.057291932 0.095040485 -0.039426968 -0.09082804 0.050442263 -0.033314347
0.05310113 -0.0027887875 -0.0032491728 0.021075275 -0.0180837 0.070277266 -0.051518735 -0.05450555
00000000: 2ea2 1dbd f3c8 b63d 2997 5bbe aeeb 063e
00000010: fb6a 6dbe 2b9e 18be ca06 af3d f427 0b3e
00000020: ec9c 4d3e 2bb8 2b3d d42b bb3e 1a18 e2bd
00000030: 245a 823e 75a0 153e fe3b 81be e578 633e
00000040: 2193 59be 0634 3ebe 746c 953b 0e90 b7bd
00000050: 40eb babe f7d4 3fbe c67e 7e3e f5b5 1dbe
00000060: 9295 573d b2ed fdbc e4da 69be dcfb 24bd
00000070: 2782 5cbe cd62 0cbe 9dff cb3d e90f c03d
00000080: bba7 58bc 50f1 52be 49d2 98bd e5d5 b63e
00000090: e738 abbd eb8c ad3e 1bd1 3e3e 7448 743e
000000a0: 6fb7 b83d 16f5 17bd 435a 9e3c 5029 cdbe
000000b0: dd60 77be fe3d b0bc bb01 bc3e 6030 f6bb
000000c0: a4ee 873d f82a 763e c3fd 963e 5074 a23e
000000d0: 5e5b bbbd dd33 00bd 7f4b 953e 432f 39be
000000e0: cc50 63bd 2fcf f63d ba24 a6bd 6018 b1bd
000000f0: 3420 533d f4ee 3dbe 9735 d6be f18a 5c3e
00000100: d89f 8a3e 40e3 a2be ea48 11be de42 65bd
00000110: d3e4 b63e bc85 86be cd98 a43d 1649 ad3e
00000120: 29df b63d 6b9f 85be 5859 943e 89c8 443f
00000130: 68b4 31be 98c0 7abe a304 82bc ed0a 5dbc
00000140: 28a2 8c3e d83d 8bbd ea5f 6f3e d9eb 65be
00000150: 31f5 003e 5ea2 9d3e 70e8 833c 9591 4a3e
00000160: ee25 2ebe c4ee 36be 1a52 493e ae43 2b3b
00000170: 403b 62be 6abf b63e 2052 893d c5cd b13e
00000180: 4936 8bbd 97aa 013e af93 a6bd 488e 4cbe
00000190: 4663 023e ba49 04bc 9e4a 39be 6b9a 843d
000001a0: fb86 0cbd d0f6 6c3e 44b6 12be 9698 90be
000001b0: b4fa 873e 0055 9ebe 76ed 033d 5d5b 8a3d
000001c0: e234 98be f840 8e3e 01c7 52be ae1a b03e
000001d0: 1f0c afbd ac8c 1d3e e2e1 e13e 4cbc ba3e
000001e0: cb90 02be 915a 973e d210 a6be 57d3 42be
000001f0: 9b5b e1bd aeaa 1cbb 84f7 88be e88a 913e
00000200: 7d01 8a3d 68e3 da3d 1a3b 4e3e 76fb e93d
00000210: 1eb8 77bc ea3e 473c 7518 b7bd 64ab a93d
00000220: 1991 803d 3d94 b8bd 0150 cebc cd75 8fbd
00000230: 95a8 b2bd 6012 833d 753f 633c fa09 653d
00000240: 8d83 a8bd db5c 7dbd 5ae3 51bd 58c8 a4bd
00000250: 0ff3 103d 3568 18bd b9bb aabd 34b2 77bd
00000260: 5b21 733d d5b2 083e a894 9abc d1b0 8bbd
00000270: 7a8e 79bd 96c4 0fbd 47dc 57bd a917 7c3d
00000280: f926 e73d 0c01 49bc e76d fe3d 8633 8abb
00000290: 2bac 203d affa c1bc 6961 bf3d 5e4b 9bbc
000002a0: a768 073e 973a 92bd 9e1b 87bd ea43 2bbc
000002b0: 9e0c 573d b416 a43d 6477 213c f41b b4bd
000002c0: 4a73 f43d 0a88 78bc 792b 203d 1c11 68bc
000002d0: 5ec5 97bd 4fc9 a63d 9898 2e3b 48be 3ebd
000002e0: 5e14 a9bd 40e9 0d3d f9eb 943d 0b5b 99bd
000002f0: e444 22bd 2145 353d 9ec8 63bc 3920 5a3d
00000300: 4f2a 5f3d 353f 9c3a 6404 29bd 9e02 a1bd
00000310: fe6c 843c 3493 c3bc 80e0 c83d ce77 1abd
00000320: 4b1c c73d 5a0f 163c 0af0 d5bc 9310 9fbc
00000330: c46a abbd 080f 0fbc 24a9 eb3d bc36 dd3d
00000340: de80 cdbc b061 c33d 8aee 153c ef48 8abd
00000350: 8466 c23d ea10 f6bb 834b fb3d 8efe 8fbd
00000360: 96ef 8e3d 1eb6 88bd 56f5 13bd 9a6f be3d
00000370: d457 39bc b859 8fba fe94 923d 9bb2 68bc
00000380: e9e5 c73d 2de6 053e eb2d 043e dd4a 7c3b
00000390: 5f3e bc3d 339b cd3d 60a5 9bbd 0370 e03d
000003a0: 4c21 adbd e11b 64bd c547 babd 7078 3a3c
000003b0: 8394 f5bc 05db f7bc af40 cf3d 0527 233d
000003c0: b402 c63c b0d6 2fbd f2aa 6abd 96a4 c23d
000003d0: 2c7e 21bd 0d04 babd 8c9c 4e3d a074 08bd
000003e0: 9280 593d 17c4 36bb 13f0 54bb 0ea6 ac3c
000003f0: 4524 94bc 87ed 8f3d 4f05 53bd 3641 5fbd

net.6.bias f4 [2]
-0.021732643 0.038452577
00000000: a808 b2bc 7380 1d3d
