model/Bi2Te3.pth (torch, 139928 bytes, 8 tensors)

net.0.weight f4 [128, 6]
000000 e5 d5 d7 be 21 7c 5a be a2 ac 9a 3e af f4 4f 3e
       -0.42155376 -0.21336414 0.30209833 0.20308183
000010 ed 8b cf bd 58 db 76 3d 01 7d 2d 3d d0 d4 c2 bb
       -0.101341106 0.060267776 0.04235554 -0.0059457794
000020 97 2a 95 3e 43 ba a5 bd 96 3b 4f 3e 27 85 ab 3e
       0.29134056 -0.08092167 0.20237574 0.33500025
000030 c5 98 b0 3d bb fe 89 3e 47 99 de be 1a b9 ca bd
       0.086228885 0.26952156 -0.43476316 -0.098985866
000040 a7 cb 7a be f8 8c d4 be 15 8a 5b bd 46 27 75 3e
       -0.2449175 -0.415138 -0.053598482 0.23940763
000050 39 3c e7 3d 85 59 ee bd 2a c9 ae be 04 cd 9d 3d
       0.112907834 -0.11638168 -0.3413785 0.07705119
000060 ae ce e8 3c 02 43 7c 3e c0 b9 85 be 68 23 8c 3e
       0.028418865 0.24634936 -0.26118279 0.27370763
000070 ce 85 b6 be 9a b0 a5 be 65 fb a2 be 9d dc cd be
       -0.3564896 -0.323613 -0.31832424 -0.40207377
000080 23 48 4a 3e 2a 41 62 be dd 89 17 bd b0 79 6a be
       0.1975408 -0.2209517 -0.03699671 -0.22897983
000090 ae 2b a5 3d 6d 65 28 be 8d 52 95 3d d2 cb 91 be
       0.08064972 -0.16444941 0.07291136 -0.28475815
0000a0 45 bd ba be aa 95 07 bd 85 3a b2 3e 59 0d 9e be
       -0.36472526 -0.033101715 0.34810272 -0.30869558
0000b0 e3 87 02 bf c2 01 bf be d3 2f 05 3e 68 01 d6 3d
       -0.50988597 -0.3730603 0.13006525 0.10449487
0000c0 e4 ad 87 be 20 63 d6 be ee 05 b6 3e cb e2 1e 3d
       -0.26499856 -0.418725 0.355514 0.038790505
0000d0 b2 f6 82 be 8d f3 bd 3c 9b 4f bd be e3 6b 8e be
       -0.2557884 0.023187423 -0.36974797 -0.27816686
0000e0 0a 5a 3b 3d 67 49 dc 3d f0 ce a8 3e 4c d1 ce 3e
       0.045740165 0.10756188 0.3297038 0.40394056
0000f0 f0 80 43 be 45 eb c6 3d a6 18 a7 3e 52 e2 8d 3e
       -0.19092155 0.09712843 0.32635993 0.2771173
000100 f2 27 b2 be 10 3e 91 3e 56 32 7a 3e 21 c1 91 be
       -0.347961 0.28367662 0.24433264 -0.28467658
000110 dd 56 e4 be 34 c5 6d be 9f af 7f 3e 1a 91 27 3e
       -0.4459752 -0.23219758 0.24969338 0.16363946
000120 85 12 98 3e 50 0e ea bd 54 0c 2b be 74 a8 de 3e
       0.2970163 -0.11428511 -0.16703922 0.43487895
000130 a7 ea 00 3f 2c 21 92 3d ed 30 b5 3e 11 8f 4c be
       0.5035805 0.07135233 0.3538889 -0.1997645
000140 b6 c3 6f be 86 fa d4 be c1 7c f8 3d d1 83 a7 be
       -0.23414502 -0.41597384 0.1213317 -0.32717755
000150 d2 96 d6 be e5 d7 11 be 0b ab 44 be 2d 72 9a 3e
       -0.41911942 -0.14242513 -0.19205873 0.30165234
000160 72 16 90 3e 34 84 b3 be 44 2c a7 be a7 b5 9d bb
       0.28142124 -0.350618 -0.3265096 -0.0048129144
000170 1a fc 6a 3e ac 40 a3 3e 02 a0 40 bd e5 12 47 be
       0.22947732 0.31885278 -0.047027595 -0.19440801
000180 2d 13 d1 be 09 ae bf be e0 5c 62 be ff 35 3a 3d
       -0.40834942 -0.37437466 -0.22105742 0.04546165
000190 4d 75 61 3e b3 4c 0a 3f ae 5d de bd 6c 74 90 be
       0.22017403 0.54023284 -0.10857712 -0.28213823
0001a0 21 ff a6 be 34 ec 56 3e b5 2a 04 bf ce d3 8a be
       -0.32616523 0.20988542 -0.51627666 -0.2711472
0001b0 a4 b4 2a bd eb 5b e9 be 3f ac 8c 3e f8 a1 7d 3e
       -0.04167618 -0.4557794 0.27475163 0.24768817
0001c0 88 2b 13 3e 1b da 39 be c2 09 17 3e 5d 71 29 bd
       0.14372075 -0.18149607 0.14749816 -0.041367877
0001d0 59 aa 10 bd 27 18 9d bc 9b 74 ec 3d 43 d0 e2 3d
       -0.035318706 -0.019176556 0.11545678 0.11074879
0001e0 83 8d 6b 3e 0c 86 20 3e 48 8e 38 3e f1 7b 87 3e
       0.23003201 0.15676135 0.18023026 0.26461747
0001f0 c0 e8 1d bd 0c 93 25 be e8 a9 ac be 46 ef e6 bd
       -0.038552046 -0.16169375 -0.33723378 -0.112761065
000200 91 2b 93 bd f4 00 85 3e ae ab 79 3e eb 4b 7c be
       -0.07186044 0.2597729 0.24381897 -0.24638335
000210 cc 11 a7 be d8 5e 79 be 2f 79 97 be 75 c2 9d be
       -0.32630765 -0.24352586 -0.29584643 -0.3081242
000220 5b 13 39 3d 9d 9f 97 3e a0 d7 f3 be 91 ad 7f be
       0.045184474 0.29613963 -0.47625446 -0.24968554
000230 6b 01 02 bf 8f 2b 4b 3d 8c 1a 93 3e ad 12 59 3c
       -0.50783414 0.049602088 0.2873119 0.013249082
000240 1f 62 dc bc 82 d7 dc be 07 ee 93 be cc ea 0e be
       -0.026902257 -0.4313317 -0.28892538 -0.13956755
000250 ed 22 a3 3e 2f 54 f0 be 00 04 d8 3e f7 8d 92 be
       0.31862584 -0.46939227 0.42190552 -0.28623936
000260 ae fe 41 be b3 58 b2 be 8b fc 2a be 36 bf b7 3e
       -0.18944809 -0.34833297 -0.166979 0.3588807
000270 55 04 68 bd b3 39 2b 3e 13 1a 4a 3e fc cd aa be
       -0.056644756 0.1672123 0.19736509 -0.3336028
000280 92 e5 5f be db d3 bc be 20 5e ba 3c 67 c3 9c bd
       -0.21864918 -0.36880383 0.02274996 -0.076544575
000290 b3 10 e7 be c6 99 eb 3e a2 f9 d3 be f8 84 96 3e
       -0.45129928 0.46015757 -0.41401392 0.29398322
0002a0 16 74 3b 3e 31 cc 8c 3e e0 51 8b 3c 3f 26 1d 3e
       0.18306002 0.27499536 0.017006814 0.15346621
0002b0 df 8e db be d9 a7 42 be dc a0 8f bd 8e 62 95 bc
       -0.4288244 -0.19009341 -0.07013103 -0.018235471
0002c0 0b 32 1b be d2 9b f8 3d 22 eb 96 3e ca 3f 02 3e
       -0.15155809 0.12139095 0.29476267 0.12719646
0002d0 50 bf 53 be f0 a8 a1 be d9 aa 6d 3e 4e f0 b1 3e
       -0.20678449 -0.31574202 0.23209704 0.3475365
0002e0 ec 78 a3 be 40 42 ea bd f2 cc c2 bd 6a fb 8e 3e
       -0.31928194 -0.114384174 -0.095117465 0.2792619
0002f0 8a b8 76 be 0b 7c 96 be 13 ac a3 be b6 99 e5 3d
       -0.24093834 -0.29391512 -0.3196722 0.11210959
000300 3a f7 5b 3e be 7c 35 3e 43 55 28 3d 51 ba ee bd
       0.21481028 0.17723367 0.041096937 -0.11656631
000310 99 1e 91 3e 23 7f b3 3e 4c 30 a1 be 0c 21 89 be
       0.28343657 0.35057935 -0.3148216 -0.26783025
000320 a1 00 a0 3e 7f 12 a4 3e a6 cf 83 3e 99 a6 4c 3e
       0.3125048 0.3204536 0.2574436 0.19985427
000330 2d 99 ca bd 8d a1 86 be af 06 3f be 03 64 f0 3e
       -0.09892497 -0.26295128 -0.18654893 0.46951303
000340 95 c9 a9 be dd 8e ec 3c 44 2e 22 3e 4c 4b 98 be
       -0.33161607 0.028876716 0.15837961 -0.29744947
000350 ce c8 5e be 91 ce 26 3e 44 8e ad be a1 b6 e7 be
       -0.21756288 0.16289736 -0.33897603 -0.45256522
000360 18 19 1d 3e d8 bd 26 3e a5 a0 c6 bd 6b c7 48 3e
       0.15341604 0.16283357 -0.09698609 0.19607322
000370 fb 72 a5 be 60 f4 c7 3e f5 93 0e be 5c bf b4 be
       -0.32314286 0.3905363 -0.13923629 -0.35302246
000380 5a 7a 78 bd e0 33 ae 3e 62 2e 4d 3d 41 e0 e1 3e
       -0.06066356 0.34023952 0.050093062 0.44116405
000390 50 70 d7 bc 7b 3a d2 be a9 f2 12 bd 07 9c 9b 3e
       -0.026298672 -0.41060242 -0.03587595 0.30392477
0003a0 1c 1a c0 3e ba 09 be be 65 03 76 3e c1 73 2e 3e
       0.3751992 -0.37116796 0.24024732 0.17036344
0003b0 74 51 83 3d 97 65 a4 3e d4 8a b3 be 7b f0 cd be
       0.0641202 0.32108757 -0.35066855 -0.40222535
0003c0 52 ac a4 3e 64 f4 ca be 8c cb 5f 3e 7c a1 0d 3e
       0.3216272 -0.3963958 0.2185499 0.13831133
0003d0 4d 17 c5 bd 35 ce e2 be 25 16 81 3e 87 98 68 3e
       -0.09623585 -0.44297948 0.25212207 0.22714435
0003e0 87 a5 a0 3d 99 41 4e be cd 58 b3 3e 4c 01 cc be
       0.07844072 -0.20142211 0.35028687 -0.3984474
0003f0 0a b6 c3 be 4b ff 4b 3e 81 15 04 3e 35 e0 f0 3d
       -0.38224822 0.19921605 0.12898828 0.11761514

net.0.bias f4 [128]
000000 ae c2 81 3e 92 32 a4 be 90 5c 43 3f 48 cf 84 3e
       0.2534384 -0.32069832 0.76313114 0.25939393
000010 6c 4e d4 bd d9 8e 9e 3d 84 67 42 be fe 0a 8e be
       -0.1036652 0.0774209 -0.189848 -0.2774276
000020 1d 8b a6 be 31 29 a3 3e 22 3a 8c be a6 0c 13 3e
       -0.3252801 0.31867364 -0.27388102 0.14360294
000030 a6 8e e2 3e 47 97 f9 3e 7a 0e 19 be f0 15 0a 3d
       0.44249457 0.48748228 -0.14946929 0.033712327
000040 66 63 11 3e 38 70 85 bd 0a 3f 50 be 22 50 3b 3c
       0.14198074 -0.06515545 -0.20336547 0.011432679
000050 0c 3e 93 3c d3 6d a0 be f0 90 e2 3d fb 35 2c 3e
       0.017973922 -0.3133379 0.11062801 0.16817467
000060 5c d3 ae be 2a ae b3 be 78 b6 90 bc 58 b9 ea bd
       -0.3414563 -0.35093814 -0.017665133 -0.11461133
000070 70 27 92 3d e7 83 8f bb fa f5 b9 3e e6 9e 8d 3e
       0.07136428 -0.0043797377 0.36320478 0.27660292
000080 df 19 c8 3d d4 61 f5 be c5 9b e3 3e 43 c9 42 bd
       0.097705595 -0.479262 0.4445478 -0.04755522
000090 40 f9 f7 3d 6d 6f 3e 3d 92 95 48 be c2 bf 58 3e
       0.121080875 0.046492983 -0.19588307 0.211669
0000a0 8b d7 bc be 89 03 31 bd d3 f7 c5 3d 29 f2 c9 3e
       -0.36883196 -0.043216262 0.09666409 0.39442566
0000b0 84 7f e2 be 9b 47 d9 bc 6b e6 57 be 78 f8 f5 3e
       -0.44237912 -0.026523402 -0.21083991 0.4804113
0000c0 52 5d 01 bf 6d b0 77 be fa 2f bb 3e 1f b5 75 be
       -0.5053302 -0.24188395 0.3656004 -0.23994873
0000d0 67 d5 95 3e 43 d4 eb 3e 77 83 d6 be 98 ed 03 3f
       0.29264376 0.4606038 -0.41897175 0.51534414
0000e0 67 70 ba 3d 6e a9 28 3e 29 c3 b0 be e9 4b 25 3d
       0.0910347 0.16470882 -0.34523895 0.040355597
0000f0 cf 28 5c bc f2 8f a2 be 0d 51 a2 be e4 24 e3 3e
       -0.013437464 -0.31750447 -0.31702462 0.44364083
000100 fe 18 ad 3e a0 90 cc 3e c5 de 9e 3e fc 0e d2 3e
       0.3380813 0.3995409 0.31029335 0.41027057
000110 b4 5d d5 3e 72 c6 27 be 78 e7 d5 bc d3 fe b7 be
       0.41673052 -0.16384295 -0.02611135 -0.35936603
000120 ac ec eb bd a6 1a 8c 3d 9f 5e 5a be 74 07 e6 be
       -0.11519751 0.0684102 -0.21325158 -0.4492756
000130 6f bc 58 3e 20 12 f6 3d d6 66 0b 3f aa 8e f8 be
       0.21165632 0.12015176 0.5445379 -0.48546344
000140 04 41 94 bd ab 11 f9 3b a1 72 9a be 25 73 bf 3e
       -0.07238963 0.007600983 -0.3016558 0.37392536
000150 e7 e2 65 3d 14 78 8e 3e bf 25 ab be 69 fb 95 be
       0.056124594 0.27825987 -0.33427235 -0.29293373
000160 47 89 85 3e ac c2 f5 be c7 de 99 3e ae 2a 84 3e
       0.26081297 -0.48000085 0.30052778 0.25813812
000170 80 13 52 bd 3a b5 0b 3f 1e 26 7b bd 1d bf db 3e
       -0.051288128 0.54573405 -0.06131565 0.42919245
000180 33 24 b1 3e ca ba c3 3c dc 82 13 3f b0 94 0b 3d
       0.3459793 0.023892779 0.5762155 0.034077346
000190 02 7b 7a be 4d 9e 44 3e f1 b8 fd be 16 da 86 be
       -0.24460986 0.19201012 -0.49555162 -0.2633826
0001a0 1f d8 88 3e a9 86 b1 bd d2 d4 f5 3d 34 37 a4 3e
       0.26727387 -0.086682625 0.12003483 0.32073367
0001b0 f4 97 80 3e 99 9f 84 be 46 0b 24 3e 67 4c cc bd
       0.2511593 -0.25903013 0.16019925 -0.0997551
0001c0 d5 4d 9d be a1 f0 37 3b 10 f1 db 3d 54 10 88 3e
       -0.30723444 0.002806701 0.107393384 0.26574957
0001d0 40 3d bb 3e db 3c c7 3e ef b8 f3 3d 5c 7b 09 bf
       0.36570168 0.38913617 0.11900508 -0.53703856
0001e0 4e f5 c4 3e d5 eb 86 be 8a 18 b9 be e5 c3 7f 3d
       0.38468403 -0.263518 -0.36151534 0.06244268
0001f0 aa af 81 be da e5 47 3e 15 23 e7 be 56 cd 94 be
       -0.25329334 0.19521275 -0.45143953 -0.2906291

net.2.weight f4 [128, 128]
000000 02 a5 dd 3d 86 b1 81 3e 15 53 4b be 1e 7a f4 bd
       0.10822488 0.25330752 -0.19855912 -0.119373545
000010 77 b0 cb bc d2 b6 2f 3e e7 5a 6d 3e 93 51 64 bd
       -0.024864418 0.17159584 0.23179208 -0.055741858
000020 30 3b 8f 3e 56 3a 48 3e 9f 1e 1a 3e a6 66 64 be
       0.27974844 0.19553503 0.15050744 -0.22304782
000030 8c 2b 3b 3d 00 7c 82 be fc e5 c2 3d cf 7c c8 bd
       0.045695826 -0.2548523 0.09516522 -0.0978943
000040 54 65 92 3e 03 16 a6 3d 7c a7 68 3d e5 a3 c9 3d
       0.28592932 0.08109667 0.05680035 0.098457135
000050 a5 a0 c2 3d 7d b3 80 3d a5 13 29 3e 66 a5 38 bd
       0.09503297 0.06284235 0.165114 -0.04507961
000060 23 30 f5 3d e8 4e a6 bd af b8 5a be 6a 88 39 be
       0.11972072 -0.08120519 -0.21359514 -0.18118444
000070 7d 29 65 3d 38 5d 97 bb 20 6d 82 bd 73 c7 27 be
       0.05594777 -0.004619267 -0.0636847 -0.16384678
000080 f2 72 0d 3d 3e 35 d4 3e 03 82 da bd aa 7f c6 bd
       0.03453345 0.4144687 -0.10669329 -0.09692319
000090 de aa c5 3d f7 c5 e0 3c 82 38 57 bd 37 52 34 be
       0.09651731 0.027438147 -0.052544124 -0.17609487
0000a0 14 a0 80 be d4 7e 5c be de 0a 36 be b1 4b da be
       -0.2512213 -0.21532756 -0.17777583 -0.42635873
0000b0 90 3c 1b 3e c4 d9 87 bd b4 8e 8c 3d e3 25 f3 bb
       0.15159822 -0.06633332 0.06863156 -0.007420288
0000c0 5e 20 da 3e c5 1f 91 3d 12 d6 ad bd 36 09 1f be
       0.4260282 0.07086138 -0.08488096 -0.15530857
0000d0 45 09 56 be d3 4b a3 bd 4d 72 8f bd 5f f8 0f be
       -0.20901974 -0.07973447 -0.07004223 -0.1405959
0000e0 a8 82 da 3c 31 e8 13 3e f5 19 0e 3e e2 08 ad bd
       0.02667363 0.14444043 0.1387709 -0.0844896
0000f0 75 5a 58 be 7b dd 6e bd 8f 92 9e 3e 4b d1 de 3c
       -0.21128257 -0.05831669 0.3097119 0.027199408
000100 24 60 9a bd 6f 40 cf 3d 6f f3 29 bd 80 90 8a be
       -0.075378686 0.101197116 -0.041491922 -0.2706337
000110 0e bb ed be e8 c1 0a be d2 57 9b 3d 96 8c 0f 3e
       -0.46431774 -0.13550532 0.0758511 0.14018473
000120 34 de 1c 3e 1e e4 77 3e 13 34 b6 bc 99 a1 81 3d
       0.15319139 0.24208114 -0.022241628 0.063296504
000130 db 95 7f be 0f af 95 3d 56 02 ff bd f4 5e d8 3e
       -0.24959509 0.073087804 -0.124516174 0.42259943
000140 ea e7 82 3e 2b 65 2d bd f7 df 50 3e d6 4b 24 3e
       0.2556756 -0.04233281 0.20397936 0.16044554
000150 01 2e 80 bc 74 c8 3f be 2b 45 4e 3d 8b d5 19 3e
       -0.015646936 -0.1872881 0.050358932 0.15022866
000160 ee ae 54 bd 6a 12 08 be f0 75 6f bd f1 a8 69 be
       -0.05192464 -0.13288274 -0.058462083 -0.22818352
000170 40 27 4a 3d af aa c7 be 4e 5b af 3c cd 1e 36 bd
       0.049353838 -0.3899741 0.021405842 -0.044462968
000180 41 23 2b 3c fe 14 8d be 14 ff b9 be 92 fb 11 be
       0.010445417 -0.27555078 -0.36327422 -0.14256123
000190 16 97 fb 3c 16 35 28 be da 8e b3 3d 2c a9 2a 3e
       0.030711692 -0.164265 0.08767481 0.16666096
0001a0 2a 3d fa 3d fc da 38 3e b2 d3 ca bd cd 18 c2 bc
       0.12218697 0.18052286 -0.09903659 -0.023693467
0001b0 17 07 96 bc a1 aa 20 3e e1 48 c1 bc 2b 3c d8 3d
       -0.018313928 0.1569009 -0.023594322 0.10558351
0001c0 f2 6a 0c bc 01 56 53 3e 13 84 9b 3d ab bd af 3c
       -0.00857042 0.20638277 0.075935505 0.021452745
0001d0 fd 52 9f be 4f 14 2b 3e b1 a9 db bc 67 5d 9b 3d
       -0.31118003 0.16706966 -0.026814314 0.075861745
0001e0 06 31 9c bc 03 c2 64 3e 77 09 4e 3e e1 f8 11 be
       -0.019066345 0.22339635 0.20120798 -0.14255096
0001f0 af bf da 3e 4f ff d6 be 19 33 87 3e f8 e3 09 3f
       0.42724368 -0.4199166 0.26406172 0.5386348
000200 1e 9a 8e 3c 29 fa 31 bd e3 1c 13 3c 0f 87 ba bd
       0.017407473 -0.043451462 0.008979055 -0.09107792
000210 43 9d 54 bd 03 49 89 3d 66 14 2a bc 65 3a e4 3d
       -0.05190779 0.06703379 -0.01038084 0.111439504
000220 f4 28 8e bd 4f 00 86 bc 59 1c a1 bd f2 75 88 3c
       -0.06941405 -0.016357569 -0.07866735 0.016657803
000230 ef c1 02 be 4d 05 08 3e 1b 3f af bc 84 7a 9e bd
       -0.12769292 0.13283272 -0.021392396 -0.07738212
000240 13 30 6f 3c d6 5a 10 bc 40 c8 47 bd 34 02 97 bb
       0.014598864 -0.0088107195 -0.048774958 -0.004608417
000250 85 2f 2a be e9 c4 39 3c fa 96 48 3e a6 8f b8 3d
       -0.1661969 0.011338451 0.19588843 0.09011774
000260 97 91 4f bd 42 17 c7 3c bb c8 b0 3d 18 67 e5 bd
       -0.050675955 0.024303082 0.08632036 -0.11201304
000270 87 94 eb bd 1b 20 cf 3d 9c b2 15 be c3 f9 98 3d
       -0.11502939 0.101135455 -0.14618915 0.07469513
000280 3c 1b c5 bc c1 87 40 be c0 2e 13 be 27 cf 03 be
       -0.024060838 -0.18801786 -0.14373302 -0.12871991
000290 fe 72 90 bd 27 84 0c bd 92 23 a9 bc 71 d5 5a be
       -0.07053183 -0.034305718 -0.020646844 -0.21370484
0002a0 5e 9a d9 bd 53 b4 17 3c 7f cf 97 3b 8f 92 0a 3e
       -0.10625146 0.009259301 0.0046328898 0.1353247
0002b0 0d 1f c5 bb 8f fc de bd 92 a0 98 bd 41 12 cc bd
       -0.0060156644 -0.108880155 -0.07452501 -0.09964419
0002c0 e2 0f a4 bc bc d1 d7 bd 9d 97 94 3d 09 f5 80 bc
       -0.020027105 -0.105380505 0.072554804 -0.015741842
0002d0 0d 18 93 3d c7 82 70 3d 06 cc c1 3d 57 25 9d bd
       0.07182322 0.05871847 0.094627425 -0.07673138
0002e0 db 9b 0b be ca bf e5 bd 2a 7f eb bd c8 0c fb bc
       -0.13633673 -0.112182215 -0.11498864 -0.030645743
0002f0 5f 3f 82 3c df 6d f1 bb 4d 7f 29 3c 0c b7 6f bd
       0.015899358 -0.007367834 0.010345292 -0.058524176
000300 f9 a5 9b 3d 11 c6 d5 b9 87 5f 15 be ef dd 99 bb
       0.07600016 -0.00040774097 -0.14587222 -0.004695646
000310 7d 76 7b 3d f1 72 9f bd 6d ca fe bd 7b 03 fb bd
       0.061392296 -0.07785595 -0.124409534 -0.12256523
000320 8e 55 9a bd b1 0d 10 be 44 be dd bd 1c af 1a be
       -0.075358495 -0.14067723 -0.10827306 -0.15105861
000330 de 50 4f 3d 43 28 a3 bd b0 c7 1a be 71 a8 64 be
       0.05061423 -0.07966664 -0.15115237 -0.2232988
000340 f2 83 41 be ea 39 0d be bd 78 62 3c a1 63 f2 bd
       -0.1889799 -0.13791624 0.013822732 -0.11835409
000350 55 0a e1 bd 9e 91 04 3d c7 19 01 3d d3 bd 8c bd
       -0.10988299 0.032365434 0.031518724 -0.068721436
000360 4b b1 95 bc be d8 be bd 43 12 4f bd 68 81 a3 bd
       -0.018273016 -0.09318684 -0.050554525 -0.07983667
000370 2f da 9d 3d 24 0e 52 bd b0 dd 50 3c 6e e0 02 bd
       0.07707631 -0.051283017 0.012748167 -0.031952314
000380 fc 4c dd 3b 4a 1a f4 3c a0 b1 9d bc 22 64 bb 3d
       0.006753562 0.029797692 -0.019249737 0.09149958
000390 13 8d 7e bd 4d 36 1c 3d 27 3a 4f be 3c 08 0d bd
       -0.062146258 0.038137723 -0.20237027 -0.03443168
0003a0 e9 af dc bd 0c 49 ed bd fc 5c d1 bd 01 6b 24 bc
       -0.1077574 -0.11586198 -0.102228135 -0.010035277
0003b0 49 ce f3 bb f0 30 db 3d 18 5d e5 bd 02 db 0b be
       -0.0074403626 0.107026935 -0.11199397 -0.13657764
0003c0 51 84 16 be 36 87 fd 3d 21 c7 64 bd 71 b7 61 bc
       -0.14698912 0.12379305 -0.055853967 -0.013776646
0003d0 e6 d5 44 3d 42 f0 ea bc 04 ad 19 bd 89 dc 00 bc
       0.048055552 -0.028679017 -0.037518516 -0.00786508
0003e0 43 b4 1c 3d 0f 57 c4 3d 73 be 3b 3d 30 b8 be 3d
       0.03825785 0.095869176 0.045835923 0.09312475
0003f0 f7 c3 65 bd ed cb 1c bd 31 3d 00 be 97 24 75 3d
       -0.05609509 -0.038280416 -0.12523343 0.059849348

net.2.bias f4 [128]
000000 0e 41 cd be 5b 15 f7 3d 6c 4d 42 bd ab 34 c7 3d
       -0.40088695 0.1206462 -0.047437117 0.097268425
000010 fd c5 07 bd 17 ec cf 3c 61 6e 5c 3e 84 da 42 bd
       -0.0331478 0.025381131 0.21526481 -0.047571674
000020 ca 37 c9 3c d2 97 f0 3c a1 ad 42 bd 2f d8 b6 3d
       0.024562735 0.029369269 -0.047528867 0.089279525
000030 40 c4 45 be df b2 d9 bd 0a 14 07 bd 72 88 70 bb
       -0.19313145 -0.1062982 -0.032978095 -0.0036702421
000040 0d 7b 3a bd 83 f5 9a 3d 1c 23 0a bd b1 40 11 3e
       -0.045527507 0.07566359 -0.03372489 0.14184834
000050 d4 6a eb bb 6e 1e ad bc f7 f2 8f 3d 71 5f 92 bd
       -0.0071843658 -0.021132674 0.07028764 -0.0714711
000060 25 d7 42 3d 5f 22 34 3d 9c 42 9c bb d1 4a 42 3d
       0.04756846 0.04397809 -0.0047686826 0.04743463
000070 c7 72 9c 3d 97 c6 f0 bc 5f d3 c5 bb 9e 1b ed 3c
       0.076390795 -0.02939157 -0.0060371603 0.028943833
000080 1e fd 10 3e 54 37 33 3d bb 85 7c 3d 32 c5 20 bb
       0.14159057 0.043753937 0.061650973 -0.00245316
000090 ac 25 0d 3e e5 5e aa 3d 27 da 07 be 1c eb d5 bc
       0.13783902 0.08318881 -0.13266812 -0.026113085
0000a0 c1 a0 26 3d e7 33 28 be fb 97 83 bd 85 17 0c 3d
       0.04068065 -0.16426049 -0.06425472 0.034202117
0000b0 6c 38 e0 bc a4 3f 6a 3d b2 dc 47 3d 35 d0 87 bc
       -0.027370654 0.0571896 0.048794456 -0.016578773
0000c0 35 53 e6 3c 0f cb 0d be 3e ff c5 bd f3 76 98 bc
       0.028115848 -0.13846992 -0.09667824 -0.018611407
0000d0 b8 78 69 3d f3 5b bc bb 6a ef a1 bc e2 2c 73 bd
       0.056999892 -0.005748266 -0.019767482 -0.059368975
0000e0 0f e2 0b 3b e0 af 13 3d fa f7 6d bd 85 a7 93 bc
       0.0021344458 0.0360564 -0.058097817 -0.018024215
0000f0 89 26 27 3d 05 42 cc bd 1a 95 e4 3d 3d c9 91 3d
       0.040808234 -0.0997353 0.11161251 0.07118461
000100 2e 46 9d bd 39 b7 08 3d e9 36 22 bd ed ea e3 bd
       -0.07679401 0.03337786 -0.039603148 -0.11128793
000110 49 0e c0 3d 49 a0 93 bc b9 4e ba 3d 88 8f b1 bd
       0.09377725 -0.018020766 0.090970464 -0.086699545
000120 84 c2 c0 3d d7 a9 d0 bb d2 9f ae bd be ed 66 3b
       0.09412101 -0.0063679027 -0.08526577 0.003523692
000130 2e 47 f9 bc df a0 c0 bd 3b d2 e9 3d 59 fc 1d 3d
       -0.030429449 -0.09405684 0.114170514 0.038570736
000140 fa bb 0c bd 0f 0f b4 3c 3f e5 42 3d 14 de 8b 3d
       -0.034358956 0.021979837 0.047581907 0.068294674
000150 85 1e a0 3d 8a a0 15 bc 9f 32 84 bd 67 e9 0e 3d
       0.07818321 -0.009132514 -0.06454968 0.03489056
000160 12 dd 82 3c 0a a9 24 b9 04 16 02 3e 19 ac 4b bd
       0.015974555 -0.00015703231 0.12703711 -0.049724672
000170 8b 6e 58 bd b0 67 62 be 3b cd ce 3d 26 a3 7c 3d
       -0.052839797 -0.22109866 0.10097738 0.061679028
000180 df 44 91 bd b1 d3 b4 3d 65 e4 a6 3b 2b 03 64 3d
       -0.07093214 0.088294394 0.0050931447 0.055667084
000190 63 e4 a8 bd ee b0 e3 3d af 4a b0 bc ca 6a 0d 3c
       -0.08246686 0.11117731 -0.021519987 0.0086314175
0001a0 5d 9f dc 3d 39 6b 0e 3e f4 00 19 3b 53 35 f4 3c
       0.10772584 0.1390809 0.0023346515 0.029810583
0001b0 2e 52 ae 3c f6 7f 9c 3d cb 69 af bd 2c c3 ad bd
       0.02127942 0.07641594 -0.085651 -0.08484492
0001c0 a1 31 c4 bd ed 5c 31 3d 23 7d c7 b9 39 35 05 3d
       -0.095797785 0.04330151 -0.00038049472 0.03252146
0001d0 0f bf 87 3d 7f d1 65 bd b8 5b 93 bd 2b 77 0e 3c
       0.066282384 -0.056107994 -0.07195228 0.008695404
0001e0 10 0b 95 3d 80 99 4f 3e 2d 19 73 be a9 8e 98 3d
       0.07277501 0.202734 -0.23740073 0.07449085
0001f0 83 c1 ad 3c 4b 67 e7 bc 3e 56 82 bd b1 af 51 be
       0.021210438 -0.028247496 -0.06364106 -0.20477177

net.4.weight f4 [128, 128]
000000 b9 bd 95 bd ab 59 02 3e 6f d7 36 bd 90 8d 55 bd
       -0.07311577 0.12729518 -0.044639047 -0.052136958
000010 a1 3e 59 3d 4c 33 29 bd f4 e5 f7 bd 3e 0c 4d 3e
       0.053038243 -0.041308686 -0.12104407 0.20024201
000020 af eb 5c 3d 99 8b 8f bd 5c e3 28 3d 87 2d e4 bb
       0.053935703 -0.07009048 0.04123245 -0.006963435
000030 61 4b 93 bd 82 a8 b1 bd 05 80 81 3d c9 74 b6 3c
       -0.07192112 -0.086747184 0.06323246 0.022272484
000040 3f 24 bf bc dc 9d 18 3e 3d 2f 27 bc 93 81 9f bd
       -0.023332713 0.14903969 -0.010204134 -0.07788386
000050 a4 99 88 3d 86 20 8a 3c 70 ab b3 3c fb 1e 1a bd
       0.066699296 0.016861212 0.021932334 -0.0376272
000060 3b b9 0a bd 66 51 2c bc 51 a0 16 3d c6 f5 4e bd
       -0.033868056 -0.010517454 0.036773983 -0.050527357
000070 fd c2 ec 3d 32 49 6a 3c 31 5f 3f bd 3d c3 c1 bd
       0.115606286 0.014299678 -0.04672164 -0.09461067
000080 06 be 5a bd 29 bc b9 bd c6 63 80 bd b8 40 3f 3d
       -0.053403877 -0.09069092 -0.0626903 0.04669258
000090 e2 62 1b be e6 7e d1 bc 91 4d 94 bd 83 9c b0 3d
       -0.1517444 -0.025573205 -0.07241357 0.08623602
0000a0 63 41 12 be e4 70 c7 3b 20 37 6a bc ca da 53 3d
       -0.14282756 0.0060864557 -0.014295369 0.051722325
0000b0 f1 2a 59 bd 3c 28 bc bb 41 1b c4 3d 16 74 32 3c
       -0.053019468 -0.005742101 0.09575511 0.010891935
0000c0 ea fa 85 bd 85 a0 a0 3e af e2 0c 3c 1a d0 2f bc
       -0.06541999 0.31372467 0.008598967 -0.010730768
0000d0 83 21 bf bd ec c0 05 bc aa b7 a8 3d 72 90 67 3d
       -0.09332564 -0.008163672 0.08238156 0.05653424
0000e0 04 b7 cd 3a ee 57 88 bd 07 5b 3a be d5 63 c7 bc
       0.0015694802 -0.06657396 -0.18198787 -0.024339596
0000f0 d7 3d a1 bd b8 c2 9d 3d 83 10 65 bd 01 00 f6 bd
       -0.07873123 0.07703155 -0.05592395 -0.120117195
000100 30 6f 8e bd 32 8e 94 bd e8 3d 1c bc 29 8c eb bc
       -0.06954801 -0.07253684 -0.009536244 -0.028753357
000110 7f 86 a1 bc 71 d5 73 3d 06 1d 68 3d b2 7f b5 ba
       -0.019717453 0.059529725 0.056668304 -0.001384726
000120 2e 9d 94 3d ee 66 44 bd b5 b0 53 bc 95 a6 35 3d
       0.07256542 -0.047949724 -0.012920548 0.044348318
000130 72 4d 19 bd 0e 77 76 3d 9c ba 82 bd 56 6d 8c bd
       -0.037427373 0.060172133 -0.06383249 -0.06856792
000140 b8 ff 66 bd ad 13 8e bd 42 8b a0 bd 45 c6 76 3d
       -0.056396216 -0.069373466 -0.07839061 0.06024768
000150 0b dc 13 3d 3f c0 4c bd 44 f6 ae bd ff a0 cc 3c
       0.03609852 -0.049988028 -0.08543065 0.024979113
000160 97 1c 97 3d 59 ee 1f bd a0 cc 10 3e ca af e5 bc
       0.073785 -0.039045665 0.14140558 -0.028037924
000170 d5 2f 65 3d 45 3a cb 3b c3 98 e0 3d d9 67 90 bd
       0.05595382 0.0062020146 0.10966637 -0.07051057
000180 8f 78 4f bd 6f 99 3f bd 5e 27 b6 bd e8 f6 1b 3d
       -0.050652083 -0.046777185 -0.088942274 0.038077265
000190 ed e3 01 3d 42 d4 11 3d 3c 7f b4 3c 95 c6 f5 3d
       0.031711508 0.035602815 0.022033326 0.12000767
0001a0 6e c7 c8 bd 74 a9 00 bd f6 1d cb bd 40 17 86 bc
       -0.09803663 -0.031411603 -0.09917824 -0.016368508
0001b0 2f 07 fb bd 0c e0 f5 bd 87 5b 9d 3d 1a ca b2 3a
       -0.122572295 -0.12005624 0.07683473 0.0013640553
0001c0 6b 82 34 3c de 3b 03 3d 1a 61 c6 3c 50 9b f3 bc
       0.011017422 0.032039516 0.024216224 -0.029737145
0001d0 99 e9 b3 bd 76 de 47 3d 7b 72 1c 3c e0 24 be 3a
       -0.087847896 0.04879614 0.009548779 0.0014506839
0001e0 9b c8 7a bd d2 6e d8 3d 68 7c d5 bd 8e 28 fb bd
       -0.06122647 0.10568012 -0.10424119 -0.122635946
0001f0 7f 4f d4 3d 53 52 4e 3d 4d 61 eb bd 0a 91 01 3e
       0.10366725 0.05037148 -0.11493168 0.12652984
000200 1b 20 07 3e 24 13 09 bd 02 af 6f bc 65 8f 97 3d
       0.13195841 -0.03346552 -0.014629127 0.07400397
000210 a4 bb 76 bd b9 3d 4f 3d ea 01 87 3d 2e a6 b0 bc
       -0.06023754 0.050595973 0.06592162 -0.021563616
000220 61 d9 7b 3d b6 32 1f bd 17 16 8a 3d 22 13 e6 3b
       0.061486606 -0.03886672 0.067424946 0.007021324
000230 3b 96 d5 bc 42 6e 65 bd cc 21 63 bc 02 72 a7 bb
       -0.026072612 -0.056013353 -0.013863038 -0.0051100263
000240 17 5d 9b 3d 92 83 9c bd 97 6a 20 bd af c8 2b bd
       0.07586115 -0.076422825 -0.039164152 -0.041939434
000250 49 92 db 3c b3 8d bb 3d 38 53 69 bd b2 74 0b 3e
       0.026803153 0.09157886 -0.05696413 0.13618734
000260 72 8b 69 3d c3 41 82 bb a8 74 c9 3d c4 ce 3b bd
       0.05701775 -0.0039751246 0.098367035 -0.045851484
000270 0a 34 a1 3d bb 19 c6 bd b2 56 6c 3c d4 c4 b4 bc
       0.07871254 -0.096728764 0.014424967 -0.022066511
000280 ab 9c 9d bc 33 75 f3 3b d7 30 8d 3c 34 86 b2 bd
       -0.019239744 0.0074297427 0.017235203 -0.087170035
000290 ac ae 6a bd f7 29 24 bd 99 82 87 3d 65 10 8a 3d
       -0.057295486 -0.040079083 0.066167064 0.06741408
0002a0 c2 e4 43 3c 41 ca 55 bc e6 85 36 3d f7 26 49 3c
       0.011956396 -0.013048709 0.04456129 0.012277356
0002b0 6f 0f 5b 3d 9d 85 95 3d f5 60 80 bd 51 b9 21 bd
       0.053481515 0.07300875 -0.06268493 -0.039483372
0002c0 39 99 75 3d 17 ab f3 bd fb 0a e4 3d 1f b5 55 3d
       0.059960578 -0.11897867 0.11134907 0.052174684
0002d0 9c f6 9a bd 5d 74 28 3d 18 22 67 39 14 9f 32 3d
       -0.07566568 0.041126598 0.00022042578 0.04360874
0002e0 5b 9e b3 3d 96 93 04 3d 29 46 02 bd 0a d8 29 3c
       0.08770438 0.03236731 -0.03180519 0.010366449
0002f0 75 03 7f 3d 58 bd 2d 3d f0 e4 67 bd 02 1e 9f 3d
       0.062259156 0.0424169 -0.056614816 0.077693954
000300 03 8e 37 bd f1 39 72 bc 4b 9a 69 bd cf 2b e8 3d
       -0.044813167 -0.014784322 -0.05703191 0.11336481
000310 6f 98 7f bc 28 83 74 bd 1e 5b c7 3b 23 d3 3c bd
       -0.015600308 -0.059695393 0.00608386 -0.046099793
000320 c6 ed 07 3d 80 77 8f bd 3e 44 b8 bd bc ad 8c bd
       0.033185743 -0.07005215 -0.08997391 -0.06869075
000330 cc e4 7e bd b5 95 88 3d e4 69 ae 3c 74 b4 b1 3d
       -0.062229916 0.06669179 0.021290727 0.08676997
000340 7c 72 f4 bb ae dd b9 bc ef 34 bd bc 09 71 d1 3d
       -0.0074599367 -0.022688713 -0.02309653 0.10226638
000350 d4 c6 82 3d e7 f8 99 bd 43 87 ba bd 4d 68 2c 3c
       0.0638558 -0.075181775 -0.091078304 0.010522914
000360 7d 6c b0 bc ab 4e e7 3d 93 ab 90 bd b1 02 91 bd
       -0.021536106 0.112943016 -0.07063975 -0.070805915
000370 42 9d 4b bd 12 7b 09 3e c2 40 39 bd 9c 59 b8 bd
       -0.04971052 0.13425854 -0.045227773 -0.09001467
000380 f8 aa c1 3d 1f 7a 91 bd 2f 97 07 bd f8 ec 85 3d
       0.09456438 -0.07103371 -0.033103164 0.06539339
000390 f0 41 87 3d c6 6c 1c bd e3 9c 49 3d b7 1c f5 3c
       0.066043735 -0.038189672 0.049221884 0.029920919
0003a0 f5 15 c5 3c eb a5 39 3d 81 62 94 3d a4 a7 a7 3d
       0.024058321 0.045324247 0.07245351 0.08186272
0003b0 4f b2 97 3d b6 5c c3 ba 91 59 8b bd 00 2a 2e 3d
       0.074070565 -0.0014904949 -0.06804193 0.042520523
0003c0 9b b7 6a bd f2 38 b5 bc 46 68 b4 bd cc e6 39 bd
       -0.057304006 -0.02212188 -0.08808951 -0.04538612
0003d0 8e 33 6c 3c 6e 61 9d 3c 4c b4 88 bd 81 5a 38 bd
       0.0144165885 0.019211497 -0.06675014 -0.045008186
0003e0 62 6b 91 bd bc 31 8e bd 3a 15 05 3d 09 e0 f3 3d
       -0.0710056 -0.0694308 0.032490946 0.11907966
0003f0 3e da 8f 3d 6d 4f 63 3d 98 39 98 3d 2d da be bd
       0.07024048 0.05549567 0.0743286 -0.093189575

net.4.bias f4 [128]
000000 0f 06 89 3d bc ef ce bb 4e d7 f1 3c 6e ce 47 3d
       0.06690609 -0.0063151997 0.02952161 0.04878085
000010 98 5b af bd fd 3f 70 3d a2 a0 ba 3d 6b 6c 0b 3d
       -0.08562392 0.058654774 0.091126695 0.034038942
000020 8c 16 70 bd d6 9c 5f bc c0 c1 ba 3d cc 3a 5e bd
       -0.058615252 -0.013648232 0.09118986 -0.05425529
000030 91 81 98 3c 5f c8 a1 3d 96 78 88 3d 3b 4f 5b 3d
       0.01861647 0.07899546 0.06663625 0.053542357
000040 7f 9b 2d 3d d6 73 dd bc 32 39 25 bd 75 12 de bd
       0.04238462 -0.027032774 -0.04033775 -0.10843364
000050 69 2f 7a bd d8 7d 95 3d 84 6c be 3c a2 a0 f5 bb
       -0.06108037 0.072993934 0.023245104 -0.0074959556
000060 2c 2c 79 3d 65 c3 ea bd 88 0d 5e bc 57 8b 2d 3b
       0.06083314 -0.1146305 -0.013553031 0.0026480758
000070 cf c7 d6 3c 94 3f ae bc ae 93 ee 3c 00 9a 78 3c
       0.026218323 -0.02127055 0.029123154 0.015173435
000080 38 0e 31 3d 76 b5 ac bc 4c a1 60 3d 7a 21 42 3d
       0.04322645 -0.021082621 0.054841325 0.047395207
000090 0b 97 59 3c 32 4e ae bd 5e 88 ed bc 59 bf 82 bd
       0.01328064 -0.08511008 -0.028995689 -0.06384153
0000a0 91 d5 80 bd a8 6f 24 3d 73 d6 90 bd 69 73 c6 3c
       -0.062907346 0.040145546 -0.07072153 0.024224954
0000b0 56 3b 97 bd 84 e9 a9 3b bc 9a 98 bc 9b 60 56 bd
       -0.07384364 0.005185308 -0.01862847 -0.052338224
0000c0 37 06 93 bc fc d2 92 bd 77 ec 6c bd 83 07 80 bd
       -0.0179473 -0.07169148 -0.057842698 -0.06251433
0000d0 af 08 90 3d 26 1f 92 3d 34 04 95 3d 70 3d a8 bd
       0.07032906 0.07134847 0.07276192 -0.08214843
0000e0 fb 4d 2d bd 65 18 92 3d 4c 71 07 3d a2 2f 01 3d
       -0.042310696 0.07133559 0.033067033 0.031539567
0000f0 bb df 43 bd 4b d0 c0 bb 0b a6 1b be 32 b6 a1 b9
       -0.047820788 -0.0058842055 -0.15200059 -0.0003084406
000100 88 d1 83 bd 2d a4 44 3d 16 61 d4 bc 1e f0 1c 3d
       -0.06436449 0.048008133 -0.0259252 0.03831493
000110 61 3c 9d bd 21 cc 75 3d 19 ee 8b 3d a1 33 fe b9
       -0.07677532 0.060009126 0.06832523 -0.00048485122
000120 cc 69 7e bc 08 a8 bd 3c e6 26 82 bd 31 0e 80 3b
       -0.015528154 0.023151413 -0.063550755 0.0039079417
000130 4e c6 ef bb 62 e5 38 3c c6 fc 56 3d d2 96 a9 3d
       -0.007317341 0.011285158 0.052487157 0.0828072
000140 7c ec 87 3d 5f 8f 11 3d 4f 95 60 bd a6 6a 6f bc
       0.06636903 0.03553712 -0.05482989 -0.014612829
000150 42 20 6d bd 0a 82 1c 3d 7a a1 da bd c8 36 fe bc
       -0.05789209 0.038209952 -0.106753305 -0.031031981
000160 9a eb 8b bd 69 87 99 3d 1b ff 19 be ee 30 83 be
       -0.06832047 0.074965306 -0.15038721 -0.25623268
000170 14 99 b1 3b c7 70 35 3d 4d 8d a6 3d f3 73 7b bd
       0.0054198597 0.044297006 0.0813242 -0.061389875
000180 ab 30 73 bb 8b 7c ce bd 78 e5 04 bc 68 55 36 3d
       -0.0037107866 -0.100823484 -0.00811135 0.044515043
000190 93 a5 62 3b 48 a4 91 3d af 55 77 bd f8 e3 23 bd
       0.0034583553 0.07111412 -0.06038445 -0.04001233
0001a0 7b 51 56 bd 0a 64 1c bd 7c 43 79 3d bb 99 cf 3c
       -0.0523238 -0.038181342 0.060855374 0.02534186
0001b0 12 bd 5d bd 06 cd 75 bd fc dd 68 3c 6e ca 9f bd
       -0.05413539 -0.06000998 0.014213081 -0.07802282
0001c0 61 b2 7d 3c a2 15 11 3d 77 bf 26 bc c0 3c 96 3c
       0.015484423 0.03542102 -0.010177485 0.018339515
0001d0 3d 19 cd 3d 98 32 11 bd b7 e3 6d 3d 77 1e c0 bd
       0.100145794 -0.03544864 0.058078494 -0.09380811
0001e0 14 a0 d1 bc bc 4e 83 3d ed f1 94 bc 0d 34 89 bd
       -0.025589027 0.06411502 -0.018181765 -0.06699381
0001f0 69 42 4e 3d 7e 92 02 bd 34 f7 80 3d e8 a1 41 3d
       0.050356302 -0.031877987 0.0629715 0.047273546

net.6.weight f4 [2, 128]
000000 36 ca 38 3e fa 2b f2 bd 57 7e f4 bd 7c d8 43 3e
       0.18045887 -0.11824794 -0.1193816 0.19125551
000010 da ff e7 bc ad ca 2f bd a6 7d 16 3e 03 fd 16 be
       -0.028320242 -0.042917896 0.14696369 -0.14744954
000020 26 87 40 be ae e1 75 3e 55 0b 27 3e 85 1f d7 3c
       -0.18801555 0.24011871 0.16312917 0.026260147
000030 81 5e 0a be 1b 6f da bd ad 79 f3 3d 38 a2 b7 3d
       -0.13512613 -0.10665723 0.11888442 0.08966488
000040 e6 b8 a9 3c a1 0b e6 3d 1f a0 a2 3d 6e 74 33 3e
       0.02071805 0.11232687 0.07940697 0.17524883
000050 16 b0 e8 bd da 2f ab 3e f8 f9 17 3d c6 df 42 bd
       -0.11361711 0.33434945 0.037103623 -0.04757669
000060 85 ed 0e be 19 24 b0 be b0 22 26 3e 44 cf ed 3d
       -0.13957794 -0.3440254 0.1622417 0.116117984
000070 de 5f 33 3e 67 95 59 bc 31 67 1d 3d 6d 4d 78 3d
       0.17517039 -0.013280249 0.03842849 0.060620714
000080 be a3 3d 3d 5c 3b 41 3e c7 12 2c 3e b6 96 16 3e
       0.046298735 0.188703 0.16804038 0.14705929
000090 89 25 af bd f0 44 3d be ea 29 0d bc 51 66 43 3d
       -0.08552081 -0.18483329 -0.00861595 0.047705
0000a0 62 29 14 3e f3 ef 33 3e 4d c5 90 3a ce fc 59 3d
       0.14468911 0.17572002 0.0011045128 0.05321961
0000b0 21 2e 94 be 8d 8c e7 bd e5 05 18 3d 46 17 41 3e
       -0.28941444 -0.11306105 0.037114996 0.18856534
0000c0 6e 04 04 bd 1b 32 47 3e b2 5e 0c 3e 2d 45 9a bd
       -0.032230787 0.19452707 0.13707998 -0.075327255
0000d0 7b 37 2e be 76 a1 0f 3d c5 58 db 3d 17 96 0c 3e
       -0.17013352 0.03506609 0.10710291 0.1372913
0000e0 74 01 e4 3d 5c 41 3b be 76 2e 29 bd 07 3c 54 bd
       0.1113309 -0.18286651 -0.041304074 -0.05181506
0000f0 fd 0a f2 bd 9a 58 b9 3d dc 05 ad be 49 9e b0 bd
       -0.11818502 0.090501025 -0.33793533 -0.086239405
000100 79 29 e3 3d 05 7e e7 bd 81 1e dc 3d 3f a4 f3 bd
       0.11091895 -0.11303333 0.10748006 -0.11896562
000110 90 c5 72 bd 1f 3b 13 be 31 02 99 bd fb e4 60 be
       -0.05927044 -0.14378022 -0.07471121 -0.21962349
000120 5f 80 61 bd 71 8e 41 be 47 60 09 be c0 ba 1d be
       -0.055054065 -0.18901993 -0.13415633 -0.1540327
000130 15 fb 05 3e 90 d5 10 3e 3b 8b 88 bd 91 93 1a be
       0.13084061 0.14143968 -0.06667181 -0.15095355
000140 18 06 74 be 5f 72 5c be aa 77 85 be 1c 9f 22 bd
       -0.2383045 -0.21528004 -0.2606786 -0.03970252
000150 e8 6e 12 3d 74 95 84 be 5a c9 a9 3d e7 db 90 bd
       0.0357503 -0.25895274 0.08290358 -0.07073193
000160 95 63 1f be 33 a4 0f 3e 75 b4 8f be 4e fc 05 bf
       -0.15565331 0.14027481 -0.28067365 -0.5233811
000170 34 ce f6 bd a9 cb 8e bd 91 49 07 be f2 8c 02 be
       -0.12051049 -0.06972439 -0.13211657 -0.12749079
000180 20 b4 e0 3d 4a 53 3a bd 75 80 13 3b e9 f2 3d 3e
       0.10971856 -0.045489587 0.0022506986 0.18549694
000190 02 2f 88 bd 43 7e 2b 3e 76 30 65 3c de 0e 54 3e
       -0.06649591 0.16747384 0.013988605 0.20708796
0001a0 7a c4 8c bd 1e 3e c2 3b 42 47 8a bd 4d 31 eb 3c
       -0.068734124 0.005927815 -0.067518726 0.028710032
0001b0 ae 40 37 be 9d 22 2c 3d 50 a7 44 3e 3b 80 cc bd
       -0.17895767 0.042025197 0.1920445 -0.099853955
0001c0 cd 13 15 3e b0 1b 10 3d 63 72 77 be bc 81 13 be
       0.14558335 0.035182655 -0.24164729 -0.14404958
0001d0 c9 f9 10 3e 87 5b 62 3e 3c c1 01 3e 01 5b 74 3e
       0.14157785 0.22105227 0.1267137 0.2386284
0001e0 ce 27 96 3d e0 8a 88 3d 63 ab 54 3e 71 37 15 3c
       0.07331811 0.06667113 0.20768504 0.009107457
0001f0 9f 1a 20 3e 3d 9a 06 be 97 f6 21 3e 55 f1 0a 3e
       0.15635155 -0.13144775 0.15816723 0.13568623
000200 c3 24 0f bd 4d 70 b2 bd 82 24 ba bd 01 98 9c bd
       -0.034947168 -0.08712826 -0.090889946 -0.0764618
000210 9a 8f 6b 3d 66 c2 a8 bd c7 ea 2b bd 46 ac 88 3d
       0.057509996 -0.082402036 -0.041971948 0.066734836
000220 4a 1f d3 bb dd 5a 1c bc c5 34 c2 bc 51 c9 35 3d
       -0.006442939 -0.009543148 -0.023706803 0.044381443
000230 03 e6 c7 bd b3 95 aa bd ce 14 a0 3d 07 77 89 bc
       -0.09760668 -0.08329334 0.07816468 -0.01678039
000240 46 bb b9 3d 46 ef 3e bd a3 e1 68 3d 7e 99 64 3d
       0.09068923 -0.046614908 0.05685581 0.055810444
000250 45 78 00 bd 71 b8 91 ba fb 2f 52 3d d9 06 bb 3d
       -0.031364698 -0.001111759 0.05131529 0.091321655
000260 b5 bf 98 3d c3 39 ef 3b 88 e9 c7 3c 07 27 da 3d
       0.0745844 0.007300587 0.024403349 0.10651975
000270 b3 6c c5 bc 94 40 86 3d 55 4e aa 3c 89 11 8a 3d
       -0.024099683 0.06555286 0.020789305 0.06741626
000280 8d 81 9a 3d 6c 6c 6d bd f4 27 99 bb 07 7a 99 bd
       0.07544241 -0.057964727 -0.0046739522 -0.07493978
000290 19 13 60 bd c5 6d aa bd c1 3b b5 bd 7f 08 a5 bd
       -0.054705713 -0.08321718 -0.08849288 -0.08058261
0002a0 97 4e c4 3d 2b b2 06 3d 4a d7 c5 bd 5d c8 5d 3d
       0.09585302 0.032884758 -0.09660204 0.05414616
0002b0 8e 41 85 bc a7 cc af 3d 58 e0 aa 3d 3e 8c a4 bc
       -0.01626661 0.08583956 0.083435714 -0.020086404
0002c0 9f 55 8e bd 56 a7 97 3b 7c 72 0c bd 9c c7 80 bd
       -0.06949925 0.0046281023 -0.03428887 -0.062880725
0002d0 1d 9d 7c bd d7 97 4f 3d d8 51 97 3d 51 52 ef 3c
       -0.061673272 0.050681915 0.07388657 0.029214056
0002e0 67 b5 a5 3d b8 bb 59 bd 5e df 33 3d 13 09 ae 3d
       0.080912404 -0.05315754 0.04391419 0.084978245
0002f0 a3 3e 23 bd e0 de 6e 3d df a0 7d 3d 08 d0 c1 bd
       -0.039854657 0.05831802 0.061920997 -0.09463507
000300 85 af 9b 3d f8 0e ff bc 55 63 d8 3d 59 2d a3 bd
       0.07601837 -0.031135067 0.10565821 -0.07967634
000310 f4 54 bb bd 55 6f 0a 3d 49 0d 93 3d 18 60 43 bc
       -0.09147063 0.03379758 0.07180268 -0.011924766
000320 04 31 4b bd c9 5b 28 3e 3f da 28 bd b0 cb b1 3d
       -0.04960729 0.16441263 -0.04122376 0.086814284
000330 82 9a 87 ba b7 c9 a9 bd 30 44 94 3d 1f 87 34 bd
       -0.001034573 -0.08290427 0.07239568 -0.044074174
000340 0a 62 11 3d 40 6e 78 3d 9d c9 ec bc f5 38 bf bd
       0.035493888 0.060652018 -0.02890473 -0.093370356
000350 cc b8 d1 3d 19 b5 0b bd 93 53 49 3c b1 ff a2 3d
       0.10240325 -0.034108255 0.012287992 0.079589255
000360 1e 12 89 3c 60 46 88 bd 5b 6a 44 3b 72 a0 b3 bb
       0.016732272 -0.06654048 0.002997062 -0.005481773
000370 7c 95 97 bd 96 14 84 bd 3f 1c 12 3d 46 2c aa bd
       -0.07401559 -0.06449239 0.03567147 -0.08309226
000380 b7 c1 73 3d d2 75 98 bd 11 59 9c 3d 48 24 ee bb
       0.059510913 -0.074443474 0.076341756 -0.0072675087
000390 e7 40 e0 bd 98 d5 aa bd a1 30 99 bc 58 28 4a bd
       -0.10949879 -0.08341521 -0.018699946 -0.04935488
0003a0 40 7f a6 3d c8 fd c8 3d 7f 50 ae 3d 32 92 35 bd
       0.0812974 0.0981403 0.08511447 -0.044328876
0003b0 70 9b af bd c7 07 25 bc ac ef 3e bd 32 04 c6 bd
       -0.08574569 -0.010072655 -0.046615288 -0.09668769
0003c0 1a a9 d4 bd 94 88 92 bd a7 c2 bd 3c 7b 2a b1 bc
       -0.10383816 -0.071549565 0.023164107 -0.021626702
0003d0 e0 c9 28 bd 43 fd f9 3c eb 7c 16 3d ca bf cf bd
       -0.041208148 0.030516272 0.036740225 -0.10144003
0003e0 4d a6 98 3c 78 1a 87 bc d0 95 8a 3c bf e9 de bd
       0.018633986 -0.016492113 0.01691714 -0.10884427
0003f0 5b 15 9d 3d 9a 88 b6 bd 18 23 3f 3d 55 92 bc 3d
       0.07670089 -0.089127734 0.046664327 0.09207598

net.6.bias f4 [2]
000000 5c 8d 85 bc 9a 34 97 bd
       -0.016302757 -0.0738308
