model/CoSb3.pth (torch, 139916 bytes, 8 tensors)

net.0.weight f4 [128, 6]
00000000: 6152 1e3e 2acd 2f3d c146 e0be 55d2 cabe
00000010: 1093 033d e278 ba3e 1ca5 3b3c 7765 763d
00000020: 03bb e13d 4b07 a53e a1eb 57bc 7467 483c
00000030: 3ffa 933c e3e6 753c 4f60 723c 2a5b d1be
00000040: c6b1 8fbe 622f 94be fd86 843e c577 973e
00000050: 2807 45be e040 f0bd 5a96 343e ab7e 68bd
00000060: d7e5 c0be d3ae 7a3e 5767 a23e 1c89 f53d
00000070: 5d60 bcbc a62d 90be a645 e0bc 178e acbe
00000080: bd06 8cbe 5784 febd e929 c43d fd38 823e
00000090: 3bf4 bd3d f105 e63d 4221 bcbc 920a b8be
000000a0: 1780 ab3e 930d acbe d13f 68be 7603 b03e
000000b0: 0407 89bf 52ea ab3d 1408 e6bc 5fec acbc
000000c0: 1f5c e1bd e387 19bf b3d2 123e 43d8 1e3d
000000d0: 7dae 8a3e 0c1d fcbe 745a 8ebd 3ca9 c73e
000000e0: 5f82 c5be 97f3 c1be 0726 c73e 9ef1 aebe
000000f0: 44cb d8be 6cb7 f63d 8971 85be c958 10be
00000100: 8726 ca3d affa 8f3d dfaa 92be 13e9 863e
00000110: cf3f c33e 9e1d 33be 6294 cebe 854c d8ba
00000120: 490b 97bd f692 8ebe 9749 babe 515f 9d3e
00000130: 5180 bfbe 3c08 b13e 5bc5 9e3e fb55 d53d
00000140: f810 8dbe 390b d43e 69e1 00be 169c 9c3c
00000150: 0688 c63e dc8f 803e 91f2 583c 13d1 9b3e
00000160: 11d7 3f3e 02ae 8b3e 83fa a0be 122f bc3c
00000170: 777c a43e 050e 1fbe 4c8c ce3e 78a1 82bd
00000180: 87f5 03bf 58ce 9dbe 44f3 683e 37bb 973e
00000190: e89b bcbe 0de3 3f3e ea32 3abd f5d2 b13e
000001a0: 88ce 1fbe a0ac b43e e085 28bd 7aa9 25be
000001b0: 0e0d a6be 3449 8abe d8c3 a63d a5eb fc3e
000001c0: 8509 15bf 7e27 7ebd a655 ad3d b7a6 0f3e
000001d0: c194 02bf e99f 84be 5934 b5be bf76 b73d
000001e0: 97a4 b73d 7f90 c7be 372d 65be 2a5e 9abd
000001f0: 40d0 06bd f4b3 4cbe 3ef3 80bd 1d13 cc3e
00000200: 5323 ba3e 3d97 a2be 1b6d 733e afcc 0f3e
00000210: a5bb 583e a544 debd 991f a5be 90f4 813c
00000220: c50d 4bbe 47cf 9b3d d2ce 023d aa3b 9ebe
00000230: 5f31 2b3e 60b5 40be 2865 a3bd 8745 29be
00000240: e2ff 9c3e a0ad f73d 7902 42bd 5bfb 93be
00000250: 482f 3a3e a717 f3bd 6b7c b93e e88a 35be
00000260: a6e4 11be 73c9 003e 001d a13a a8c0 a6be
00000270: 775a 243e f309 b0be c048 2dbf d3a8 6fbd
00000280: fb09 8dbe 6c15 143e 2f50 42be 285a febe
00000290: 005a cfbe 4f1d 5bbe efc5 9cbe 5f5d 82bd
000002a0: 06d4 b53e 0cbb b13e c5c8 813e c2d2 293e
000002b0: d2c9 37be abe0 0e3e 408d aabe 558c d53e
000002c0: e858 63be 8f69 083f 360e 06bf cd5a 89be
000002d0: 6422 87be 2a74 5bbe 4937 cabd 38f8 3a3e
000002e0: b4ae 83be 3a36 17be 88b7 6b3e e49c 10be
000002f0: 0b6d cd3e f310 3dba 6a7c debd d807 e8bd
00000300: 72b3 b7be 56a8 e7be cda6 abbb 6b8b b1be
00000310: 0920 833d c7bd c83e 9713 053e 192b 8f3e
00000320: b54c 273e b0b6 e5bd 3f69 123d 3679 8e3e
00000330: ba08 b23e ecc4 193e 9984 c6be 14f6 7c3d
00000340: 71ee c23d a06f cb3d a777 0cbe bf56 a13e
00000350: 2f05 a0bc d795 98be fad2 e13d 8d92 c7be
00000360: 08df 7e3e f4d0 80bc ffdd cabe 52a4 5cbe
00000370: 307d 9b3e bb54 103e f73a b63e f03e 34be
00000380: ee65 9fbe 2513 50be 7cbc cb3e 22ff 8fbe
00000390: 0d44 40be 9b1a 9fbe ddc5 87be bd7b 653c
000003a0: 0764 b63e 8ed9 e33d b86d 60be dd8c 6c3e
000003b0: bdb5 923e 190e 953e e420 a5be 71c2 9cbe
000003c0: 782b 1d3e ebe9 833e 617d 60be 46e3 bc3c
000003d0: bc72 dfbe d3c4 1cbe 2f98 b8bd 58b6 7e3e
000003e0: adec 3e3e 835d 6d3e 9587 96be 58f1 553e
000003f0: cc04 ba3e 16da 8c3e b953 3f3d 6d4a cb3e
0.15461113 0.04292027 -0.4380398 -0.39613596 0.03212267 0.3642035 0.011452939 0.06015536
0.11021998 0.32232127 -0.013178737 0.012231696 0.018063663 0.015008661 0.01479347 -0.40889865
-0.28065318 -0.289424 0.25884238 0.29583564 -0.19241011 -0.11731124 0.1763548 -0.056761425
-0.37675354 0.24480753 0.31719467 0.11989042 -0.022995168 -0.28159827 -0.027376961 -0.33702156
-0.2734889 -0.124275856 0.09578306 0.25434104 0.09275099 0.11231602 -0.022965077 -0.35945565
0.33496162 -0.33604106 -0.22680594 0.3437764 -1.0705266 0.083943024 -0.028080024 -0.021108804
-0.11003899 -0.5997297 0.14338188 0.038780462 0.2708625 -0.4924091 -0.06950846 0.38996303
-0.38576028 -0.37881157 0.388962 -0.34168714 -0.4234258 0.12046704 -0.26063183 -0.14096369
0.0987063 0.07030236 -0.2864599 0.26349697 0.3813462 -0.17491767 -0.40347582 -0.0016502297
-0.07375199 -0.27846497 -0.3638427 0.30736783 -0.37402585 0.34576595 0.31009945 0.1041679
-0.2755201 0.41414812 -0.12585987 0.019117396 0.38775653 0.25109756 0.013241426 0.30432948
0.18734385 0.27281195 -0.31441125 0.022971664 0.3212621 -0.15532692 0.40341413 -0.06378454
-0.5154652 -0.3082149 0.22749048 0.2963502 -0.36837697 0.18738957 -0.04545871 0.3473126
-0.15606129 0.35287952 -0.0411433 -0.16177931 -0.32431835 -0.27008975 0.08142823 0.49398533
-0.5821765 -0.06204938 0.08463602 0.1402844 -0.5100823 -0.25903252 -0.353915 0.08958196
0.0896694 -0.3897743 -0.2238053 -0.075374916 -0.032913446 -0.19990522 -0.06296395 0.39858332
0.36355075 -0.3175601 0.23772089 0.14042924 0.2116533 -0.10852937 -0.3225067 0.015863687
-0.19829471 0.076078944 0.03193552 -0.30904895 0.16718052 -0.18819189 -0.079782784 -0.16530429
0.30663973 0.12093663 -0.04736564 -0.28902707 0.18182099 -0.11869746 0.36227736 -0.1772877
-0.14247379 0.12576847 0.0012291968 -0.3256886 0.16050135 -0.3438259 -0.6768913 -0.058510613
-0.27546677 0.14461297 -0.189759 -0.4967816 -0.40498352 -0.21397899 -0.3061976 -0.063654654
0.35513324 0.34713018 0.25348487 0.16584304 -0.17948082 0.13952892 -0.3331089 0.41708627
-0.22201884 0.5328607 -0.52365434 -0.26827088 -0.26393425 -0.21431032 -0.09873826 0.1825875
-0.25719225 -0.1476678 0.2301923 -0.14122349 0.40122256 -0.00072123035 -0.10863574 -0.11329621
-0.35879093 -0.45245618 -0.00523839 -0.3467668 0.064025946 0.3920729 0.12995754 0.27962568
0.16337855 -0.112164855 0.0357449 0.27826852 0.34772283 0.15016526 -0.3877304 0.061758116
0.09518135 0.099334 -0.13717519 0.31511495 -0.019533722 -0.2980182 0.11026569 -0.38978997
0.24889767 -0.015724637 -0.39622495 -0.21547058 0.30368948 0.14094822 0.35591862 -0.17602134
-0.31132454 -0.20319803 0.3979224 -0.28124338 -0.1877596 -0.31074986 -0.26518145 0.014006552
0.3562319 0.1112548 -0.21916854 0.2310061 0.2865428 0.29112318 -0.32251656 -0.30617097
0.15348613 0.25764403 -0.21922828 0.023057591 -0.43642223 -0.15309457 -0.09013402 0.24874246
0.18644972 0.23180203 -0.29400316 0.20892847 0.36331785 0.27510136 0.046710704 0.3970522

net.0.bias f4 [128]
00000000: ad0d 87be 9ce8 023f d464 d43e ca74 9abd
00000010: f091 453d fcc1 e0be 0a88 8a3d c32f 86bf
00000020: 04ae d1be 2d83 ff3d add5 683e 18d0 b73d
00000030: fe03 1bbd 65f5 9e3e 940f 65be 2455 b43e
00000040: f7eb b8be 28dd c1be fe32 86bd 158d 903d
00000050: 3f28 debe dc8e b73b 2dcb e9be 188c e73d
00000060: 3239 133b 5235 b53d 9246 b2be 1e34 10bf
00000070: 5ead 393e 0019 8a3d 809c 313a 9f0d ee3e
00000080: 6065 383e da00 343e a79b 25bd 1194 043f
00000090: 1b23 773d 1195 c73d ff70 2c3d ea8a da3e
000000a0: 196e 263e 50f4 a83e bea6 6b3d 8045 953e
000000b0: 8695 ba3e 02a6 b23d 71c9 13bb fd75 99be
000000c0: 65e1 0e3e 0fc2 b2be fd9f b13e 01f8 553e
000000d0: 4bab 613e 4b17 2fbe d07f 623e 1456 103e
000000e0: fa46 733e b39c 2dbe a42a 3e3e 5911 173e
000000f0: 6b3f 2a3e abbf d33e e2ae 41bd 1925 f2be
00000100: 7b88 d53e 43fd a4bd 739f c3bb 83b0 aebd
00000110: 35aa e23d 94e0 7d3d 9263 62bd 2e6e 8abe
00000120: e3b0 ca3e ccdf 3abd c933 5abe ff14 613e
00000130: a65e c1be 560b c1be ba86 923e 6afd 09be
00000140: f9ad f4bd bdb2 f33e 6b2a cdbe 6cce f23e
00000150: 6f07 a43e 8b63 68be 4e79 59be d222 76bd
00000160: 95be ca3e 5620 b43e 3c68 bebe a75a edbe
00000170: 5625 8a3e eb48 2abe c43c 81bd 4ada b8be
00000180: 56cf fbbe 40f9 bebb aeba 7dbe 75f9 e03e
00000190: 85d5 493e b0fe 10bd bb81 d13c b273 6abe
000001a0: 0369 6abe e2ea 58be 5e75 b8be dd17 55be
000001b0: 6961 ed3e cc23 363e eef3 4fbd 2a7e abbe
000001c0: 2845 4c3e c56a b83e 4f7d a9bd 9ef6 3a3e
000001d0: d4dd 6d3e b327 08bf 2522 3ebe 2f11 3fbe
000001e0: 6f33 dfbe f0c6 d6be b86c 893e a87e c83d
000001f0: 3f9e 4abe f5f8 55be f0a3 d33e d887 9cbe
-0.2637762 0.51136184 0.41483176 -0.07541807 0.04823488 -0.43897998 0.06764229 -1.0483326
-0.40953076 0.12476192 0.22737761 0.089752376 -0.037845604 0.31046596 -0.22369224 0.35221207
-0.36117527 -0.3786404 -0.06552695 0.07058159 -0.4339008 0.005601747 -0.45662823 0.11306018
0.002246451 0.08848061 -0.34819466 -0.56329525 0.1813254 0.067430496 0.00067753345 0.46494767
0.18007421 0.1757845 -0.040431645 0.5178843 0.060336214 0.09745229 0.04209995 0.42684108
0.16252936 0.32998896 0.057532065 0.29154587 0.36442202 0.0872307 -0.0022550488 -0.2997283
0.13953169 -0.3491368 0.34692374 0.20895387 0.22038 -0.1709873 0.22119069 0.14095336
0.23757544 -0.16954307 0.18570954 0.14752711 0.16625755 0.4135717 -0.047285922 -0.47293928
0.4170569 -0.08056118 -0.0059699356 -0.08529761 0.11067621 0.061981753 -0.05527074 -0.27037185
0.3958808 -0.045623586 -0.21308817 0.21980666 -0.37767524 -0.3770396 0.28618413 -0.13475576
-0.11947245 0.47597304 -0.40071425 0.47423112 0.3203692 -0.22694223 -0.2123768 -0.0600918
0.39598528 0.3518092 -0.371889 -0.46358225 0.2698161 -0.16629378 -0.06310418 -0.3610404
-0.49181622 -0.0058280528 -0.24778244 0.4394032 0.19710357 -0.03539914 0.025574556 -0.22895697
-0.22891621 -0.2118335 -0.36027044 -0.20809884 0.4636338 0.17787093 -0.05076974 -0.33494693
0.19948256 0.3601896 -0.08275854 0.1825814 0.23229152 -0.53185576 -0.18567713 -0.18658899
-0.43593928 -0.41948652 0.26840758 0.09789783 -0.19786929 -0.20895751 0.41336012 -0.3057239

net.2.weight f4 [128, 128]
00000000: e33d b1bd f743 abbc b96a 353d 7dc6 37bd
00000010: 83e7 9bbc 365c a93d e64c aabd 40a5 913d
00000020: a843 2d3d 90cd 9ebd 750d 2a3d fe4e df3c
00000030: a862 dfbc af02 563d df53 3fbd 4a4f 94bc
00000040: 47f1 90bd 5b7e fa3c edd4 bcbc 53a6 a7bc
00000050: 3732 e3bc d90c 3ebd d859 593d c27c c23c
00000060: c518 e6bc 6802 973d 73d3 6b3d b7e4 9f3d
00000070: d174 d23d 1800 093d 7343 dc3c e290 653d
00000080: 4c0e ca3d 7028 6bbd 82ea abbd 1a8b d0bd
00000090: d460 5e3c 2a9b a83d a119 c63d de3b 5e3c
000000a0: 804b eb3c bc01 fd3d 8f81 593d 516d 99bc
000000b0: cc9d a03b a96f 34bd 92a8 36bb 3fcc b4bd
000000c0: de61 1c3c a222 67bd 6478 f83c 5651 b4bd
000000d0: 7a06 713d ec2a 8e3d b127 91bd 8258 5f3c
000000e0: 13f4 ccbc 4a57 07bd e1e8 8dbd fcaf 6f3d
000000f0: 51f9 4dbd fd43 c83d 7e3d 443d 6621 513c
00000100: 00be dcbc d338 273c a726 e5bd a62d 673d
00000110: 62e5 873d 655c 883d c038 533d 3715 7ebd
00000120: cf83 86bd f5db 5d3d 0300 07bd 1561 693d
00000130: e28c 6ebd 7d0c 043d 5ad5 46bd 859d 4ebd
00000140: 6ffe 523d 1fe2 f73c 82d0 ac3d 8863 963d
00000150: 61b3 cc3b 54a3 97bd 3ce5 2b3c ce54 973d
00000160: dfaa 08bd 80d2 783d 8cbe 88bd 35f9 0bbd
00000170: 6ae1 923d 8714 713d 9160 943c 55a8 f93c
00000180: bdf5 853c c1d6 e1bc a710 cf3d 230b b83d
00000190: 3cfe e3bd c2a6 48bd dd72 8fbd edee 9e3d
000001a0: 0294 0c3c 3470 94bd a55a 88bc 1f7b fa3d
000001b0: decf 2fbd 7d51 75bc ec4f 7d3d 5e2a 8f3c
000001c0: c893 99bc 93de 793d 1f2c e83d 8627 b9bc
000001d0: 32eb 44bd f9a8 a33a 58a0 1e3c b4f5 55bd
000001e0: 36df acbc 4703 933c 8718 8fbd c201 e13c
000001f0: 9e1a 06bc 884f 5a3d e50a 833c 03af fd3d
00000200: ab88 8c3d 84b5 83bd 9111 1cbd 0bca cdbd
00000210: ae27 8abd 3a5a 8f3c 2cac 5c3d 62f8 0b3e
00000220: e00e 98bc d605 62bc c0d7 383d 45cb 913d
00000230: f197 0a3e 9ad3 a2bd 124a b9bd 27bb 25bd
00000240: 6d7f e9bd be1f 08bd b67c 99bd 1b52 933d
00000250: 3bee fb3c 2430 923d 4bdd 883d e027 913d
00000260: c23b e6bd 5864 293d 51cc 363e d3be 0dbd
00000270: aa1c 3c3d baca 773d 55ce 7e3d 551b 95bd
00000280: ab55 a73d 26be 83bc 5f05 8fbd ba30 20bd
00000290: ee5d 903d 7b1c 6bbc bd12 9b3d 8eb2 c93c
000002a0: 5855 a73d 73db f1bd d312 033d 5d0f 663d
000002b0: 10fa 7c3c dcd6 e13c 01f2 bf3c 73d8 e0bd
000002c0: fb82 893d 21d3 983c c05b b4bd 9365 d83c
000002d0: 311b 8ebd 9a7d 60bd 74a0 be3d 6803 22be
000002e0: 4d30 4d3d 7fd1 88bd 78f1 a7bd b89d 123d
000002f0: 88bb 993d 7bdc f23d aec7 9b3c 4bb0 a4bd
00000300: df33 3dbd 6f8d 09bd 976b 6d3d 8edc b43d
00000310: ee8a 9e3c dacd 5b3d 863e 0f3d 21d6 dabd
00000320: d4b8 a3bd dbfa 42bd 2cef 66bc 98d5 4e3c
00000330: c1a6 02be 94af 463d 9997 8b3d cf52 1dbb
00000340: 7404 c73d c3fc d33d 76da ae3d 1d21 87bb
00000350: 1091 823c 09e8 99bd 7c0e 79bd 6d94 cbbd
00000360: 0094 d73c 2a7e ae3d 0c8c edbc 53db 0c3b
00000370: ce98 5cbc d5a4 833d 0b52 84bd 4c9f 27bc
00000380: 5373 28be c319 5cbd 5cc5 c2bd 6702 943d
00000390: f4a9 a4bd 371a 0d3d ef6a cf3d 3924 66bd
000003a0: 2d0b 803d 63ae babc 734c 18bd 7b02 babd
000003b0: 27ae 2cbd 53b3 a2bd febc a13c df48 4dbd
000003c0: 23ae ddbc e4f1 113d b19d 06bd 3df9 c8bc
000003d0: 86f4 443d dd0d 313d 989d c83c ec8c f8bd
000003e0: d626 b1bd c8a1 55bd 86fc 083d fe88 aebd
000003f0: 52df ccbd 7da8 043d 8afd c2bd 7703 193c
-0.08654382 -0.020906432 0.04429123 -0.044867028 -0.019031292 0.08269541 -0.083154485 0.07111597
0.04230085 -0.07754052 0.04151674 0.027259346 -0.027268723 0.052248653 -0.046710845 -0.018104214
-0.0707727 0.03057783 -0.02305075 -0.020465052 -0.027733905 -0.04639897 0.053064197 0.02374113
-0.028087983 0.07373506 0.0575747 0.07807296 0.10276187 0.033447355 0.026887631 0.056046374
0.09866008 -0.05741161 -0.08394338 -0.101827815 0.01357289 0.0823272 0.09672857 0.013564078
0.028722525 0.123538464 0.053102072 -0.018728884 0.0049016234 -0.0440518 -0.0027871472 -0.08828019
0.009544818 -0.056429513 0.030330844 -0.08804576 0.058844067 0.069417804 -0.07087649 0.013631942
-0.025018727 -0.03304223 -0.06929184 0.05851744 -0.050286595 0.09778593 0.047910206 0.01276431
-0.026946068 0.010206419 -0.11189013 0.056440018 0.06635548 0.06658248 0.051567793 -0.06203195
-0.06568109 0.054164845 -0.032958996 0.05697735 -0.058239825 0.032238472 -0.04854331 -0.05044319
0.051512178 0.03025919 0.08438207 0.07343203 0.0062469696 -0.07404199 0.010491665 0.07389222
-0.03336608 0.060747623 -0.06676969 -0.03417321 0.071719006 0.058857467 0.018112453 0.030475775
0.016352529 -0.027568223 0.10110598 0.08986499 -0.11132476 -0.048987158 -0.0700433 0.07760415
0.00858021 -0.072479635 -0.016644785 0.12230515 -0.042922847 -0.014973042 0.061843798 0.017476257
-0.018747225 0.06100328 0.113365404 -0.022601854 -0.048075862 0.0012486271 0.009681784 -0.052236274
-0.021102529 0.017945899 -0.069871 0.027466659 -0.008185057 0.053298503 0.015996406 0.123868965
0.06862005 -0.06431106 -0.03810269 -0.10048302 -0.067458495 0.017499078 0.053875133 0.1366897
-0.01856178 -0.013795337 0.04512763 0.07118849 0.13534524 -0.07950516 -0.09047331 -0.040461686
-0.11401258 -0.033233397 -0.0749449 0.07193395 0.030753246 0.07138088 0.06682833 0.07087684
-0.11241867 0.04135546 0.17851378 -0.034605812 0.045925774 0.06049607 0.062208492 -0.07280604
0.08170637 -0.01608188 -0.06983446 -0.03910897 0.07049166 -0.014350052 0.075719334 0.024621274
0.08170575 -0.11809435 0.032000374 0.056166995 0.015440479 0.027568273 0.023430826 -0.109787844
0.06714436 0.018655362 -0.088065624 0.026415622 -0.0693878 -0.054807283 0.09307948 -0.15821612
0.05009489 -0.06680583 -0.082003534 0.035794944 0.07506472 0.118584596 0.019016113 -0.08041438
-0.046192046 -0.033582147 0.057963934 0.0883113 0.019353356 0.053663112 0.034971736 -0.10685373
-0.079942375 -0.047602516 -0.014095109 0.012624167 -0.12758924 0.048507288 0.06816024 -0.0024005657
0.09717646 0.10350945 0.08537762 -0.0041238205 0.015938312 -0.0751496 -0.06080483 -0.09940419
0.02631569 0.08520158 -0.028997444 0.0021493032 -0.013464166 0.064279236 -0.06460961 -0.01023085
-0.16450243 -0.053735506 -0.095102996 0.07227021 -0.080402285 0.03444883 0.10127818 -0.05618689
0.062521316 -0.022788232 -0.037182283 -0.09082504 -0.042158272 -0.0794436 0.019743439 -0.050118323
-0.027060574 0.035631076 -0.03286523 -0.024532909 0.04808476 0.04322611 0.024489209 -0.12136254
-0.086499855 -0.05215624 0.03344395 -0.08522223 -0.100035325 0.032387245 -0.09521015 0.009339205

net.2.bias f4 [128]
00000000: 7713 833d bc7e d03d 9f15 5d3c d6cf 98bd
00000010: 916e 753b d325 28bc e519 c0bc c9f1 183c
00000020: c559 813d 8841 703d 149e 02bd dd91 98bd
00000030: 4668 0c3d ccaa d03c 844c 64bc 4fd8 fe3d
00000040: e75e c8bd 6943 e53d 5841 333c 1706 15bc
00000050: 9d6d 8abd 374e 503e a259 1dbe 17d7 20bd
00000060: 6d25 d43d 16e6 3a3b d47b 803d f1b4 88bd
00000070: 1ac2 bbbd 9e33 8dbc 7905 9c3c e76c 173e
00000080: 703b 05bd 048a b5bd c190 ad3d 66be 35bd
00000090: 43ef 82bd 1328 ab3d 5c3b 1c3e 3114 9c3e
000000a0: 85d0 923e 2dcb 863d 8486 71b9 a470 bb3b
000000b0: e28b 993d e689 4ebd f503 9cbc 1472 0a3d
000000c0: 2ed3 cf3d dbf8 503d 3ee2 2abd 11f9 b63d
000000d0: 9539 043d 5ca6 433d 3e4d 853d 4699 26bd
000000e0: 6443 673c 889e 98bd 2477 00bd 6906 14bd
000000f0: 0aca 4c3d cd1c 403c 569e b0bd 3510 143e
00000100: 3eef 15bd bca6 aabe b098 913c ec72 2cbd
00000110: a8bf 07be 8aae 9d3c 6c5a efbc a22e 2e3d
00000120: 8d93 1c3d d8ab a7bd c9ea c0bd c76e a5bc
00000130: 9091 fc3c 271e 843d 218d 0b3b d993 cfbd
00000140: fcba bf3d e11f d23d b5d3 eb3c f51f 843d
00000150: ed5d 923d 58bb 89bb 2738 27be 8596 fe3c
00000160: f66c 1e3d 48fb 103d 68c7 ba3c 38f1 70bd
00000170: cec4 36bd d5f8 bf3d fc85 0abd 2fe5 e53d
00000180: 1cd9 e2bd 45c1 8f3c 71bb 03be 52d9 2ebd
00000190: e0e4 be3d cc16 ac3d 93df 423d 985a a9bd
000001a0: b5c0 193d e81f c83d 825c fa3c bdb0 56bd
000001b0: 8812 d13c 0d8f 17be d5f1 163d 2c0d aabd
000001c0: 0461 b5bd 6c4b 49bc 133d a3bc 7a1f 2c3d
000001d0: 89db b9bc dffb 793c af15 2fbd f8f3 a13d
000001e0: cbc8 f5bd 4128 5f3d 5cbf 9ebd 500a e23b
000001f0: 12fd bfbd a61a d6bc 57f2 56bd 7d6a 893c
0.06400197 0.10180423 0.013493924 -0.074615166 0.0037449936 -0.010262924 -0.023449847 0.00933499
0.0631595 0.058656245 -0.031889036 -0.07449696 0.03427913 0.025472067 -0.013934258 0.12443601
-0.09783726 0.11194498 0.010940872 -0.00909569 -0.06759188 0.20342337 -0.15366223 -0.039267626
0.10358701 0.002851849 0.06273618 -0.06675137 -0.09167881 -0.017236527 0.019045578 0.14787637
-0.032527387 -0.08864215 0.08474875 -0.04437103 -0.06393292 0.08357253 0.15257019 0.30484155
0.28674713 0.065817215 -0.00023033662 0.005720215 0.07497384 -0.05042448 -0.019044856 0.0338002
0.10147701 0.051018577 -0.041719668 0.089342244 0.032281477 0.047766075 0.065088734 -0.040673517
0.014115188 -0.074521124 -0.03136362 -0.036138926 0.049997367 0.011725617 -0.0862395 0.14459307
-0.036605112 -0.33330333 0.017773002 -0.042101786 -0.13256705 0.019248266 -0.029217921 0.04252494
0.038226653 -0.081870735 -0.09419782 -0.020194424 0.030831128 0.064510636 0.0021293836 -0.101356216
0.09361836 0.10259987 0.028787473 0.06451408 0.07146821 -0.0042032413 -0.16330014 0.031077633
0.038678132 0.03539589 0.022800162 -0.058823794 -0.04462128 0.09373633 -0.033819184 0.11225354
-0.110765666 0.017548213 -0.12864472 -0.04268772 0.09320998 0.08402786 0.0475765 -0.082692325
0.037537295 0.09771711 0.03056169 -0.052414645 0.025521532 -0.14800663 0.036851723 -0.083032936
-0.08856395 -0.012286048 -0.019926583 0.042022206 -0.02268769 0.015257805 -0.04274529 0.079078615
-0.12001189 0.05448175 -0.07751343 0.006898202 -0.09374441 -0.026135754 -0.052477207 0.01677441

net.4.weight f4 [128, 128]
00000000: 7966 f1bc bf23 763d 1ddd ac3d 3ad7 2c3c
00000010: c0d7 1fbc 54af 8f3c 1e6e 3bbc 9775 4cbd
00000020: a4df 42bd 8911 a6bd f464 703d dee8 173c
00000030: c5ed 903d 8cf4 20bc 8c42 183d de47 593d
00000040: 7e5d 1c3d 92d6 333c f3b9 cdbc 2225 a83c
00000050: 55d4 93bd c02f af3c 7431 4cbd 0be0 30bd
00000060: 7fc0 5fbd e1af b93c 5f18 f23c dcdb 75bc
00000070: cbc3 983c cceb 943d 2e80 433d ee9f 06be
00000080: 8e41 3fb9 7644 9bbd 8d90 81bc b3da 58bd
00000090: 68cc adbd 95e6 533c 5013 28bd c8f1 5ebd
000000a0: 29f8 9ebd a437 9d3d 10ab 18bd 567c c6bc
000000b0: 8383 353d 116c 5abd 7b4c 403d e950 b23c
000000c0: 9a34 903d 1167 c33b 6599 afbd ac32 423d
000000d0: 281d b63c 1782 7d3d 3e11 463e 9f47 8ebd
000000e0: fd0e 3cbd 9c25 ad3d 8ae0 18bd 4aa4 663d
000000f0: e043 40bd 42d3 3fbd b4a7 183c c00a bd3c
00000100: 58fd df3d 1ae8 413d fca4 6b3d 33d7 73bd
00000110: 8c4b 1b3e d5f0 a03d 27b5 2d3d bfe5 273d
00000120: f7fa 8fbd 5872 a3bd 0e74 c23d 190d f33c
00000130: 99f0 683d d312 403d 8fe5 623d e55d 19bc
00000140: da7f c33c e583 17bc d883 653a e2df 1d3d
00000150: 5797 0d3d 66aa 84bd 79c0 073e c58a 85bd
00000160: 7247 b93d a28b d93d 0c08 173d f1ba e6bc
00000170: a90e 653c 8634 d9bc f7cb 68bd 1bfe 9c3d
00000180: e30a 683d 8ce0 cd3d 5aa0 80bd 58a9 8f3d
00000190: 521c 033d 20eb d3bd 689d 3a3d b7b0 6ebd
000001a0: 6bf1 fdbb 69ca b1bd 1612 e0bd 8bb9 b33c
000001b0: 5fb8 95ba de39 b1bb 8f51 3d3d 4b8f 703d
000001c0: 1d42 223c 5dd0 f0bc c0c5 a93d bd88 b1bd
000001d0: 2160 7ebc dea0 08bc c23b 2f3d 77bb 8abd
000001e0: 2c52 69bc e60d 0e3d 2e6a 60b7 646c a23c
000001f0: 02be 78bd 3449 73bd ddd9 a1bd 9acd 973d
00000200: bd4a 233d 54e1 8d3d 2e02 a6bc c522 8fbc
00000210: e7cd ba3d b9df 9dbd 8143 06bd f730 bc3c
00000220: 53d3 f33c 6e73 913d fed5 8a3d 2cf0 9a3d
00000230: b26b 9ebc fa87 863d 44a7 dd3d 8f0a b2bd
00000240: 55ba c8bc 5085 5f3c a363 ba3d e2c7 ebbd
00000250: 18a3 66bd 8997 bebd 5988 243d 3ab9 b8bc
00000260: 8465 d13d 0174 5dbd 417a 4dbd b9f7 6a3d
00000270: 7409 25bd b3cf 8dbc c9fd 283d 01a5 463d
00000280: aa37 f4bc e98f 91bd 8d7c 2cbe 706a bf3c
00000290: 1f35 cc3d 2243 3cbd 8db8 6ebd 6a5f 53bc
000002a0: c6f5 883c f1c4 d2bd 01f1 133d 3533 8f3d
000002b0: 55cb 48bd 38cc bebd 7101 99bd 2be9 153c
000002c0: 6cdf d8bd 3f47 ccbc ee9b c5bc 057d 733d
000002d0: 6409 a23d 3e80 2e3c 0889 a1bd dd45 63bd
000002e0: d90b 89bc 27df 1d3d 5436 8b3d 9f9b 0d3d
000002f0: d35a f33c 7767 b2bd f64d 293d c18b 48bd
00000300: f777 043e 7c69 d0ba 8292 1a3e 4af4 b5bd
00000310: de12 453d c748 863d 4edb b53d 2ca3 12bc
00000320: 9ca1 80bc 8118 293d 957b 8a3c 14a1 45bc
00000330: 2b81 063c 43ff 263d 88de b03d 60c8 4d3c
00000340: fdb7 953d a047 a5bd 9847 c23d f708 3abd
00000350: 5148 d53d 1052 da3c 9610 d6bd ce1e 1bbc
00000360: 0145 42bd 2534 7e3c 6baf 0c3c 039e 753c
00000370: 9ce7 ff3b 2741 9cbc 2212 17bd 9535 2bbd
00000380: c7be 593d ba50 813d 8c80 31bd a7b6 70bd
00000390: f954 cb3d a152 ddbb 269c 6a3d 12f4 82b9
000003a0: 2148 69bd 9c89 bdbc 57ae 9bbc afbe 21bc
000003b0: 51d8 8a3d 7851 893e c484 653d 2d2d 50bd
000003c0: 3717 33bc 5f03 24bc de90 0d3d 9108 0ebc
000003d0: 4841 8f3d 3894 3fbd 0ba7 0cbd 1834 83bd
000003e0: e7fb 603e 91af aabd b85f 853d 35ef 5b3d
000003f0: 3715 9dbd a92b a43c ec6b 4abd 41ba d73d
-0.029467808 0.060092684 0.084406115 0.010549361 -0.009756029 0.017539658 -0.011439828 -0.04991683
-0.04757656 -0.08108813 0.058690026 0.009271828 0.07076601 -0.0098239295 0.03717284 0.053047054
0.0381751 0.0109764505 -0.025113082 0.020525519 -0.072182335 0.021385074 -0.04985185 -0.043182414
-0.054626938 0.022666873 0.029552637 -0.015006032 0.018648049 0.07271537 0.047729664 -0.13146946
-0.000182396 -0.07581417 -0.015815997 -0.052942943 -0.08486253 0.012933393 -0.041034043 -0.0544298
-0.077621765 0.07676628 -0.037272513 -0.02422921 0.044314872 -0.053325716 0.046947937 0.021767097
0.07041283 0.005963214 -0.085741796 0.047411606 0.0222307 0.06189164 0.19342515 -0.069472544
-0.04591273 0.08454439 -0.037323512 0.056309022 -0.04693973 -0.04683233 0.009317327 0.023076415
0.10936993 0.04734049 0.05753039 -0.0595314 0.15165538 0.07858435 0.04240909 0.040990587
-0.070302896 -0.07980794 0.09494792 0.029669331 0.056870077 0.046892952 0.055394705 -0.009360765
0.023864675 -0.009247755 0.0008755303 0.03854359 0.034568157 -0.064778134 0.13257016 -0.06520609
0.0904683 0.10622336 0.03687291 -0.028165312 0.013980546 -0.026514303 -0.05683514 0.07665654
0.056651007 0.100525945 -0.06280585 0.07014722 0.03200943 -0.10347581 0.04556027 -0.058273997
-0.0077497265 -0.08681185 -0.109409496 0.02193906 -0.0011422745 -0.0054085096 0.04622036 0.058730405
0.009903458 -0.02939623 0.08289671 -0.08668659 -0.015525849 -0.008339135 0.0427816 -0.06774037
-0.014240783 0.034681223 -1.3376162e-05 0.019827075 -0.06072808 -0.059395984 -0.07902882 0.07412262
0.039866198 0.069277436 -0.020264711 -0.017472634 0.09121304 -0.07708687 -0.03277922 0.022972567
0.029763853 0.071020946 0.06779097 0.075653404 -0.019338463 0.06568904 0.10822919 -0.0869342
-0.024502913 0.013642624 0.091010354 -0.11512734 -0.056307882 -0.09306247 0.040169094 -0.02254926
0.10224441 -0.054065708 -0.05016542 0.057365153 -0.04029222 -0.017310953 0.041257653 0.048497204
-0.029811699 -0.07107527 -0.16844387 0.023366183 0.099710695 -0.04596246 -0.05828147 -0.012901166
0.016718756 -0.1029147 0.03611851 0.06992189 -0.049022038 -0.093162954 -0.07470978 0.00914983
-0.10589489 -0.024936317 -0.024122205 0.0594454 0.07911947 0.0106506925 -0.07887465 -0.05548655
-0.016729282 0.038542893 0.06797472 0.03457224 0.029706394 -0.087111406 0.041334115 -0.048961405
0.12936388 -0.0015900577 0.15094951 -0.08884485 0.048113696 0.0655685 0.0887972 -0.008950036
-0.015702061 0.041283134 0.016904632 -0.01206233 0.008209507 0.04077078 0.086361945 0.01255998
0.073104836 -0.08070302 0.09486312 -0.045418706 0.10414184 0.026650459 -0.10452382 -0.009467794
-0.04742909 0.015515362 0.008586745 0.014991286 0.0078095924 -0.019074036 -0.036882527 -0.041799147
0.053160455 0.063142255 -0.043335482 -0.05876794 0.099283166 -0.006754235 0.05727782 -0.0002497738
-0.056953553 -0.023136906 -0.01900403 -0.009872123 0.0677954 0.26819968 0.05603482 -0.050824333
-0.010930828 -0.010010569 0.034561984 -0.008669035 0.06994873 -0.04677221 -0.034338992 -0.064064205
0.21971093 -0.08334268 0.065123975 0.053694922 -0.07670062 0.02004035 -0.04941933 0.10533572

net.4.bias f4 [128]
00000000: b94d df3c 911f 36b9 706f 38bd 04ab 58bc
00000010: 7061 0cbd ab28 09be f36a c73d e6cd a7bd
00000020: 1821 283d e7e8 803d 6f8c f13c 6d17 a1bd
00000030: b5c9 d03a 747d b3bc f6bf af3c 7e9e b7bd
00000040: 2d6d 6cbd 0eaf 77bc 6c8f f7bc b2ef 62be
00000050: 1eed 583d f65f 47bd 4f84 ccbd fc83 85bd
00000060: 255c 8f3b dd56 d4bd a721 cabd 9026 fc3b
00000070: daae 3ebd b890 743d 1c7e cfbe 9ef8 a33d
00000080: 18e0 cabb fe61 3b3d 46cd ddbd 5f49 50bb
00000090: 808a 863a 0eac 6b3d 058b 1f3d c277 debd
000000a0: c038 653d dfac 973c d433 853d 34a6 553d
000000b0: 65f1 513c 4e8a 7b3d 166b ac3d 6c45 683d
000000c0: 2987 833d 2d5e 92bc 63df 273d 87a3 1ebe
000000d0: c120 923c 732b 983d e873 fdbc fdf7 9c3d
000000e0: 68d8 83bd e48a c23d 00c2 573d b7ac d6bd
000000f0: 7f49 d83b 0466 3dbd ca22 bd3d c116 343d
00000100: b133 0c3d abc0 e43d 494d 9a3b 5553 fd3c
00000110: 3052 223d 10b8 053c 9e63 c5bd caf0 4e3c
00000120: 920b 32bd 51cd 693c be85 7ebd 9f82 8e3d
00000130: e0d8 97bc 7b52 5bbd 9618 1aba 3c79 5a39
00000140: 39b2 7a3d 82eb 153d f268 c9bd 0b3c 3f3c
00000150: dd42 88bd c1eb 20be 5de0 8a3d 7215 c5bd
00000160: edca 65bd 3826 47bd ed32 8bbd 7dd5 8b3d
00000170: 1e4b d23c 6584 27bd 9293 3bbd 402c b0bc
00000180: 5543 3fbd 7b9b 19bb 5219 6bbd 24c7 313c
00000190: 07c4 d1bc 1504 84bd b984 94bd b553 c1bd
000001a0: f641 c1bd 501b 8dbd 8a28 f63c b603 8f3d
000001b0: 0fee bc3d 4b28 44bc d8ac 573d be7b 973c
000001c0: 219d 59bd 1804 d03b 6535 043d 1761 343d
000001d0: 5fd1 0f3d 4d8d ccbc 65b3 13bd a154 83bd
000001e0: 911c 9fbd 3dbe 273d 413c 8bbd 5f9b 8ebd
000001f0: 6d0c b93d 526c 283a 03ac 723c d6f2 863d
0.02725874 -0.00017368632 -0.04502815 -0.013224367 -0.03427261 -0.1339442 0.09737196 -0.08193569
0.041047186 0.062944226 0.02948591 -0.07865796 0.0015929254 -0.021910407 0.021453839 -0.08965777
-0.057721306 -0.01511742 -0.030219756 -0.22161749 0.052960508 -0.0486755 -0.09986173 -0.06519315
0.004374998 -0.1036813 -0.098697 0.0076950267 -0.04655347 0.059708327 -0.405259 0.08006404
-0.006191265 0.04574775 -0.108301684 -0.0031782014 0.0010264665 0.05753713 0.03895094 -0.10862686
0.055962324 0.018515049 0.06504026 0.052160457 0.012813901 0.061411195 0.084188625 0.05670683
0.06422264 -0.017867172 0.040984523 -0.15492068 0.017837884 0.07430162 -0.030939057 0.076644875
-0.064377606 0.094991475 0.052675247 -0.104821615 0.0066005583 -0.046239868 0.09235151 0.043967012
0.034228984 0.11169561 0.00470892 0.030923525 0.03962916 0.00816156 -0.09638141 0.012630651
-0.043468066 0.014270143 -0.062139265 0.06958508 -0.018536031 -0.053545456 -0.00058782974 0.00020835263
0.061205123 0.03660155 -0.0983447 0.01167203 -0.06653378 -0.15714933 0.06781075 -0.09623231
-0.05610173 -0.048620433 -0.06796823 0.06827829 0.025670584 -0.040897746 -0.04579503 -0.021505475
-0.046695072 -0.002343862 -0.057397194 0.0108507015 -0.025606168 -0.06446091 -0.07251877 -0.09439794
-0.09436409 -0.06889975 0.030048627 0.0698313 0.092250936 -0.011972497 0.05265507 0.018491622
-0.053128365 0.0063481443 0.032277483 0.044037905 0.03511178 -0.024969721 -0.036059756 -0.06412626
-0.077691205 0.04095291 -0.06798602 -0.069632284 0.09035573 0.00064248324 0.014811519 0.06589286

net.6.weight f4 [2, 128]
00000000: d713 00be 425e b0bb 4bc7 7a3d fe56 1cbc
00000010: 12f3 263e 8d61 1a3e 6b98 0bbe d682 933d
00000020: 1f1b f03d eb24 9a3d 9570 0a3e ed3b 413e
00000030: 77bd 48be 1d0b 093e a482 b3bb 62b0 87be
00000040: ae92 273e 6792 75bd 7613 b0bd 72d6 7d3e
00000050: 1f3c ec3d 2263 073e aa0a 273e e0e8 93bd
00000060: 20b5 62bd 2404 ffbc 0f29 1a3e 3d8e d6bd
00000070: 3e6b 90bd 8d4d 47be ed99 c6be 3e00 ecba
00000080: c082 4cbe eb53 a83c 65df 0c3e 5a6a db3c
00000090: 213d 433e 2cad 64bd 7f54 bc3d de79 bd3d
000000a0: 8e0a 413d 5883 a7bd 6010 d23b fede 0dbe
000000b0: 4ef5 133e 1cff acbd c7ca 3cbe 8142 983d
000000c0: 240f e1bd d988 46be d0cb acbd a5ee 503e
000000d0: 1043 a83d 3bb0 723d 385f 45bd 46c2 473d
000000e0: aed4 a9bd 9b40 503c 84bb 2e3d 3ffa 183e
000000f0: 063b 213e 7ee2 69bd 1c88 89bd ec34 b73d
00000100: 67f2 febd e161 88be f366 e63d cdaa a43c
00000110: 2a69 bb3d 7a01 203d b55d d93d 071f d73d
00000120: 71a8 88bd deca fe3d b59d 913d 2d1e fb3c
00000130: 4ccf 403b 871e b53d 14e9 163e b50f 943c
00000140: 4a30 f13d a4c2 1f3d 0cc9 63bc ac7f 113e
00000150: 9ef0 dabd ee53 aebe caa8 643d 4cda 47bd
00000160: 2273 ad3d b690 c53d d011 53bd ea4c 4abe
00000170: 4b80 c63d bc8e 36be 1548 073e 2764 4a3c
00000180: 5bd8 1abb 87a8 fb3d b58d 04bc 20d1 823d
00000190: 33aa e6bd 75a3 0c3e e05d ba3c c601 c43d
000001a0: 3814 0f3e 648d 813d 23f5 62bc 46ba 803d
000001b0: 6880 14be eb7d a0bd 468a 9e3c 94ca f03d
000001c0: f696 473d 2e56 17bd 2fde fbbd c065 383b
000001d0: bb10 4cbd 0fa8 393d 05ac 80bd ec61 c73d
000001e0: 3ade 993d a560 023e 2847 fdbd 1417 823d
000001f0: 0676 a9bd 9f56 30bd 9c8a 4bbd 1874 7abe
00000200: b6a5 6e3d d720 7cbd f824 98bc 48e8 a63d
00000210: 3170 ba3d 507b c3bd 11bd a63d bccf c0bd
00000220: 3c89 da3c 2c35 12bd bb19 52bd 9fbc 2fbd
00000230: 4d41 f1bc 46ff a13d 6ab6 c3bc bf32 1dbd
00000240: 09d4 793d 7976 53bd a26b 92bd f83a f13c
00000250: d783 cd3d 7849 bf3c f0f1 c3bb f7ef 35bd
00000260: 16d3 a8bd a824 cbbd 4f5f 5dbd 2357 8fbd
00000270: 242f aabd 475c c4bc a6f2 a1bd df13 5f3d
00000280: e0fe 4f3d ff42 1fbd 2bde d63c a09f b83d
00000290: 7ebf 82bc 1afc 0d3d be2d c53d 822e f4bc
000002a0: 4a81 a53d 3815 a33d 122d 3e3d b01c 4f3d
000002b0: 7dec 49bd 6351 9fbd b41e a23c 3786 d5bc
000002c0: b81a a8bd 7398 d03c 3847 c8bd a3e1 323c
000002d0: 2801 c83d 621e 803d ef0b 8f3d ebdd e33c
000002e0: 9090 4f3d b965 a63d c2c3 87bd 1459 803c
000002f0: 16ce cd3d 2fcb 893d 0844 57bd c03b dd3c
00000300: 61c3 c5bd af07 553c d372 b53c 5409 383c
00000310: 0360 1e3d 9f10 af3d 071c c8bd 87d6 babd
00000320: 2d6e d7bd 0816 0f3d 0334 4abd 5b9a 963d
00000330: 22fb a2bd 7b52 b33d 702f 89bd 0258 b2bd
00000340: d0fc e8bc ccfc 90bd 455f b9bd fe25 403d
00000350: 788b 7a3d 4f77 fc3d 0ea1 8d3c 156c d8bd
00000360: f4a4 b5bd 4c38 903d 5f61 f6bd 8948 4cbd
00000370: ac97 a93d 71be 6a3d 2578 b83d 1784 c23d
00000380: 9842 75bd aef8 473d 044f 9cbd 38c5 c9bd
00000390: 8c5c 60bd 6794 36bd 0ca4 c13d 9f8f 38bc
000003a0: 1dc3 f0bc 3eab 8bbd b7b8 93bd 2248 6f3d
000003b0: 91d9 b13d 926e 2b3d 8f99 82bd bb9c ec3c
000003c0: 3b91 9e3d 435c d93d 4ee6 d43d 2a17 803d
000003d0: 0073 bcbd 4e58 7dbd ddd1 3b3d af58 943d
000003e0: f725 8c3d 18cf 4a3d 5d88 ac3d b88a cfbd
000003f0: 12c8 873d 3e25 cd3d 3946 dfbd f28a c33c
-0.12507568 -0.00538233 0.061225217 -0.009542225 0.16303661 0.15076275 -0.13632362 0.07202689
0.11723923 0.07526573 0.13519509 0.18870516 -0.19603525 0.13383146 -0.00547822 -0.26501757
0.16364548 -0.059954073 -0.08597462 0.24788836 0.11534905 0.1322141 0.16312662 -0.07222152
-0.055348516 -0.031129904 0.15054725 -0.104763485 -0.07051705 -0.19463177 -0.3878931 -0.0018005443
-0.19971752 0.020547828 0.13757093 0.02678411 0.19066288 -0.055829212 0.09195804 0.0925176
0.047129206 -0.08179349 0.0064106435 -0.13854596 0.14449045 -0.08447096 -0.18436728 0.074345596
-0.10989216 -0.1938814 -0.08437312 0.20403536 0.08215916 0.059250098 -0.04818651 0.048769258
-0.082925186 0.012710716 0.042659298 0.14939211 0.15745172 -0.057100765 -0.06715414 0.08945641
-0.12448578 -0.26637176 0.11250105 0.020100975 0.09150918 0.03906391 0.10613576 0.10503965
-0.06672753 0.124410376 0.07110158 0.030654037 0.0029420434 0.08843713 0.1473735 0.018073896
0.117767885 0.039003983 -0.013902914 0.14208859 -0.10690425 -0.34048408 0.055825032 -0.04879217
0.084692255 0.09646742 -0.05153066 -0.19755903 0.09692439 -0.17827886 0.13211091 0.01235298
-0.0023627493 0.122880034 -0.008090426 0.06387544 -0.11262932 0.13734229 0.022749841 0.09570651
0.13972557 0.06325796 -0.01385239 0.06285529 -0.14502108 -0.07836517 0.019353043 0.11757389
0.048727952 -0.03694742 -0.122982375 0.002813682 -0.049820643 0.04532629 -0.0628281 0.09735474
0.075130895 0.1273218 -0.123670876 0.06352058 -0.08274464 -0.04305136 -0.049692735 -0.24458349
0.058263503 -0.061554756 -0.018572316 0.08149773 0.0910343 -0.09545004 0.0814153 -0.09414622
0.026676767 -0.03569524 -0.05129407 -0.042904492 -0.029450083 0.07910018 -0.023890693 -0.038378473
0.060993228 -0.051626656 -0.071494356 0.029447064 0.10034912 0.023350462 -0.005979769 -0.0444183
-0.082433864 -0.09919101 -0.05404597 -0.06999042 -0.083097726 -0.023969783 -0.0790761 0.05446231
0.050780177 -0.03888225 0.026228985 0.09014821 -0.015960451 0.03466425 0.09627865 -0.029807333
0.080813006 0.079630315 0.0464297 0.050564468 -0.0492978 -0.07779195 0.019790031 -0.026064975
-0.08208221 0.025463318 -0.09779209 0.010918054 0.097658455 0.06255795 0.06984698 0.02781578
0.050674975 0.08124871 -0.06629135 0.015667476 0.100490734 0.06728207 -0.052555114 0.02700603
-0.09656406 0.01300232 0.022149479 0.011232693 0.038665783 0.08548092 -0.09770971 -0.09122949
-0.10519061 0.03493312 -0.04936601 0.0735366 -0.07958056 0.08755966 -0.06698501 -0.087081924
-0.028440863 -0.07079467 -0.09051374 0.046911232 0.061168164 0.12327444 0.01728871 -0.1056749
-0.08869353 0.07041988 -0.12030291 -0.049873862 0.08280882 0.057310525 0.09007291 0.094978504
-0.059877962 0.048821144 -0.076322585 -0.098520696 -0.05477576 -0.04457512 0.094551176 -0.011264711
-0.029389912 -0.06819771 -0.07212966 0.0584184 0.086840756 0.041853495 -0.06376945 0.028883329
0.07742544 0.10613301 0.1039549 0.06254418 -0.09201622 -0.061851792 0.045854438 0.072434776
0.06843179 0.049513906 0.08424447 -0.101338804 0.06629957 0.10016869 -0.10902066 0.023869965

net.6.bias f4 [2]
00000000: a692 2ebd a513 a2bd
-0.042620324 -0.07913903
