model/GeTe.pth (torch, 139456 bytes, 8 tensors)

net.0.weight f4 [128, 6]
000000 6e 07 41 3e 26 98 f3 bd 59 2f 2d 3e 3e c4 57 3d
       0.1885049 -0.118942544 0.16912593 0.052677386
000010 7a ad be 3e f0 63 50 3e ca 99 9e 3e ec 99 9b bd
       0.37241727 0.20350623 0.30976707 -0.07597718
000020 f2 3e bf be 30 37 50 3e b9 6d 98 bc 21 6a 4c be
       -0.3735271 0.20333552 -0.018607007 -0.1996236
000030 c7 39 a9 be 26 d3 f5 3d 2a 9e c2 3e c1 3c fa 3e
       -0.33051893 0.12003164 0.38011295 0.48874477
000040 f4 52 de bd 7a 04 15 be ba 40 9c 3e e1 ae 7b 3e
       -0.10855666 -0.14552489 0.30518132 0.2457843
000050 9d bb 9a be a7 f7 98 3d b0 5a b9 be 2a 75 31 be
       -0.30221263 0.07469111 -0.36202002 -0.17329851
000060 82 4e 5c 3e 5d 32 93 be 31 80 a6 3e 8a 95 b4 3e
       0.21514323 -0.28749362 0.32519677 0.3527034
000070 67 d2 33 be ed 66 5a be 06 75 bd 3d 77 2f da be
       -0.17560731 -0.21328326 0.09250836 -0.42614338
000080 97 58 9b 3e fa 87 f8 3e c8 83 d3 be 6c c7 9f 3c
       0.30341026 0.48541242 -0.4131148 0.019504271
000090 c8 08 b6 be 26 87 8a 3e be 23 45 3e cd 94 7d 3d
       -0.35553575 0.27056235 0.19251916 0.061909486
0000a0 ec ed e8 be 44 d8 98 bd 1c 8e 90 3e 8a 9b 5d 3e
       -0.4549402 -0.074631244 0.2823342 0.21641365
0000b0 89 81 35 be 3d 84 46 3e ee 22 1c 3f 4f 7c d2 be
       -0.17725195 0.19386382 0.609908 -0.41110465
0000c0 05 aa 54 3d bf e8 3d be 2e d7 11 3d 1d 3f 8b 3e
       0.051919956 -0.18545817 0.035605602 0.2719659
0000d0 17 27 bb 3e 6d 37 14 3e cc 6d 02 3e 0a 1b 02 be
       0.3655326 0.14474268 0.12737197 -0.12705627
0000e0 a6 dd b4 3e a3 e8 86 3e 8d 46 8d bb f9 b0 a0 3d
       0.35325354 0.26349363 -0.004311389 0.07846255
0000f0 57 90 93 3e 59 01 bf be 3f f7 70 3d 55 d3 0e bd
       0.2882106 -0.37305716 0.058829542 -0.03486951
000100 60 ce 9c 3e 44 f8 af 3e dc 1c 8d 3e 8c d8 1c 3e
       0.30626202 0.343691 0.2756108 0.15316981
000110 da d7 46 bc 91 12 3c 3e 51 e6 1f be 41 2a 6a 3e
       -0.012136424 0.18366458 -0.15615202 0.22867681
000120 d9 01 38 bd 03 56 a2 3e 67 bf ed bd 9e 29 9f be
       -0.044923637 0.31706247 -0.11608773 -0.3108644
000130 53 a2 f9 3e fc 7e fa be aa a0 8a be 6f 43 bd 3c
       0.48756656 -0.48925006 -0.27075702 0.023103444
000140 66 37 f7 be 64 54 5f bd 3b c2 2d bd 32 a5 af be
       -0.48284453 -0.05452384 -0.04242156 -0.34305722
000150 30 9d 32 3e 24 18 25 3e b9 e2 06 bf 9c 80 50 bd
       0.17442775 0.1612249 -0.526897 -0.0509039
000160 e3 c8 17 bd d2 da f1 3d 57 9d ff bc 5d 3a 3e be
       -0.037056815 0.11809315 -0.031202955 -0.18576951
000170 71 ac d2 be 0f eb 56 3e ab 75 c1 3d 93 0b c1 3e
       -0.41147187 0.20988105 0.094462715 0.37704143
000180 e6 30 97 be 99 4a 94 3d 1d 44 8e 3e 21 33 99 3e
       -0.29529494 0.07240791 0.2778634 0.2992182
000190 4f 41 33 be 95 4a b9 3e 39 99 ba 3e b1 5a 63 3e
       -0.17505382 0.36189714 0.36445025 0.22202565
0001a0 32 00 9b be e4 86 58 3e 96 d2 cf 3e 08 21 1f 3e
       -0.30273587 0.21145207 0.40590352 0.15539944
0001b0 54 ae 8c bc 6b eb cf be 40 2e 87 3e 53 46 8e 3d
       -0.01717297 -0.40609297 0.26402473 0.06947007
0001c0 65 fe 07 be 27 77 d8 3e 94 5e 46 be 7d 62 1b 3e
       -0.13280638 0.42278406 -0.19372016 0.15174289
0001d0 84 a4 e9 bd ab e2 d6 be 7b 15 d7 be 42 7b b5 be
       -0.11408332 -0.4196981 -0.42008576 -0.354456
0001e0 9b a6 c5 3e 0e 67 4c 3d 87 c3 03 3e f9 77 8e 3d
       0.38603672 0.049902968 0.12867557 0.06956477
0001f0 a4 0b 87 be 17 95 0e 3e ea 00 e2 be e6 da 63 bd
       -0.2637607 0.13924061 -0.44141322 -0.05562868
000200 a7 56 32 3e 66 a5 a2 3a 68 8e bb be f3 34 82 be
       0.17415868 0.0012408912 -0.36632085 -0.25431022
000210 74 4e a5 be 3b 01 71 3e 5c 8a 9b 3c 61 07 9d 3e
       -0.32286417 0.23535626 0.018986873 0.30669692
000220 f5 77 02 be 1c e2 34 3e 17 47 b7 be 79 fd ac be
       -0.12741072 0.17664379 -0.35796425 -0.33787134
000230 4c d1 7e bd 81 4e 03 3e 01 90 43 be f4 8d 05 bf
       -0.06221132 0.12822916 -0.19097902 -0.5216973
000240 f3 ab 6c be 5f 28 a7 3e c3 07 5b be e3 36 fb 3e
       -0.23112468 0.32647988 -0.2138968 0.49065313
000250 57 83 00 bf 1e f9 08 bd e1 a6 86 bb 04 76 54 3e
       -0.5020041 -0.0334407 -0.004109249 0.20748144
000260 f1 bd a7 bd 4a 90 65 be 83 46 fc 3d 1f 8c 93 3e
       -0.08190525 -0.22418323 0.123181365 0.2881784
000270 7a 8e 04 3e e5 5e 9d 3d a8 90 99 3e 8f d2 b7 3e
       0.12944975 0.07684115 0.29993176 0.3590283
000280 e7 fb dd 3e 35 8a 59 be 22 78 c8 bb f5 08 20 3e
       0.4335625 -0.21244128 -0.0061178366 0.15628417
000290 8b 06 27 bf 74 6a 67 be ca 6a ac 3c ca 83 48 be
       -0.6524436 -0.22599202 0.021047015 -0.19581524
0002a0 61 be 6d be 77 ae ee be 59 6f f2 bd 53 54 08 3d
       -0.23217155 -0.4661748 -0.11837644 0.033283543
0002b0 38 fc 4b 3c 5e e3 3e be a7 9d 3d be 6a d9 ea bd
       0.01245027 -0.18641421 -0.18517171 -0.1146725
0002c0 27 be 88 bd ac e2 79 3e 57 aa 1e be 6d 87 ca be
       -0.06676894 0.24402875 -0.15494667 -0.39556447
0002d0 3b 76 9e be c6 84 41 be 5b c3 d2 bd a3 fb 5e 3d
       -0.30949578 -0.18898305 -0.10291167 0.0544392
0002e0 83 30 f4 bd 09 09 84 3c 6c f3 ee 3c 85 26 b6 3c
       -0.119233154 0.01611759 0.029168807 0.022235164
0002f0 36 c8 c4 3e 81 23 38 3e 1d 13 b2 be 5c 09 aa be
       0.38434 0.17982294 -0.34780207 -0.33210266
000300 b8 ac b6 be c3 15 02 bf e8 9d 97 3e 44 90 fe be
       -0.3567865 -0.50814456 0.2961266 -0.4971944
000310 4e f8 98 be 96 61 80 3e 67 2d 08 bf 46 58 6e be
       -0.2987694 0.25074452 -0.5319428 -0.23275861
000320 85 9b 30 3b bf 73 e2 3c cc 67 a8 3e 77 81 90 bd
       0.0026948166 0.027643083 0.3289169 -0.070559435
000330 f2 d8 b2 3e 20 4a f8 3d c4 04 bc 3e 81 ec da be
       0.3493114 0.12123513 0.36722386 -0.42758563
000340 f3 08 75 3e a0 bd 01 3e f7 86 6c 3d 61 e6 b1 be
       0.23929195 0.12669992 0.0577459 -0.34746078
000350 c2 f2 3c bf 1f 4a b2 bb 35 25 ae 3e 3c 13 f4 3d
       -0.7380792 -0.005440965 0.34012762 0.11917731
000360 1b 7a 98 be c8 a1 7d 3e 5b 63 98 3e 8c a7 70 be
       -0.2978066 0.24768746 0.29763302 -0.23501414
000370 db 69 b6 3e 87 64 cf 3e 36 b2 95 3d da f6 74 bd
       0.35627636 0.40506384 0.07309382 -0.05980573
000380 19 e2 31 3e 25 83 59 be ea c2 a7 3e 0d b3 cf be
       0.17371406 -0.21241434 0.32765895 -0.40566292
000390 f9 c6 0c bd 76 14 29 bc 89 d8 d5 3e 42 9c 6e be
       -0.034369443 -0.01031982 0.41766766 -0.23301795
0003a0 2a 19 0f bd f9 18 80 be b6 e3 72 bd ab b7 d9 be
       -0.034936108 -0.25019053 -0.059299193 -0.4252294
0003b0 e1 52 d2 be dd 34 ba 3e e8 72 cb 3e e3 ac 5d be
       -0.41078857 0.36368456 0.39736104 -0.21647982
0003c0 36 47 c7 3e 5f e4 ae 3d 66 d7 18 3e c5 d4 bc 3e
       0.38921517 0.08539652 0.14925918 0.3688108
0003d0 15 b2 60 3e 66 80 bc be 5c 5e 9c 3e fd f1 d7 be
       0.21942933 -0.3681671 0.3054074 -0.4217681
0003e0 e8 05 31 bf 20 96 95 3e 0a e5 78 3e c7 5d 83 3e
       -0.6914964 0.292161 0.24306121 0.25657484
0003f0 69 65 fe 3d 66 55 02 3e 01 8a 2a 3e 1c 30 87 3e
       0.12421686 0.1272789 0.16654207 0.26403892

net.0.bias f4 [128]
000000 3e 51 ff 3d d2 9f 5d 3f 78 01 8c bd 80 d6 32 be
       0.124666676 0.8657199 -0.06836218 -0.17464638
000010 49 eb c4 3e b6 64 1c 3e a2 cb a3 be 05 3f 9a 3c
       0.38460758 0.15272793 -0.31991297 0.018828878
000020 f4 5d 6a 3e 27 17 0c 3e 32 e7 bd 3e 8f 87 8a be
       0.22887403 0.13680707 0.3709045 -0.27056548
000030 d6 d5 46 3e 88 d7 9c 3d 12 6d 27 3d e2 04 76 3d
       0.1941751 0.07658297 0.040875502 0.06006325
000040 99 54 29 3e 7a 7b 16 3e 54 69 37 3e 8d 4c fd 3c
       0.16536178 0.1469554 0.17911273 0.030920291
000050 dc f5 08 3f e3 1d 38 be a7 fa f0 3e cd ab dc be
       0.5350015 -0.17980151 0.47066233 -0.43099824
000060 ab 34 d2 be 07 7d 8c be 81 31 cc 3e 3a 27 4f 3d
       -0.41055807 -0.27439138 0.39881518 0.05057452
000070 aa 28 bf be 78 5e 21 be a7 6e 09 be 94 37 0e bc
       -0.37335712 -0.15758693 -0.13421117 -0.008680243
000080 e1 31 56 bd ff dc 1f bf 18 30 05 3e ee 97 8a be
       -0.052293662 -0.6244659 0.13006628 -0.27069038
000090 fc b0 6a be 26 ff cc 3e 07 58 e1 3e 9e 9f 05 be
       -0.22919077 0.40038413 0.44012472 -0.1304917
0000a0 28 01 4c be fa d1 0f bf e1 3f 04 3d 0e 3c 7f be
       -0.19922316 -0.56179774 0.032287482 -0.24925253
0000b0 b2 55 84 3e 12 31 b0 3e 20 62 dc be 58 11 09 be
       0.2584663 0.34412438 -0.43043613 -0.13385522
0000c0 c2 ed 1c 3f 61 04 96 be 63 ce 6d bd 68 08 a8 3c
       0.6130029 -0.29300216 -0.058058154 0.02051182
0000d0 84 f4 ab bd 25 8b 74 be 0a fe 48 3d 6d 82 68 3d
       -0.08396247 -0.23881204 0.049070396 0.05676501
0000e0 80 57 a3 bc 3a 4e f8 bd 47 10 b8 3e 23 41 d8 3e
       -0.019939184 -0.121242955 0.3594992 0.42237195
0000f0 be ed 26 be dd 4c 9c be 36 b7 da bd 31 33 90 be
       -0.16301629 -0.30527392 -0.10679476 -0.28164056
000100 3d 39 4a 3c 09 88 3d 3d 90 4c 82 3e 57 6a d4 bd
       0.012342748 0.04627231 0.25449038 -0.10371845
000110 94 43 af be 4d 46 b6 3e c7 ac 57 3d 42 2e 61 be
       -0.34231246 0.3560051 0.052655008 -0.21990302
000120 c3 52 9e be 6f a6 76 3e 59 d2 48 3e 0f f4 e3 bd
       -0.30922517 0.24086927 0.19611491 -0.11130535
000130 19 e4 8b be 1d a3 c0 be 35 b5 c9 3c 56 72 78 3d
       -0.27322462 -0.37624446 0.024622539 0.060655914
000140 4e 22 d4 3e 72 a0 84 be d1 74 93 be 95 4c 2c 3d
       0.41432422 -0.2590366 -0.2880006 0.04206522
000150 3b b7 5f be 49 8d 74 3d e6 b1 f9 3d d2 52 9e bd
       -0.2184724 0.059705053 0.121921346 -0.077306405
000160 e2 45 b0 bd cd e3 b8 be 2c 8b 42 be 6b 86 c4 3e
       -0.08607079 -0.36111298 -0.18998402 0.38383803
000170 4c 18 f9 3b 4d ef a7 be 61 3e 00 bd 7a ee ce be
       0.0076017734 -0.3279976 -0.03130949 -0.40416318
000180 69 67 33 be f1 0a 9b 3e 4b 21 98 3e 7e f9 44 be
       -0.17519917 0.30281785 0.297129 -0.19235799
000190 3c 8c 1f 3e 4c 4b 6c 3c fe 14 3e be 71 40 a5 be
       0.15580839 0.014422249 -0.18562695 -0.32275727
0001a0 be 95 e2 bc ba b2 7d bc 8d fd bd 3e 1b 49 b9 be
       -0.027659293 -0.015484506 0.37107506 -0.36188588
0001b0 3b 7a 14 3d 8e d1 15 be 47 22 0b 3e 05 8b 9c bd
       0.03624938 -0.1463072 0.13587295 -0.07643703
0001c0 66 b6 fc 3d 2d 0f 23 3d f8 e2 94 be e1 69 28 be
       0.12339477 0.039809395 -0.29079413 -0.1644664
0001d0 f6 1d 09 bd 1a f5 96 3e c8 6c 70 3e 36 2a 99 be
       -0.03347584 0.29483873 0.23478997 -0.29915017
0001e0 fb ea 8c 3e 65 12 a2 be 55 d1 a6 3e 4f a4 46 3d
       0.27523026 -0.3165466 0.32581583 0.04849654
0001f0 dd 37 50 3e 90 33 8c 3e c9 73 d1 3c cf 55 5e bc
       0.2033381 0.2738309 0.025567906 -0.013570263

net.2.weight f4 [128, 128]
000000 5d 31 08 3c 60 1e 1f 3e af 5d 95 3d a7 70 77 3d
       0.00831255 0.15538931 0.07293259 0.060410168
000010 ae 3f 18 39 16 ee 68 bd a8 7d 15 bd 09 b7 da 3c
       0.00014519572 -0.05686768 -0.03649679 0.026698606
000020 2c 29 26 3d d2 1b 04 bd 08 84 c7 3d 22 66 08 bd
       0.04056661 -0.032253094 0.0974198 -0.033300526
000030 bf b7 9c 3d 80 7c 34 bd 10 eb e9 bc 71 c2 37 3c
       0.07652234 -0.044064045 -0.02855447 0.011215792
000040 46 2e 8c bc 9c b8 80 3c 42 82 90 3c de 2f 01 3d
       -0.017111909 0.015713029 0.017640237 0.03153979
000050 38 c4 00 bd eb 8a 74 bd bb db 33 3c 62 1a dc bd
       -0.03143713 -0.059702795 0.010977681 -0.107472196
000060 2d 8f 53 3d 5d 3e 2b bd cc 5c 29 bb 48 96 3d 3e
       0.051650215 -0.04180752 -0.0025842665 0.18514359
000070 c3 b0 8a 3c 26 6d e5 bd 29 2c a5 bd 66 3f 04 bd
       0.01692999 -0.11202459 -0.080650635 -0.032287024
000080 e5 41 e1 3c e8 a4 e7 bc 2b e2 2c bd 87 6b 2f 3e
       0.027497241 -0.028276876 -0.042207878 0.17130862
000090 f6 87 c6 bd 7a a2 79 3d 04 ee 11 3e bf 0e 4b 3c
       -0.09693901 0.060945965 0.14250952 0.012393652
0000a0 e4 9a cf bd 26 24 4a 3d 29 8c a5 bd 2d 90 8d bc
       -0.10136965 0.04935088 -0.08083374 -0.017280662
0000b0 ba 22 07 3c 1b b0 48 3d bd 1c 44 bd 86 bc d4 bc
       0.008248026 0.048996072 -0.04787897 -0.025968801
0000c0 da 91 57 3d 1a d3 30 bd 93 b7 82 bd 0a 35 17 bb
       0.05262933 -0.043170072 -0.0638267 -0.0023072385
0000d0 ce 49 2a 3d 6a e7 20 bd bd f0 5d bd 97 03 46 bd
       0.041574292 -0.039283194 -0.054184664 -0.048343267
0000e0 82 c6 31 bd 53 32 4c bd 34 0e 76 3d c0 94 30 3c
       -0.043402202 -0.04985268 0.06007214 0.010777652
0000f0 a9 e9 79 3d 43 6e 74 bc fc 3b 86 3d d7 33 48 bc
       0.06101385 -0.014918867 0.0655441 -0.012219391
000100 e9 e2 32 3c 2e b1 81 3b 70 10 a0 bb ac 34 c3 3c
       0.010918357 0.003957889 -0.004884772 0.023828827
000110 2c db 9f bc 42 28 bd 3d 97 32 60 3c c4 0c f4 bc
       -0.019513689 0.09236194 0.013683937 -0.029791243
000120 e9 9a 1d bd 40 7b 8d 3c f1 43 17 3e 81 04 a0 3d
       -0.038477812 0.017270684 0.14772011 0.07813359
000130 31 0f 14 ba 0d 1e 20 be fb 01 ec 3c 7d cd 72 bd
       -0.00056480156 -0.15636463 0.028809538 -0.059278
000140 98 40 4b 3d 84 56 92 bc 11 d2 85 bd 31 ca b1 3c
       0.04962215 -0.01786352 -0.065342076 0.021702858
000150 60 55 23 3c 86 af a5 bc d4 f9 84 bc 6f 6c 67 bd
       0.009969085 -0.020225298 -0.016232409 -0.056499895
000160 bc 75 d2 3d 1b 13 b6 bd b1 be 88 3d b5 2b 94 bd
       0.10276362 -0.08890363 0.066769965 -0.07234899
000170 6f f3 7d bd 5a 43 f7 3c 31 13 4a 3c 1e 7f f0 bd
       -0.061999734 0.030183483 0.012333677 -0.11742996
000180 bf cc 23 bd 77 ce 20 3e ac 8f 64 3d 6b 88 d6 3c
       -0.039990183 0.1570376 0.05580108 0.026188096
000190 e2 d2 87 bd e4 66 b1 bc 57 c0 47 3d 9f d6 30 3c
       -0.066320196 -0.021655507 0.048767414 0.010793357
0001a0 90 dc a3 bc 6f fd 19 3d b0 b1 2b 3e fd 67 31 3c
       -0.020002633 0.03759521 0.16767001 0.010828015
0001b0 90 29 30 bd be 07 99 bd 5c 29 da 3b cf aa a2 bc
       -0.043008387 -0.0747218 0.0066577625 -0.019856839
0001c0 39 e1 b4 3b 1d ce 01 3d c5 7b 99 bc 14 cd b6 bc
       0.0055200127 0.031690706 -0.018735776 -0.022314586
0001d0 6f 7d 8a bd 67 30 98 bd 79 c9 03 3e a4 ab 4a 3d
       -0.06762206 -0.07431107 0.12869824 0.049480096
0001e0 41 31 b8 bc 77 ca ae bd ca 93 83 3d 99 d5 92 bc
       -0.022484424 -0.08534711 0.06424673 -0.017924117
0001f0 3a 01 93 3d 32 d9 a5 3d 2a 6c b8 ba f9 84 21 bc
       0.07177968 0.08098067 -0.0014070321 -0.009858363
000200 31 64 42 bc 62 b7 f8 3d a5 25 34 3c 35 5e 48 3d
       -0.011864708 0.121443525 0.010995303 0.048917968
000210 71 07 35 bc d5 f3 25 bd 17 76 5d bd cf 0e 0d ba
       -0.011049137 -0.04051574 -0.054067697 -0.000538093
000220 ed 77 26 3c de 99 8f 3d 82 7c 10 3d ea 18 47 bc
       0.0101604285 0.0701177 0.03527499 -0.012151936
000230 e0 ea 44 bd 30 70 a1 3d 74 10 6c 3d b3 26 31 bd
       -0.048075557 0.07882726 0.05763288 -0.043249797
000240 bc 4b fd bc b8 7d f9 3c ce b1 9c bd c3 68 97 3c
       -0.030919902 0.030455455 -0.07651101 0.018482571
000250 44 8e 00 3d de 55 1d 3d 6f 19 74 3b 5e 07 92 3c
       0.031385675 0.038411967 0.0037246605 0.017825779
000260 33 a3 0c 3d c5 bd 52 3d ff cf 98 3d 69 ea cc bc
       0.034335326 0.05145051 0.07461547 -0.02501412
000270 9c 91 4e 3c ba af 85 bb 9a 6e 0a bd 14 63 35 3c
       0.012607958 -0.004079786 -0.033796884 0.011070985
000280 92 d0 9d 3d fc b1 06 ba 2d 0a 3d bd a4 b3 d1 3c
       0.07705797 -0.0005138216 -0.046152283 0.025598355
000290 66 b5 a1 3c 8d b9 7c bd 88 4f b8 3d d9 3a aa bd
       0.019739818 -0.061700393 0.089995444 -0.083120055
0002a0 d6 2d 33 bb 6c 7a f4 3c 65 4f 90 3d 08 57 f7 bc
       -0.0027340553 0.029843532 0.07046393 -0.030192867
0002b0 1e 9b 83 bd 6a 9a be bc df 43 81 ba 31 24 01 bd
       -0.06426071 -0.02326699 -0.0009862146 -0.031528655
0002c0 fc a7 8c 3d d5 da 5b 3c d5 db ea bb 1c 84 e0 bd
       0.06867978 0.013418873 -0.0071673193 -0.10962698
0002d0 fe d7 86 3d 85 ae b8 bc 76 71 37 3d 5a b2 65 3d
       0.06584166 -0.022544155 0.04478594 0.056078292
0002e0 d3 ca 7e bd 14 5b c6 bd b7 1f ef bc cf 2f b3 3d
       -0.062205147 -0.096853405 -0.029189928 0.08749353
0002f0 44 21 8f 3b c2 cf f8 3c 5d 9e a3 bd 92 ef 0f 3d
       0.0043679792 0.030372504 -0.0798919 0.03514058
000300 95 6f c0 bd 5e 23 99 bd 2f 8a 38 bd 20 3f 6e bd
       -0.093962826 -0.07477449 -0.045053657 -0.05816567
000310 30 6f a9 3d f3 2a 7c 3d f8 63 83 3d 2c 8e 74 3b
       0.082731605 0.061564397 0.06415552 0.0037316186
000320 16 14 b2 bd 9e 02 10 3d 72 4a 89 bd ca 41 4c 3d
       -0.08695237 0.035158746 -0.067036524 0.04986743
000330 ac 8e d2 bd be 19 ad bd d9 f4 25 3d de 0c cd bb
       -0.10281119 -0.084521756 0.040516708 -0.0062576374
000340 42 3d 62 bd 4f e7 93 bd 90 d6 1d 3d 75 ec 65 bd
       -0.0552342 -0.07221853 0.0385347 -0.056133706
000350 07 11 b5 ba cc d1 5f bc f2 79 8a bd ec e9 96 3d
       -0.0013814279 -0.013660859 -0.067615405 0.07368836
000360 12 b6 8b bd 99 34 9e 3d 12 85 86 bd ec 09 43 bd
       -0.068218365 0.07724876 -0.0656835 -0.047616884
000370 43 71 4b 3c ed 3c b7 bd 0b f9 84 3d 42 42 e4 bc
       0.01241714 -0.089471675 0.06492814 -0.027863625
000380 2d 2b ae bd b7 91 e6 3d 9d e0 46 3c d0 00 ad bc
       -0.08504329 0.11258262 0.012138513 -0.021118551
000390 80 7a 1d bc f6 4c 6e 3d 43 eb 66 3d 8e 2c db 3d
       -0.009611726 0.058178864 0.056376707 0.107018575
0003a0 68 1c cf bc 2f 59 54 bd 1c 18 fd bd 16 9b 84 bd
       -0.0252821 -0.051842865 -0.12358114 -0.06474893
0003b0 cc 93 fa bc f5 9f 51 bc db 1b 3c 3d 8e 50 fd 3c
       -0.030588053 -0.012794484 0.045925003 0.0309222
0003c0 db f9 07 bd ae e3 99 bd b2 02 7a 3d 3c 8b 99 3d
       -0.033197265 -0.075141296 0.061037727 0.0749726
0003d0 ee 6f 81 bc 01 a1 8d bd a3 c8 5e bd 5f 37 63 3d
       -0.015800443 -0.06915475 -0.05439056 0.055472728
0003e0 a8 e4 82 3c 82 9e cd 3b 05 6b 74 3d e8 83 a3 bc
       0.015978172 0.006274999 0.059672374 -0.019960359
0003f0 88 a6 aa 3c 0f 2c bd bc 16 e1 ae 3d 27 f0 86 3d
       0.020831361 -0.023092298 0.085390255 0.06588774

net.2.bias f4 [128]
000000 c8 f8 cc 3d 19 5b 91 3d 33 e6 04 3c ff 1a b2 bc
       0.10008389 0.070974536 0.008111524 -0.021741388
000010 6e 85 7a 3d 79 b8 0c 3d af 37 e1 3c e6 10 df bd
       0.061162405 0.034355614 0.027492372 -0.10891895
000020 7a 47 b0 bc 7b bc 15 bf b7 4d f1 3c 13 13 a4 bc
       -0.021518458 -0.58490723 0.029456003 -0.020028627
000030 1d 72 53 3d c8 58 85 bd 7e 61 00 3e c8 ec 39 3d
       0.0516225 -0.06511074 0.1253719 0.045391828
000040 03 7a 12 bd 2c f2 5a bd df 8d d2 3d 74 6c 5d 3d
       -0.03576089 -0.05345361 0.10280966 0.054058507
000050 76 0b 5a bc 31 b6 3e be 52 bd 6e bc 8c a1 c0 bd
       -0.013308397 -0.18624188 -0.014571505 -0.094058126
000060 33 2c b5 bc fa 8b 50 bc d0 3f 82 bc 3a db 67 bc
       -0.022115802 -0.0127286855 -0.015899569 -0.014151389
000070 60 79 b7 3c b6 03 47 bc 81 8a 77 3d 30 b4 4d bc
       0.022396743 -0.012146881 0.060434822 -0.012555167
000080 57 8f db bd 3c 7e b7 3b 76 34 2a bf c3 aa 1d 3e
       -0.10720699 0.005599765 -0.664863 0.15397172
000090 a6 83 2e 3c 7a 45 85 3d c9 72 8b 3d 29 81 67 bd
       0.010651505 0.06507392 0.06809003 -0.05651966
0000a0 1d 71 d7 3b 3a 41 d5 3c 65 e9 74 bd af 06 ba 3b
       0.0065747635 0.026032079 -0.059792895 0.0056770663
0000b0 13 77 2a bd 6a 4b 9f bd bc a1 0c be ea df 2c be
       -0.041617464 -0.07778056 -0.13733572 -0.16882291
0000c0 2b 8b 58 3a 9d be 53 3c c0 3f 15 3d e5 c8 92 bd
       0.0008260484 0.012923864 0.03643775 -0.07167224
0000d0 00 de ce 3c 29 7c 95 bd 30 01 1b bd 63 fc 9b bd
       0.025252342 -0.07299072 -0.03784293 -0.07616498
0000e0 40 51 21 3c 11 a5 25 3e 2b e4 bc bd c6 32 9a bd
       0.009846032 0.16176249 -0.09223207 -0.075292155
0000f0 03 a4 30 3d a7 25 54 bb 5d 35 98 bd 42 6f 4f 3c
       0.043125164 -0.0032371075 -0.07432053 0.012660803
000100 54 50 85 bc e2 33 c4 bd 6d 3e de bd 0d 52 bc bd
       -0.016273655 -0.09580208 -0.108517505 -0.091953374
000110 ac c6 58 3d de 26 7b bd 5c 59 a2 3d dc 79 69 bc
       0.052923843 -0.061316364 0.079272 -0.014250245
000120 7c ec 69 bd 39 1a 91 3d ef 79 4b bc 16 4f 83 bc
       -0.057110295 0.0708508 -0.012419208 -0.016028922
000130 05 2b 1e ba 62 f5 25 3d 2d 70 1d 3d d8 b1 f3 bc
       -0.0006033632 0.04051722 0.038437057 -0.029747888
000140 97 14 97 3d e3 64 cb 3d 67 9c de bc f1 03 20 be
       0.07376974 0.09931352 -0.027174188 -0.15626504
000150 2f 7a 04 3d 47 bc 72 3e 35 de 24 3d 71 54 ab bd
       0.032343086 0.23704635 0.040250976 -0.08365715
000160 4e 1b 9c bd 10 de dc bd e1 76 8e bd ba 1f 33 3d
       -0.076223955 -0.107845426 -0.06956268 0.04373143
000170 82 28 4f 3d b3 e3 7b bd f9 bf aa 3d 0c 02 a3 bd
       0.05057574 -0.061496448 0.08337397 -0.07959375
000180 82 9c cf bd d3 29 3d 3d 8a 53 09 bd 0f b5 b2 3d
       -0.10137273 0.046182465 -0.033526935 0.087259404
000190 44 be df 3d 75 4b 74 3d ee df 87 ba bc 68 c3 3c
       0.10924962 0.059642274 -0.0010366419 0.023853652
0001a0 70 4c a1 3d c4 17 e3 bd 06 40 a5 3d 62 65 7b bd
       0.078759074 -0.11088517 0.08068852 -0.061375983
0001b0 8c a8 60 bc f4 7a cb bc b3 70 9d 3d a2 0e 3b 3d
       -0.01371206 -0.024838902 0.07687511 0.04566825
0001c0 29 2a 78 3d d7 a6 b7 be 6f b6 17 3f 07 55 22 3e
       0.060587082 -0.35869476 0.59262747 0.15852748
0001d0 b9 10 36 bd b1 58 12 be 39 a8 57 bd 37 03 b3 3c
       -0.04444954 -0.14291646 -0.052650664 0.021852119
0001e0 65 8e 74 bd bb db ba bd 8c 3c 7b 3d 91 06 ad 3d
       -0.05970611 -0.091239415 0.06133704 0.08448518
0001f0 15 9e 13 be 63 b9 65 bb 5c b0 90 3d 76 c3 3f bc
       -0.14415772 -0.0035053126 0.07064888 -0.011704316

net.4.weight f4 [128, 128]
000000 6d 2d cf bb 90 cf 48 bc fb 44 91 bd 93 84 69 3d
       -0.006322554 -0.012256518 -0.07093235 0.0570112
000010 ba ca 9b bd 3a 2e e7 bc 4c ff 11 3d 80 47 98 3d
       -0.076070264 -0.028220285 0.03564386 0.074355125
000020 a5 8a 8d 3d 9b 05 cf 3c b3 2d 26 3d 89 24 e3 3c
       0.0691121 0.025271228 0.040570926 0.027727382
000030 23 52 52 3d 40 16 25 3d 6d d0 63 bd 2d b1 88 bd
       0.051347863 0.040304422 -0.055618692 -0.066744186
000040 01 f4 84 3c b1 c1 30 bd 5f 3e 66 3d 88 21 1b bd
       0.016229631 -0.04315347 0.056211825 -0.037873775
000050 76 1f b9 bd 61 cf d9 3d 2f 53 d2 bd 47 88 06 bd
       -0.09039204 0.106352575 -0.10269772 -0.032844808
000060 ea a5 7d 3d cc 65 64 bc ec 5c 85 3d fe 7e 11 3c
       0.061925806 -0.013940286 0.06511864 0.008880375
000070 47 20 31 3d 4d 17 5c 3d df e3 c5 3d d9 55 a1 bc
       0.043243673 0.05373316 0.096626036 -0.019694256
000080 f6 65 d1 3c 36 c1 98 bd 51 b8 56 3e b6 fc a3 bc
       0.025561314 -0.07458727 0.20968749 -0.020017963
000090 5d aa 7a bd 53 5b 22 bc 26 c9 c2 bd 94 d1 89 bd
       -0.061197627 -0.009909469 -0.09511022 -0.06729427
0000a0 83 48 45 3c 87 ed 06 bc 19 ed d8 3c 4d df c1 bd
       0.012041214 -0.008235342 0.026480244 -0.09466419
0000b0 98 9c a1 3d d1 11 31 3d 17 7e fb bc cf 46 6a 3e
       0.07891196 0.04322988 -0.030699773 0.22878574
0000c0 55 ce 99 bd 8a 52 0c 3d a1 a0 9c bd 98 80 bc bd
       -0.07510058 0.034258403 -0.07647825 -0.09204215
0000d0 12 40 b6 bd a9 c1 e8 3c 0c 68 69 bd 32 dc d2 3c
       -0.08898939 0.028412657 -0.056983992 0.025739763
0000e0 e5 e4 9e 3d 1b 99 85 3b 80 db be bd 59 a1 40 3e
       0.07758502 0.0040770895 -0.0931921 0.18811549
0000f0 29 51 a0 3c 19 ca b8 3c 1f 4b c1 bd e4 01 53 3d
       0.01956995 0.022557305 -0.09438156 0.051515475
000100 1d e6 3f 3a f6 40 29 bd 2a e5 40 bd 68 d9 4f 3c
       0.00073203613 -0.041321717 -0.047093548 0.012686111
000110 e2 b9 85 bd c7 42 8e bc 77 a6 47 bb 3d 40 b7 3d
       -0.06529595 -0.017365826 -0.003046421 0.08947799
000120 7b 7c f7 3c 71 81 c7 3d 0f 2f 37 bd c9 a9 ae bd
       0.030210724 0.09741486 -0.044722613 -0.08528478
000130 d0 f0 c9 bd a1 5f ad 3a d9 3f 04 3c 96 da 60 3d
       -0.098603845 0.0013227352 0.008071863 0.05489596
000140 b3 bb 85 3d 74 d7 77 3d b7 fb 85 bc aa e1 48 3d
       0.065299414 0.060508206 -0.016355379 0.049043335
000150 2b 65 4d bd 92 83 9a bc 4f f4 86 3d 83 da ce bd
       -0.05014531 -0.018861566 0.06589567 -0.101002716
000160 ea 5a 18 bd 79 11 dd bc db 84 05 bd d3 fc 64 bd
       -0.037196077 -0.02698587 -0.032597404 -0.055905174
000170 38 7f 62 3d 4c bf 12 3e bd 57 5a bd cd 5d 8d 3b
       0.055297107 0.14330786 -0.05330633 0.0043141604
000180 3c 3e b7 bb 13 f6 38 bd 9f 2d 67 bd 86 0f 9d 3d
       -0.0055921357 -0.04515655 -0.056439992 0.076689765
000190 66 74 f8 bc 25 1f 84 bb f4 1a a4 bd 4c c3 b8 3d
       -0.03032894 -0.004032033 -0.080129534 0.09021625
0001a0 e1 34 99 bd 69 44 0c be b4 c4 3b bc f9 8c 13 bd
       -0.07480789 -0.13697971 -0.011460472 -0.036023114
0001b0 6b 33 2b bc e6 85 06 bc f7 73 c0 bb 5e ce ed bc
       -0.010449271 -0.008210635 -0.005873199 -0.029029068
0001c0 bd 7e 6e bd fc 8f 80 3d 70 ec f2 bd d5 7d 78 3d
       -0.058226336 0.06277463 -0.11861503 0.060666878
0001d0 e3 ff e0 bd f2 e3 33 be 27 3b dc 3d 6c 94 f8 3b
       -0.109863065 -0.17567423 0.1075347 0.0075860526
0001e0 42 f0 b8 bc 90 d1 a5 3d 77 52 9a bd 5b 1a c9 3c
       -0.022575501 0.080966115 -0.0753526 0.0245487
0001f0 b2 ac cb 3d ee 57 da 3b f5 bf 3b 3d f5 a2 40 bd
       0.099450484 0.006663314 0.04583736 -0.047030408
000200 b4 b3 83 3c 76 8a 6d bd e6 94 50 bd 95 80 9b bd
       0.0160769 -0.057993375 -0.05092325 -0.075928845
000210 2f a8 49 bc 95 b0 ab bd b5 d4 0f bd 64 1a 93 3d
       -0.0123081645 -0.0838329 -0.035114963 0.07182768
000220 8c 81 dd bb 1d ff 8d 3d 9d b4 cf 3d 5c 4f 39 bd
       -0.006759828 0.069334246 0.10141871 -0.0452417
000230 c7 81 c1 3c f6 94 30 3d c8 a7 32 bd e5 47 b3 bc
       0.023621453 0.04311081 -0.04361704 -0.021884868
000240 f7 11 7e 3d c2 e1 8d 3b 60 65 b3 3d d7 b2 75 3d
       0.06202885 0.004329891 0.0875957 0.059985008
000250 4a 9e 8e bd 5b 2d a2 bc 50 74 49 3c 8a de c9 3d
       -0.06963785 -0.019797018 0.0122957975 0.09856899
000260 a0 c6 cc bd 37 6c ca 3c 29 7e 57 3d d4 6c 80 bd
       -0.09998822 0.024709804 0.05261055 -0.06270757
000270 66 7c 95 3d cb f6 a9 bd 63 d9 af bd 9f 6c cb 3b
       0.07299118 -0.08299025 -0.08586385 0.006208017
000280 90 6f 09 bd 43 47 a4 3d 7c 15 d8 3d ec d4 7f 3d
       -0.03355366 0.080214046 0.10550973 0.062458917
000290 0e 40 95 3d 8e c8 07 3d db 8c 3a bd d7 18 16 bd
       0.07287608 0.03315025 -0.045544486 -0.036644783
0002a0 3a 96 a6 bb 94 32 84 3d 44 59 ae 3d 83 5d 29 bd
       -0.0050838264 0.064549595 0.0851312 -0.041348945
0002b0 64 4a 46 bc 8d 71 c8 bd a3 c4 38 bc 4d 8b 62 3d
       -0.012102697 -0.09787283 -0.011277351 0.05530863
0002c0 97 9a 0f 3d 6a bb 0b 3d e4 b4 f6 3c 2a 9b 81 bd
       0.035059538 0.03411428 0.030115552 -0.06328423
0002d0 48 f1 77 3d 1a f4 a1 bc 90 f3 8d 3d 60 52 d0 3c
       0.060532838 -0.019769717 0.069312215 0.025429904
0002e0 29 51 da 3c a8 03 bd bc 7c 8e 8e bc 7d 54 d3 3c
       0.026650028 -0.023073032 -0.017401926 0.025797123
0002f0 9b e7 1b bb 60 98 95 bc 0f 65 85 bd c4 a4 2c bd
       -0.002378917 -0.018261135 -0.06513416 -0.04214932
000300 2a 89 80 bd 1b 3f 69 bd ef 40 2a bd 02 47 1e 3c
       -0.06276162 -0.056944948 -0.04156583 0.009660484
000310 a0 0b 4d bc 2c 63 8a 3d ae 8a 5c 3d dd 2e d0 3d
       -0.012514979 0.06757197 0.053843193 0.101651885
000320 90 10 9d bd 3e 70 c6 3b 42 4c 9e bc 62 31 7f bd
       -0.07669175 0.006055861 -0.019323472 -0.062302954
000330 aa 2f 93 3d 89 f1 27 bc c9 ee 6f bd 41 b8 cb bd
       0.071868256 -0.010250458 -0.058577333 -0.09947253
000340 fe 34 83 3d 2f e6 d5 bc be 32 87 bd d4 12 77 bc
       0.06406592 -0.026110737 -0.06601475 -0.015080173
000350 14 cb 4b 3d f8 15 98 bb 2d 4f ae 3d a9 c7 a3 bc
       0.049754217 -0.0046412908 0.08511195 -0.019992666
000360 22 8d 4f 3c 3b 81 e7 bd 84 e0 48 bd 5b 09 81 3c
       0.012667926 -0.11303946 -0.04904224 0.015751531
000370 2c bc 3b bd a4 c5 83 bd 2c f5 17 3d 3b 15 df bc
       -0.04583375 -0.06434181 0.03709905 -0.027231803
000380 08 58 98 3c d5 a0 46 bd b0 c5 52 3d ef 94 0c bd
       0.018596664 -0.048493225 0.05145806 -0.03432172
000390 8a af 8d bd 4a 99 08 bc a2 f1 35 bd 0a bf 39 bc
       -0.06918247 -0.008337328 -0.044419892 -0.011337051
0003a0 3c 5f 88 bc 5e 02 47 3b ac 87 1f 3d e7 d5 15 3d
       -0.016646974 0.0030366401 0.038947746 0.036580946
0003b0 74 d6 cc 3d 6c 36 3b 3d 27 cf d0 3d bc 57 23 bd
       0.10001841 0.045706198 0.10195761 -0.039878592
0003c0 69 01 d1 ba 75 d8 9f bd cd b3 4c bd 06 36 dc bd
       -0.0015945855 -0.07804958 -0.04997616 -0.10752492
0003d0 1e ea ae bc af 5e 61 bd 4c 18 29 bd 97 12 53 3d
       -0.02135187 -0.055021938 -0.041282937 0.0515314
0003e0 be aa 66 bd af 17 08 bd a0 f4 1c 3d 0e 04 52 3d
       -0.056315176 -0.03322571 0.03831923 0.051273398
0003f0 c0 fc fa 3a 34 f2 0f 3b b2 2d cf 3d 74 4b ba bd
       0.0019148812 0.0021964433 0.101161376 -0.09096423

net.4.bias f4 [128]
000000 ce 84 98 bd 43 f9 ef bb d2 b5 3c 3d 0b b5 8a 3d
       -0.074472055 -0.0073234155 0.046071835 0.067728125
000010 40 ce a7 bd 77 39 56 3c 9f 20 e7 bd 64 f0 0f be
       -0.08193636 0.013075224 -0.11285519 -0.14056545
000020 d0 64 51 bd 89 26 a9 3d 54 41 40 bb 90 95 b3 3c
       -0.051121533 0.08259303 -0.0029335814 0.021921903
000030 7f 80 83 3d bb 46 56 bd a8 83 da 3d 5b b9 e3 be
       0.06420993 -0.052313548 0.10669643 -0.44477352
000040 8e 18 8a 3b 48 55 e3 3d 52 7e 89 bd de dc 92 be
       0.004214353 0.111002505 -0.06713547 -0.28684133
000050 56 88 6c bd fe d3 6d 3d 3e 3c a0 3d 31 6e 5f 3d
       -0.057747208 0.0580635 0.0782399 0.054548446
000060 a6 46 db 3b a0 df 04 bd 81 c6 4f 3d a2 77 86 bc
       0.0066917716 -0.032439828 0.050726417 -0.016414467
000070 70 ca f7 bd a5 a0 0b 3d 9b 06 a3 bc ae aa 4a 3e
       -0.12099159 0.03408875 -0.01990061 0.19791672
000080 fc 25 71 bd 4a 91 25 bd 69 e5 80 3d d6 83 74 bc
       -0.058874115 -0.04042176 0.062937565 -0.01492401
000090 9a 73 2b bd 48 49 9d bd 4b 74 2f 3c 44 ed b0 3c
       -0.041858293 -0.07679993 0.010708879 0.021597512
0000a0 8c 92 bf bc 0e f7 d1 3d 60 1f 18 bd 87 d7 0e 3d
       -0.023385309 0.102522 -0.037139297 0.03487351
0000b0 57 3d b1 3d 96 f7 a4 3d 40 73 ab 3b 51 2e 26 be
       0.08654278 0.08055036 0.0052322447 -0.16228606
0000c0 a5 ee 58 3d 7a 8b 42 bd 08 8a 81 3b 17 05 17 3c
       0.052961964 -0.047496296 0.003953222 0.009217522
0000d0 83 40 2c bc ce 7f 01 bd 3e 4e ef 3d 09 c4 11 be
       -0.010513428 -0.031616025 0.116848454 -0.14234938
0000e0 c5 5e db bd fe e8 c1 3c 22 90 57 3c c0 a2 d4 bd
       -0.10711435 0.02367067 0.0131569225 -0.103826046
0000f0 24 85 d6 3b 56 d2 a7 bd 4f a2 01 bd 8a 4a ed bc
       0.0065466333 -0.08194415 -0.03164893 -0.028966207
000100 f6 0b 5a 3a 78 50 e0 3d 5f 82 12 be 07 be 8e 3c
       0.00083178224 0.10952848 -0.14307545 0.017424596
000110 66 d4 83 bb 70 0c a4 bd 8b b1 d3 3d fb f0 5f bd
       -0.0040231226 -0.08010185 0.10336598 -0.054673176
000120 eb 24 96 bc 74 02 a1 bd ad 47 11 b9 ec 7e da 3d
       -0.01832815 -0.07861796 -0.00013854979 0.1066874
000130 bf 14 ce 3d ce 55 04 bd 7c 0d 89 3d e4 6d 53 bd
       0.10062551 -0.032308392 0.06692025 -0.05161847
000140 18 f4 09 3e a9 81 e3 bd b7 23 ca 3d 27 7c 32 3d
       0.1347202 -0.11108715 0.09870093 0.043575432
000150 48 9c d5 3d f8 18 9a 3d 03 7c 94 bd 9e c8 f4 3d
       0.10430199 0.07524294 -0.07250216 0.11952327
000160 81 e3 dc bc 4c 43 40 bc b9 8b c3 3d a1 3b c7 3c
       -0.026963951 -0.011734795 0.09548134 0.024320425
000170 3b 9b dc 3d f0 ce a5 3c 6a a1 09 3d 41 47 8a bd
       0.10771795 0.020240277 0.033601202 -0.06751872
000180 55 6a db 3c fb 1d 55 3d 8d ed 94 3c 72 f5 94 3d
       0.026784102 0.052030545 0.01817968 0.072733775
000190 64 22 c6 bd 26 f3 d5 3c be 5c 45 3d 5e 31 bd 3d
       -0.09674528 0.026116919 0.04818415 0.09237932
0001a0 f5 58 f7 bd bb 18 c5 bd 64 04 80 bd 86 f0 76 3d
       -0.12077514 -0.096238576 -0.062508374 0.060287975
0001b0 c0 5b 95 bd 30 5d 9c bd 0c 39 80 bd 85 e3 22 3e
       -0.072928905 -0.076349616 -0.06260881 0.15907104
0001c0 b7 d6 e3 bd cc c6 13 3d 12 e3 09 3d c8 f4 c1 3c
       -0.11124938 0.03607826 0.033663817 0.023676291
0001d0 51 99 29 38 a3 fa 06 3d 8d 79 c5 3d 7b df 5d 3a
       4.0435527e-05 0.03295387 0.096423246 0.0008463782
0001e0 dc f0 e4 bd 72 75 1a 3d 7a b4 27 bd c7 c2 7f 3c
       -0.11178753 0.03770966 -0.0409436 0.015610403
0001f0 c8 ec d3 bd 82 3c 35 3d 0e f8 32 3d a9 c1 c8 bc
       -0.10347897 0.044247158 0.043693595 -0.024506407

net.6.weight f4 [2, 128]
000000 91 39 fd 3d 6a c4 9a 3d 3d 54 c7 bd e6 4f a8 bc
       0.123644955 0.07556994 -0.09732864 -0.020545911
000010 8f 1b 15 3c 57 d9 9d 3c 6f 7a 0e bd 04 6f a4 be
       0.009100809 0.019268675 -0.03478473 -0.32115948
000020 18 47 98 bb 02 a5 bd bd 26 80 85 bd eb cf fa 3d
       -0.004647147 -0.09259988 -0.06518583 0.122466885
000030 b8 2f bf bd ab 55 60 3e b7 2b 23 be 09 84 bd 3e
       -0.093352735 0.2190768 -0.15934645 0.37014797
000040 e7 b9 d9 bd 47 cf 98 3d b2 98 7f be 7e e7 ac be
       -0.10631161 0.0746141 -0.24960592 -0.33770365
000050 38 c2 ce 3d 27 f9 30 3d ab 4b 71 be b0 fc 9e 3d
       0.10095638 0.04320636 -0.23564021 0.0776304
000060 06 6f bd 3d a2 03 96 3d 0d fb 9e bd 12 bb 75 3b
       0.09249692 0.07324912 -0.07762728 0.0037495536
000070 8a e8 98 3d 83 f8 af 3d f3 57 f5 3b b9 ff 02 be
       0.07466228 0.08592322 0.007487291 -0.12792863
000080 55 31 38 bd c9 e5 c5 3d c5 c2 76 3c 0e 60 24 3e
       -0.04496892 0.09662969 0.015061085 0.16052267
000090 1f 74 1c be 94 08 41 3e 0a 58 9a bd 8f 34 f2 bd
       -0.15278672 0.18850929 -0.07536323 -0.11826431
0000a0 45 7f 98 3d 7a 0c 93 bd 09 70 7d 3d a3 fc ed bd
       0.0744615 -0.07180114 0.061874423 -0.11620452
0000b0 98 74 a8 bd a9 84 05 be 3c 54 ee bc 23 92 8b be
       -0.082253635 -0.13038887 -0.0290929 -0.2725993
0000c0 9d 54 ca bc 9f 49 bb 3d c5 0a ed bd 51 c0 d1 bc
       -0.02469855 0.091449015 -0.1157432 -0.025604399
0000d0 a6 86 81 3d 01 57 35 3d f6 e0 0a 3c 47 35 78 be
       0.0632451 0.044272427 0.008476486 -0.24239074
0000e0 f0 3b 9b be 08 71 cc bd c2 cb 04 be 57 a0 35 bc
       -0.30319166 -0.099824965 -0.12968352 -0.011085591
0000f0 d0 f5 05 3e cf 56 0c bd 38 2c ac bc f2 9e 60 3e
       0.13082051 -0.034262475 -0.021017179 0.21935633
000100 93 09 26 3d 1d e7 9f ba 54 06 7b be aa c3 24 be
       0.040536474 -0.0012199614 -0.24514133 -0.16090265
000110 71 81 27 be 16 f0 07 3e 7a 39 9a 3d 53 18 25 be
       -0.16357972 0.1327518 0.07530494 -0.1612256
000120 70 a5 02 3e 29 df 6b be 3a 68 bb 3d a8 88 19 be
       0.12758422 -0.23034348 0.09150739 -0.14993536
000130 51 3d ef 3d 00 1a 55 3e b3 fb 3c be 99 15 ec 3c
       0.11681617 0.208107 -0.1845539 0.028818892
000140 18 86 57 be ea e3 36 3e a1 44 ca bc 31 6e 01 be
       -0.21047246 0.1786038 -0.024690928 -0.12639691
000150 59 f9 12 3e fe 5b 30 3d 1f 9c db bd 60 20 63 be
       0.14352931 0.04305648 -0.10723137 -0.22180319
000160 b6 0a ec bd 05 e5 af 3c 1f 7e 43 be 1b fb 8f 3d
       -0.115254804 0.02147151 -0.1909108 0.070303164
000170 0f c4 07 be b7 3a 90 bc 87 71 db bd 49 4c 14 3e
       -0.13258384 -0.017606122 -0.10715013 0.14482225
000180 bf 4e f6 ba bc 68 28 3e 2d d1 83 bd e4 17 1d be
       -0.0018791779 0.16446203 -0.064363815 -0.15341145
000190 e7 0a 9a 3d b5 ec 14 bd 58 5f 4c be 75 d3 10 3e
       0.07521611 -0.036358554 -0.19958246 0.14143164
0001a0 49 7a cf 3d 9c 9e 92 bc 48 c4 c2 3d b3 6a c6 bd
       0.10130746 -0.017897896 0.09510094 -0.0968832
0001b0 f3 6d 98 bd 7c 3a a5 3b 1f 46 01 3e 88 27 91 bd
       -0.07442846 0.0050423723 0.12624405 -0.07087618
0001c0 29 7a f1 3c 1f 6c db bd 4d 75 15 be 62 e3 b8 3d
       0.029477196 -0.10713982 -0.14595528 0.09027745
0001d0 b7 6b a7 bd 97 a9 b6 bd a6 87 9a 3d 16 62 19 be
       -0.08174842 -0.089190654 0.07545404 -0.14978823
0001e0 f5 94 88 3d 0b c4 a8 bd db 7e 0e 3e 2c cb 4d be
       0.06669036 -0.08240517 0.13915579 -0.20097035
0001f0 69 e0 a6 bd 55 ab f0 bd 0a 3b 0c 3e 45 16 c0 bd
       -0.081482716 -0.11751429 0.13694397 -0.093792476
000200 95 78 b5 bd fd 10 37 3d 51 fc 26 3d b9 5e a9 bd
       -0.0886089 0.044693936 0.04076797 -0.0827002
000210 60 5e 93 3d 5e 10 cb 3d e3 e7 ba 3d 61 23 07 bd
       0.07195735 0.09915231 0.0912626 -0.032992724
000220 16 e9 5e bd 1c 93 a0 bd a8 58 8f 3d 79 f8 3a 3d
       -0.054421507 -0.07840559 0.06999332 0.04564712
000230 bc 81 8b bd e9 b5 d5 bc 1f 9e 87 bd df 66 91 3c
       -0.06811854 -0.026087718 -0.06621956 0.017749248
000240 63 80 3a bd 52 ee b9 bd 7a 69 b8 3d 3b b8 81 3b
       -0.045532595 -0.09078659 0.09004493 0.0039587296
000250 1e 11 b8 3d e9 ba 45 bd 89 ca f5 bc 94 92 0c bd
       0.0898764 -0.048273955 -0.030003803 -0.034319475
000260 c8 58 5d 3d 6d 82 8d bd ee c8 09 bd 21 a0 92 bd
       0.054039747 -0.06909642 -0.033638887 -0.071594484
000270 ff 97 7f 3d f6 a0 93 3d dc 9f c9 3d 20 ee 90 bc
       0.062400814 0.07208435 0.09844944 -0.017691672
000280 1f 1e 9f bd 64 bb 30 bd 57 37 aa bd 85 6b 41 bd
       -0.07769417 -0.04314746 -0.083113365 -0.04722168
000290 c5 4d 61 3d 60 5d f7 bc 42 c5 93 bd 9a 04 94 3d
       0.055005807 -0.030195892 -0.07215358 0.0722744
0002a0 c4 52 77 3d 6c ed dd bd 87 db be bd 6a ca 9c 3d
       0.060381666 -0.108363 -0.09319215 0.07655795
0002b0 66 16 26 bd 5a 5e 61 3c f6 c7 ce 3d 67 2c 4e 3c
       -0.040548705 0.013755405 0.10096733 0.0125838285
0002c0 ad c0 bb bd 7d 05 89 3d b2 a7 78 3d 30 7c af 3d
       -0.09167609 0.066905 0.0607068 0.08568609
0002d0 ba 24 80 3d 77 1c a4 3d c9 69 54 bd 64 ad 24 3e
       0.06257005 0.08013242 -0.051858697 0.16081768
0002e0 6c 57 b7 3c 3c 54 c4 bd 50 3b 88 bd ce 3d 98 3d
       0.022380553 -0.09586379 -0.06651938 0.07433663
0002f0 49 22 1c 3d 10 07 af 3d f1 a9 ab 3d 66 52 96 bd
       0.038118634 0.08546269 0.08382023 -0.07339935
000300 33 9a 9e 3d 08 c0 c1 bd e7 d2 74 bd 6f fb 33 bd
       0.07744255 -0.09460455 -0.059771445 -0.043940958
000310 b2 3a 12 3d 6f 55 07 be 24 c5 86 bd f2 7b 98 3d
       0.035700507 -0.13216184 -0.0658057 0.07445516
000320 9f 26 e6 3d 40 f0 80 3d f2 a0 c6 3c bb 5a 91 bd
       0.11237835 0.06295824 0.024246667 -0.070973836
000330 be d0 6f bd 4b 4a c3 3b 95 9e 22 bd 69 45 7a 3d
       -0.05854868 0.005959784 -0.039702017 0.06110135
000340 d2 f9 0b bc 6d 6d cf 3c b9 5b 97 bd a7 70 e9 bd
       -0.0085434485 0.025320733 -0.073905416 -0.1139844
000350 73 d2 73 bd 58 8f 81 bd 26 2d 22 3d c4 70 11 3d
       -0.059526872 -0.06326169 0.03959384 0.035507932
000360 3f 54 af 3d a0 6f a9 3d 0e 2e 0e bd 9b 86 cd 3c
       0.085609905 0.08273244 -0.03471189 0.025088599
000370 50 a2 1a bd c9 df 53 3d 7f ae b1 bd 25 cd f8 3c
       -0.03775245 0.05172709 -0.086758606 0.030371258
000380 a6 e0 85 bd cc 75 20 bd 22 33 d0 3c c1 63 a7 3c
       -0.06536989 -0.03917484 0.025415007 0.020433309
000390 51 a7 92 3d 45 43 90 bd a8 b1 64 3d 2b 6a 95 bd
       0.07160819 -0.07044081 0.05583349 -0.072956406
0003a0 a9 06 4e 3d 2a d8 cc 3d 14 bf 22 bd f5 85 c9 3d
       0.05029932 0.100021675 -0.039733008 0.098400034
0003b0 4e aa 0c 3d 23 3d 94 3d 3c 06 5a 3d 13 1a e8 bc
       0.034342103 0.072382234 0.0532286 -0.028332746
0003c0 5c f5 b5 3d 1a 4b c1 bc 5f c3 4a 3d 85 5f 43 3c
       0.08884689 -0.023595382 0.049502727 0.011924629
0003d0 f1 2c 68 bd 6a ea b7 bd b6 4b 37 bd 27 18 9b bc
       -0.056683484 -0.08980258 -0.044749938 -0.018932415
0003e0 87 e7 b5 3c 09 83 5d bd 6e a2 fb 3c fa 94 5b 3d
       0.022205127 -0.054080043 0.030717101 0.053608872
0003f0 32 84 bd 3d 76 ed a8 3d 40 cc 5a bb 10 46 66 bd
       0.0925373 0.08248417 -0.0033385903 -0.05621916

net.6.bias f4 [2]
000000 f1 fa 0a bc 87 12 12 3d
       -0.008482681 0.0356622
