model/Mg3Bi2.pth (torch, 139928 bytes, 8 tensors)

net.0.weight f4 [128, 6]
000000 7b 95 ab 3e a3 1b 53 be c2 d9 31 3e e7 5d cd 3e
       0.33512482 -0.20616011 0.17368224 0.40110704
000010 81 a2 a2 3d cc 46 2a bd e4 3f 8e 3e 01 3f 22 3e
       0.079411514 -0.041571423 0.2778312 0.15844347
000020 95 f2 c4 bd a7 32 67 3e 18 80 39 3e 9f fd 54 3e
       -0.09616581 0.22577916 0.1811527 0.20799874
000030 b9 cf 07 be 0d 68 c4 bd e9 fa 23 3e ab 84 d7 3d
       -0.13262834 -0.095901586 0.16013683 0.10523351
000040 b2 5e d8 bc 2b cc 21 3d 2f b2 0f be f0 03 02 3e
       -0.026412342 0.03950135 -0.14032815 0.12696815
000050 66 94 d3 3c 36 2c d7 be 43 19 f3 3d 5a 8e d9 3d
       0.025827598 -0.42025918 0.11870053 0.106228545
000060 c5 71 b0 be 38 4c 87 be d9 f8 ae 3e e1 db 8f 3d
       -0.344618 -0.26425338 0.3417423 0.070243604
000070 7e 4c b4 be 31 fa a9 3d 30 09 a0 be 7e c0 c2 3e
       -0.3521461 0.08299673 -0.3125701 0.38037485
000080 da 30 6d 3e 78 ec 99 3e 37 48 90 be 3e 49 50 3e
       0.23163167 0.30063224 -0.28180096 0.2034044
000090 5f 78 99 3e 1b e2 c7 bc 4c 88 c2 3e 39 42 8a 3e
       0.29974648 -0.024399808 0.3799461 0.2700365
0000a0 bd c3 0e 3e e6 08 8b 3e f5 ff 3f 3e 60 19 3e 3e
       0.13941856 0.27155226 0.18749984 0.18564367
0000b0 e0 41 48 bf 60 8f 29 3e d8 57 2e be 1e 8e a7 be
       -0.7822552 0.165586 -0.17025697 -0.32725614
0000c0 ff ba 80 3e e4 a4 36 3e 39 a0 c9 bd 39 7d ac 3e
       0.25142667 0.17836338 -0.09845013 0.33689287
0000d0 1c a7 f6 be 76 d1 30 be 04 90 6b 3e 4c e1 2b bd
       -0.4817437 -0.17267403 0.23004156 -0.041962907
0000e0 63 a2 23 3e 62 87 96 3d 85 2e 5d be 3d 6f ce 3e
       0.15979914 0.07350041 -0.21599777 0.40319243
0000f0 0a 10 17 bd e3 4e c5 3e 0f 14 97 be dd 45 49 3e
       -0.03688053 0.38536748 -0.2950749 0.19655557
000100 dc b6 61 be b2 28 83 3e 52 1f 23 be c3 7c d3 be
       -0.22042412 0.25616986 -0.15929917 -0.41306123
000110 74 3d 71 3e 95 92 fa 3e 8f 35 9e be b1 03 41 bd
       0.23558599 0.48939958 -0.30900237 -0.04712266
000120 9b 13 c0 3c e2 b8 4c 3c a5 c5 b8 3d 48 08 82 3e
       0.023446849 0.012495251 0.09022073 0.25396943
000130 a0 37 91 3e b7 a3 11 3e 25 aa 72 3e bb 56 bb be
       0.2836275 0.14222609 0.23697717 -0.36589608
000140 61 e6 9a 3d 05 33 5a bd 43 4e af 3d 49 4b 5f 3e
       0.075634725 -0.053271312 0.08559849 0.21806063
000150 e9 f9 51 3d 55 00 f1 3d bd 23 a0 be d6 de b0 be
       0.051263724 0.117676415 -0.31277266 -0.3454501
000160 d9 cf d2 3e 4d da 5a be 83 d3 60 be fe 45 b2 bc
       0.411742 -0.21372338 -0.21955685 -0.02176189
000170 e3 42 9c be be 0b 03 3c 0d 93 7f 3d b1 87 77 3e
       -0.3051978 0.007998405 0.062396098 0.24172856
000180 22 63 8a bd 63 7a 51 be 55 04 90 be 3c 40 bd be
       -0.06757189 -0.20456843 -0.28128305 -0.3696307
000190 25 70 11 3e 31 31 c5 3d 0e fe 83 bc ab 51 19 3e
       0.14202936 0.09628523 -0.016112354 0.1497256
0001a0 0b af de 3e 9f bb aa 3e ac 1f 8f 3e 0a 09 2d be
       0.43492922 0.3334627 0.2795385 -0.1689798
0001b0 c6 ae 82 3e d7 4d 4e bd 83 d2 c5 3e cf 7d a7 3e
       0.25523967 -0.050367203 0.3863717 0.32713172
0001c0 6c e6 02 3e f8 f9 bf be 03 2e 07 bf 61 d6 a6 be
       0.12783211 -0.374954 -0.52804583 -0.32585433
0001d0 1a b0 9d bd 04 cd 6b be 01 71 80 3e 7e b2 a5 be
       -0.07699604 -0.23027426 0.25086215 -0.3236274
0001e0 e3 d3 49 be 3f 2c 56 be 63 3e 54 bc 71 9b 6e 3e
       -0.19709735 -0.20915316 -0.012954327 0.23301484
0001f0 82 4f 9e 3e 4f c4 9e be ec 12 3e 3e 3d 65 a4 3e
       0.30920035 -0.31009147 0.18561906 0.3210849
000200 51 48 09 bf 8a a5 95 be a5 c0 1a 3e a0 68 ac be
       -0.5362597 -0.2922786 0.1511255 -0.33673573
000210 92 e6 ac be 6d 2e 26 3e ab 0e 0a bd 97 7a 95 3e
       -0.3376966 0.16228648 -0.033705395 0.2919509
000220 6c d0 02 be 6b 6e f2 3d 0f da ad be eb 95 a3 bd
       -0.12774819 0.11837467 -0.33955428 -0.07987579
000230 11 9c 83 3e d1 28 d6 3b 1d 63 a1 3c 80 85 89 3e
       0.25705007 0.0065356274 0.019700581 0.26859665
000240 f0 bf 8c 3e 95 00 d9 3d 0a 3f b2 bd e5 63 9b be
       0.27490187 0.10595814 -0.0870343 -0.3034965
000250 19 9d 54 be 3f 51 a5 3d 2b 12 d2 be a6 f2 93 be
       -0.20763053 0.08072137 -0.41029486 -0.28896064
000260 c8 92 d0 3c a9 0d c7 be 54 4b 24 be 72 c0 9a 3d
       0.025460616 -0.3887761 -0.1604436 0.07556237
000270 bc 4f f5 bd 6a 95 44 3d dc c7 29 3e b7 ba 85 be
       -0.11978099 0.047994055 0.16580147 -0.26119015
000280 71 64 b4 3e 95 48 bd 3e 39 d8 74 be 10 de d5 3d
       0.3523288 0.36969438 -0.23910607 0.10442746
000290 9b 62 61 be fd b8 c9 bd d5 f5 80 3e 65 ba c6 3e
       -0.22010271 -0.09849737 0.25187555 0.38814083
0002a0 1d 8b 16 3e 25 2a 9e bd da 25 4d 3e 3c da ee bd
       0.14701505 -0.07722882 0.2003397 -0.11662719
0002b0 9c 6d bc 3d 1a d2 04 bf 61 f4 bc be e3 8b 85 3e
       0.09200594 -0.5188309 -0.36905196 0.26083288
0002c0 65 4f 98 3d d4 24 88 3e 7a 08 83 3d 3c 75 b2 3d
       0.07437018 0.26590598 0.06398101 0.08713767
0002d0 93 02 c0 3d db 41 b4 be 45 17 ae be 90 a6 3c bd
       0.09375491 -0.35206494 -0.34002128 -0.046057284
0002e0 e3 87 ae bd 0a 90 c0 3e 49 f4 4a 3e 14 17 a3 be
       -0.08522012 0.37609893 0.1981975 -0.31853545
0002f0 ff a0 fa 3c 76 48 16 be fc 3b 9d be b3 1c 79 3e
       0.030594347 -0.14676079 -0.30709827 0.24327354
000300 5f 55 cc 3e 49 1f a0 be 89 ba 05 3e 89 af a4 be
       0.39908883 -0.3127387 0.13059439 -0.32165173
000310 8a c0 84 be 3a d1 25 bd f8 7e 6e 3d c8 f4 af be
       -0.25928146 -0.040482737 0.058226556 -0.3436644
000320 30 db 03 bf 86 7b a4 bd 4d bc 62 3e 1a fe d6 3e
       -0.5150633 -0.08031373 0.22142144 0.4199074
000330 00 01 0a 3e 75 22 0b 3e 66 58 c4 3e 7e ad 96 be
       0.13476944 0.13587363 0.38348693 -0.2942924
000340 3d a9 e4 3c 4f 10 77 3e d9 76 be 3e bf 82 a4 3e
       0.02791273 0.24127315 0.3720005 0.32131
000350 82 40 e6 3d c4 b5 83 be 28 30 74 bd ec a8 c8 3d
       0.11242773 -0.25724614 -0.059616238 0.09797844
000360 a8 23 ea 3d 7d fa 8a 3c 87 05 7f bd 72 a1 54 be
       0.11432582 0.016965145 -0.06226113 -0.20764711
000370 d5 45 b3 3e 76 72 02 3e ea d0 6e 3a 25 f4 94 3e
       0.35014215 0.12738976 0.000911011 0.29092517
000380 5d 85 72 be 2b a5 cd bd 1f e2 88 3e e0 6a a4 be
       -0.23683687 -0.10041269 0.26735017 -0.3211279
000390 73 2c 07 be 00 11 c4 be f0 e0 b8 3e 9b ac ef be
       -0.1320055 -0.3829422 0.36109114 -0.46811375
0003a0 35 8a a8 be 33 f3 70 3e 6b 26 6e be 49 1d d9 be
       -0.32917944 0.23530273 -0.23256843 -0.42405155
0003b0 eb 27 15 3d 32 91 9c be 92 2e 29 3c 3d 9f 95 bd
       0.036415022 -0.30579525 0.010326045 -0.07305763
0003c0 ab b5 80 be 1d 8d 48 3d fa 54 07 bf 77 e0 bc 3e
       -0.25138602 0.0489627 -0.5286404 0.36890003
0003d0 2d 03 72 3e 40 05 af 3e 2a 8b c0 3e cc 7a 15 be
       0.23634024 0.34183693 0.37606174 -0.14597625
0003e0 99 c9 81 3e b2 c8 07 3d a6 5b 4e be 77 86 13 bd
       0.2534912 0.033150382 -0.20152149 -0.036016908
0003f0 03 ea 6a 3e 1b dc 23 3e 55 d2 0e 3c 0c fe 8b 3d
       0.22940831 0.16001932 0.008717139 0.06835565

net.0.bias f4 [128]
000000 a0 3a 30 bd 51 9f aa 3e 44 96 28 be f9 65 fb 3e
       -0.04302466 0.33324674 -0.16463572 0.49101236
000010 95 69 24 3c db f9 74 bd 07 20 ad 3c 47 e8 ec be
       0.010034938 -0.059808593 0.021133436 -0.46270964
000020 69 af d7 3d e0 8d 18 3e 4a 62 61 be 67 a4 a6 3d
       0.10531504 0.14897871 -0.2201015 0.08136826
000030 2e 20 9d 3e c6 fc b2 be a0 57 05 bc 2a 6b 1e be
       0.30688614 -0.34958476 -0.008138567 -0.15470567
000040 46 a8 8c bb 3f e3 04 3e 1a d9 8b 3c c8 56 05 bf
       -0.0042925207 0.12977313 0.017071296 -0.5208554
000050 80 20 4a 3c 9a 09 98 3b 4b 4d 9f 3e 47 b9 ca 3d
       0.01233685 0.0046398165 0.31113657 0.0989862
000060 b6 ff e4 3e 6d 89 e8 be 96 59 bf be 41 dd a9 3e
       0.44726342 -0.45417348 -0.37373036 0.33176616
000070 75 d5 9a be 4b f9 9f 3d a6 9f 84 be 75 aa 29 3e
       -0.3024098 0.07811221 -0.25903052 0.1656893
000080 4a 1e d2 bd 1d 3a 45 be bb 20 dc 3e bc 9c 98 bd
       -0.102596834 -0.1926045 0.4299372 -0.0745177
000090 eb 0c 25 bd 97 4d a0 3e c0 0d fd 3d 61 2b 3d be
       -0.040295523 0.31309196 0.12356138 -0.18473579
0000a0 3c c3 4b 3c c0 9b 6f be 4b a7 83 3e 41 82 19 be
       0.012436684 -0.23399258 0.25713572 -0.14991094
0000b0 8e f2 f1 bd ee a7 8f 3e 5f 0e fc 3e d5 b5 fd bd
       -0.11813842 0.28057808 0.49229714 -0.12388197
0000c0 51 1d 18 3d 13 ac 7d 3e 78 8f 51 be 21 54 d9 be
       0.037137333 0.24772672 -0.20464885 -0.42446998
0000d0 84 15 d8 3e 6d 65 50 be 0a d8 c8 3d 13 ae 86 3c
       0.42203915 -0.20351191 0.09806831 0.016440427
0000e0 2c 82 8e be 18 19 d9 be 07 f8 78 be 3f 5b 0b 3e
       -0.27833688 -0.42401958 -0.24313365 0.13609026
0000f0 a5 d1 8a be 81 5a a2 be 75 26 c2 3e b0 e5 ba 3d
       -0.2711307 -0.31709674 0.37919965 0.09125841
000100 c0 b6 da bd 2b f5 fa be e5 76 92 be 3e 3d 88 3e
       -0.10679388 -0.49015173 -0.28606334 0.26609224
000110 1c c0 8b ba 02 f8 6e 3d f7 76 f4 3e ed fa ee 3e
       -0.0010662111 0.058341987 0.47747013 0.46675816
000120 5d 66 2b be 95 1a a1 3e 41 64 2f 3f 9c 62 88 3e
       -0.16738267 0.31465593 0.6851235 0.26637733
000130 e3 b9 c1 3e 3a 56 1d 3e 40 ca 08 3f c8 b6 a2 be
       0.37837133 0.15364924 0.5343361 -0.31780076
000140 d9 f9 38 be c9 46 38 3e a9 1e 7e 3e 71 60 de 3e
       -0.1806406 0.17995752 0.24816383 0.43432954
000150 ee 3b b4 be 97 c5 f4 be 6a e7 82 be 90 15 0b 3e
       -0.35201973 -0.47807 -0.2556718 0.13582444
000160 6f b8 3f be 35 4e be be 7f 93 ed bd 07 06 c0 3e
       -0.187227 -0.37169042 -0.11600398 0.37504598
000170 de e2 a7 3e 90 5d 71 be 59 66 08 be 43 19 b1 be
       0.32790273 -0.23570848 -0.13320293 -0.34589586
000180 9c 5c d4 bd b4 a5 ec 3e b7 85 1b 3e 28 10 cb bd
       -0.10369226 0.4622017 0.15187727 -0.09915191
000190 2e d3 4c bd 8a 45 15 3f 5a 61 87 bd 21 f8 5e 3d
       -0.050006084 0.58309233 -0.06610365 0.054435853
0001a0 47 21 6b 3e 4a bb 88 3d f5 cf 1a be 0c 96 e7 3e
       0.22961913 0.066763476 -0.15118392 0.45231664
0001b0 e1 02 fe bd 24 15 61 bc b9 79 80 be 75 89 d7 be
       -0.12402893 -0.0137379505 -0.25092867 -0.4209706
0001c0 d2 0d 48 bb 32 8d ab 3e ff 60 7c 3e 5e 33 af 3d
       -0.0030525816 0.3350616 0.24646376 0.085547194
0001d0 de 9c 0c 3e 8e 8e b5 bd 60 ef 97 be f8 d6 3f be
       0.13731715 -0.08865081 -0.29674816 -0.18734348
0001e0 db 73 86 be a0 f2 83 be c3 86 92 be 6b 70 73 3e
       -0.26260266 -0.25771046 -0.2861844 0.23773353
0001f0 55 f3 35 be 4a d5 02 3e 60 66 a3 be ae 25 a0 3e
       -0.17768605 0.12776676 -0.31914043 0.31278747

net.2.weight f4 [128, 128]
000000 ee 50 c8 3b 7c a9 2c bd f6 55 0f bd 08 25 e0 bd
       0.006113163 -0.04215382 -0.034994088 -0.10944563
000010 ef d6 b2 bc 93 0c 8c 3d 8d 88 ab 3d a5 12 f4 bc
       -0.021831004 0.06838336 0.08375654 -0.029794047
000020 7b ec b2 3b 7e 49 3e bc 8f f8 5e bd 90 c7 ac 3d
       0.0054603196 -0.011614202 -0.054436263 0.08436501
000030 6c 85 ec bc 51 23 93 bd 46 28 18 3d 14 58 2b bc
       -0.028872214 -0.071844704 0.037147783 -0.010458011
000040 ac fb e2 3d b8 02 b6 b8 6f a1 18 3c 1a d7 21 3d
       0.11083159 -8.678943e-05 0.0093158325 0.039511777
000050 3d 13 c1 3d 4e a5 d5 3c 86 6f e1 bc 99 b9 1e bd
       0.094274975 0.0260798 -0.027518999 -0.03875122
000060 71 95 d4 bd d3 2e ce 3d 9e 86 3e 3d 14 e4 e4 3c
       -0.10380066 0.10067525 0.0465151 0.027940787
000070 7d 2b 0d 3d 01 ef 80 3d 4d 38 cc 3c ea 00 2a 3c
       0.0344653 0.062955864 0.02492919 0.0103761945
000080 4d da 6a 3d ee b9 90 bd 74 e6 bc bd 1d 0c 3c bd
       0.057337094 -0.07066713 -0.09223643 -0.04590999
000090 eb 56 62 bd 1b 3d 75 bd 3f e3 bc 3d 96 2b 3c 3d
       -0.055258673 -0.059872728 0.09223031 0.045940004
0000a0 a5 48 e7 bc 32 46 78 bc 09 ea 07 3c 86 27 e5 3d
       -0.028232882 -0.015153455 0.008295544 0.11189179
0000b0 ba 5f d6 bc 97 82 27 bc c5 15 6f bd d0 52 75 3d
       -0.026168693 -0.010224006 -0.05837037 0.05989343
0000c0 32 87 44 3c f6 84 ec bc b4 6f 0b 3d d8 9a 26 3d
       0.011995124 -0.028871994 0.034042075 0.040675014
0000d0 97 7f 39 bd ec 2a 42 3d f5 9a 84 bd 39 44 3d bb
       -0.045287695 0.047404215 -0.06474868 -0.0028879775
0000e0 62 a7 27 3e 76 9f 48 bc a2 aa 66 3d 8e 7b 7b bd
       0.16372445 -0.01224505 0.056315072 -0.061397128
0000f0 b1 cf ee 3c 45 ba cc 3c f0 57 8d bd 2f 65 a9 bc
       0.02915177 0.024991164 -0.06901538 -0.02067813
000100 70 2b 90 3d 04 12 c0 bc 54 d2 5e bd 64 00 f3 3b
       0.07039535 -0.02344609 -0.054399803 0.007415818
000110 34 ec 93 bb f6 6d c9 3c 34 4f b4 bd 0b ab 07 bd
       -0.0045142416 0.024588566 -0.08804169 -0.033122104
000120 01 34 66 3d 6f dd a8 3d d7 31 1f bd 43 82 dc 3d
       0.05620194 0.0824536 -0.03886589 0.10767033
000130 b8 e1 40 3c ec ca 64 3c ae b0 78 bd 67 34 0b bd
       0.011772566 0.013964396 -0.06071537 -0.03398552
000140 22 1d d7 bb 81 6f c9 bc d3 f5 b9 bc b7 e7 6c 3d
       -0.006564752 -0.024589302 -0.022700226 0.057838168
000150 95 78 ba bd 7e c3 4d 3e fc f4 96 bc a7 05 cd 3b
       -0.091050304 0.20094106 -0.018427365 0.0062567773
000160 6e b4 99 3c d1 c7 0f 3d 4c ea 47 3c d9 bb cd bd
       0.018762793 0.03510267 0.012201857 -0.10045595
000170 95 80 a8 bd e2 8e a3 bc c7 e6 42 3d db 7d 8a bd
       -0.0822765 -0.019965593 0.047583368 -0.06762286
000180 93 35 e8 bc 02 73 e5 bc d7 29 ac 3d e7 1a 5f 3d
       -0.028345859 -0.028008942 0.08406418 0.054469015
000190 23 5a 6d 3c 3f 6c db 3c 11 86 44 bd 75 cd 24 3d
       0.014486822 0.026785014 -0.04797942 0.040235
0001a0 56 0c b5 bd 3f 2b 93 bd 1f 9d 6f bd c4 06 63 bd
       -0.088402435 -0.07185983 -0.05849945 -0.055426374
0001b0 1b 9c 1e 3d 98 8d bb bd 67 d4 94 ba 95 d2 08 3e
       0.038723093 -0.09157866 -0.0011354805 0.1336158
0001c0 20 1b 12 3e 29 b4 c8 3d 6e 60 c0 3d f9 83 86 3d
       0.1426816 0.09799988 0.093933925 0.065681405
0001d0 6a d1 ad bd a0 6b 65 3d 2f 49 9d 3d 3b 3e ed bd
       -0.08487208 0.056010842 0.07679974 -0.11584135
0001e0 b5 a6 a2 3d ed a5 85 3c ff 1f 3a 3d c2 21 a2 3c
       0.07941953 0.016314471 0.04544067 0.019791488
0001f0 40 b1 ac bd 21 c1 69 bd f2 a8 3a bd 34 6f 14 ba
       -0.08432245 -0.057068948 -0.045571275 -0.00056623225
000200 e9 75 72 3d cd 11 54 bd c0 51 81 bd a4 05 9a bc
       0.05919448 -0.05177479 -0.06314421 -0.018801518
000210 c1 29 09 3d 2a 18 85 bc c4 1e 20 bc b4 81 d8 bc
       0.033487085 -0.016246874 -0.00977296 -0.026429035
000220 00 89 73 bd 6e 70 b8 bd c2 43 49 3c 9c 05 a5 3d
       -0.059456825 -0.09005819 0.012284221 0.080577105
000230 ae 77 86 bd 85 cf 8f 3d c8 97 9d 3c 56 93 10 3d
       -0.06565796 0.07022003 0.019237414 0.03529676
000240 92 bb 52 3d fa ef 67 bc b4 cd 03 bd a1 29 1b 3e
       0.051448412 -0.014156336 -0.032178596 0.15152599
000250 93 e4 39 bd 5e 6d c9 bd e2 5f ac bd c3 d6 74 3c
       -0.045384 -0.09835313 -0.08416726 0.014943781
000260 74 8b d2 bc 3b 43 e4 3d b6 0b aa 3c bf 06 41 3d
       -0.025701262 0.11145636 0.020757537 0.047125574
000270 f4 84 0c bd ca ee ab 3c d9 08 49 3d f1 30 ab bc
       -0.03430648 0.020987887 0.049080703 -0.02089736
000280 d4 75 6d bd 35 65 d6 3c 6b d2 7f bd 51 1c f0 3c
       -0.057973698 0.026171306 -0.06245653 0.029310377
000290 fb 9a c1 bd 7f ca 85 bc 8a 33 e5 3c 45 34 e4 3c
       -0.09453388 -0.01633191 0.027978677 0.027856955
0002a0 02 41 1f bd 31 36 51 3d 13 58 3a 3b 79 96 e5 3d
       -0.038880356 0.05107707 0.0028433844 0.11210341
0002b0 45 73 f9 bc b5 78 5d bd 0d 7c ca bc cb a5 6f bd
       -0.030450473 -0.054070193 -0.024717355 -0.058507722
0002c0 3a 24 23 3c 1b 84 70 bd 52 ae 6a 3a b5 3d 45 3c
       0.009957368 -0.058719736 0.00089523674 0.012038638
0002d0 ac 5a 7c 3b 3e b9 d4 3d ee 1c 9f bd ba 41 d2 3d
       0.0038506193 0.10386895 -0.0776919 0.102664426
0002e0 c4 94 29 3e e6 a7 be 3d a9 23 d6 3d 4f db 18 3c
       0.16560656 0.09309368 0.104560204 0.009329631
0002f0 20 7a c1 3d b9 14 0f 3d 3d 2e 7c bd 33 b2 cc 3c
       0.094471216 0.034931872 -0.061567534 0.024987316
000300 82 dc 43 3d 70 ff 93 3c b2 7d 9e 3d 05 7f 19 3d
       0.047817715 0.018066138 0.07738818 0.03747465
000310 32 82 8d bc 95 9a 3d 3d 72 f9 56 3c a6 00 d2 bc
       -0.017273996 0.04629 0.013120996 -0.025635075
000320 f0 a1 2a bd 3f 33 d2 3c c8 39 e9 bd 72 e5 25 bd
       -0.041658342 0.025659202 -0.11387974 -0.04050202
000330 e2 d7 05 3d 8a fb ab 3b 3a ab 27 bc b6 89 81 bc
       0.032676585 0.0052484917 -0.010233695 -0.015812736
000340 37 3b 4c 3d 34 98 9f bc 71 a7 12 3d a7 4b 3c 3d
       0.04986116 -0.019481756 0.035804216 0.045970585
000350 31 50 a1 3d 45 15 ed 3d ca e2 44 bd a4 bd 9b bd
       0.078766234 0.115763225 -0.048067845 -0.076045305
000360 fd 0a 04 3d 30 5c 86 3d 29 2f 83 bc 9f 05 8e bd
       0.03223704 0.06560552 -0.016013699 -0.06934666
000370 05 2f a4 bd 6c b6 a5 3c 85 18 73 bd 17 51 e5 bc
       -0.08016781 0.020228587 -0.059349556 -0.027992768
000380 5c cc 7f 3a 4b 05 42 bd 61 4a 00 bd 5e 6b c0 3c
       0.000975793 -0.04736833 -0.031320933 0.023488697
000390 0b 93 86 bd f8 cb d9 bd 29 1b 1e 3d 48 c4 a5 3d
       -0.06571015 -0.10634607 0.03860012 0.08094078
0003a0 9a bb a5 bd 2e 76 0d 3d f7 23 9e 3d 42 f0 4b 3d
       -0.08092423 0.034536533 0.077217035 0.049789675
0003b0 4c e4 86 3d 38 a4 18 bc 18 a3 81 3c 59 d4 93 3d
       0.06586513 -0.009316497 0.01582484 0.072182365
0003c0 0f 29 bc 3d ea 65 50 bc 7c 52 5b 3c d8 f9 c3 3d
       0.09187519 -0.012719611 0.013386365 0.09569138
0003d0 61 63 9f bd 9b 2d b0 bd 9f aa fd bc 9e d2 50 bc
       -0.07782627 -0.086024486 -0.030965148 -0.012745528
0003e0 72 35 92 3d 50 8d cb bc d2 f4 68 3d e3 0e 8e 3d
       0.071391 -0.024847656 0.056874104 0.06936433
0003f0 d0 98 ec bc ce fd 9a bd bc 10 d6 3d d3 03 06 3d
       -0.02888146 -0.07567941 0.104524106 0.03271849

net.2.bias f4 [128]
000000 30 5a 8a 3b d4 e1 cb bd a3 d5 b1 3d 31 68 60 bd
       0.004222177 -0.09955183 0.08683326 -0.054786865
000010 0e 70 5b 3c ba 20 a9 bc 2d 52 a1 ba 18 3f 94 3c
       0.013393415 -0.020645488 -0.0012307815 0.018096492
000020 e2 89 a3 be ac 67 0e 3d 6f 16 20 3c 1c 3f 9e bd
       -0.31941134 0.034766838 0.009770974 -0.07726881
000030 cb 6c d9 3d b0 75 57 bd 52 f5 0c 3e 07 7e 9b 3c
       0.10616454 -0.05260247 0.13765457 0.018980993
000040 a3 77 db bb 0c 3d 98 3d 85 06 2b 3c 53 a4 76 3d
       -0.0066976114 0.07433519 0.010438566 0.060215306
000050 4a 78 8e 3b e8 24 bf 3d 4d d7 6c 3d 14 a8 20 bd
       0.0043478357 0.09333211 0.057822514 -0.03922279
000060 34 bc 8f 3c 8e 2b ef 3c 2b b2 ed bb c1 ea 05 be
       0.017545797 0.029195573 -0.0072539053 -0.13077833
000070 5b b1 34 3d f8 70 9d bd fa b8 00 3e 18 77 48 bd
       0.04411445 -0.07687563 0.12570563 -0.0489417
000080 b1 49 d2 bb e7 88 1d bc 9d 2c 1d bd 99 a7 8e bd
       -0.006417476 -0.00961516 -0.038372625 -0.069655605
000090 b5 eb 30 bd 87 82 47 be a9 96 e5 bc bd 7b 71 3d
       -0.043193538 -0.19483386 -0.028025942 0.058955897
0000a0 65 02 8b 3d 71 60 63 3d 12 9c 9c bd 37 77 3e bd
       0.06787566 0.055511896 -0.076469555 -0.04650041
0000b0 94 19 a9 bd 88 45 7a 3d 0f 9f 01 3e 39 6f 53 3d
       -0.08256832 0.061101466 0.12658332 0.051619742
0000c0 00 b1 b3 3b 48 a7 d5 3d 89 5e 0e 3e 35 c8 92 bc
       0.0054837465 0.10432297 0.1390325 -0.017917732
0000d0 0e e4 8d 3d 56 6c 64 3d 76 c1 a7 3c b0 7c 0d 3e
       0.069282636 0.05576738 0.020477992 0.13817096
0000e0 a4 59 bb 3d d1 61 98 bd 30 f8 63 3d f8 e5 21 bd
       0.09147957 -0.07440532 0.055656612 -0.039525956
0000f0 60 36 b7 3d 4f 84 a9 3d 93 f4 9d bd f6 22 15 3d
       0.08945918 0.08277189 -0.077126645 0.036410294
000100 a3 da 6c be 6f 3d 7c ba f0 62 f3 3b fc db a9 3d
       -0.23130278 -0.00096221914 0.0074275658 0.08293912
000110 71 33 c3 3c 2e 9c 87 3c 4e ad 71 bc c7 76 81 bc
       0.02382824 0.016553964 -0.014750792 -0.015803708
000120 75 81 26 bc 15 48 15 be 40 c0 69 bd df 47 f8 bd
       -0.010162701 -0.14578278 -0.05706811 -0.12123083
000130 02 e2 fc 3b 3c f5 21 3d 47 28 16 3e 90 ed 09 bb
       0.007717372 0.039540514 0.14663802 -0.002104614
000140 a8 ad b4 3d 02 a7 07 3e 88 e3 0e be 22 46 f8 3c
       0.08822185 0.13247302 -0.13953984 0.03030688
000150 a1 51 b5 3d 02 b0 cd 3d fb a2 f2 3b 70 2a 87 3d
       0.0885346 0.100433365 0.0074046827 0.06599891
000160 79 ec 88 bd 30 14 9a 3c ec 1f 07 be 41 2e ca 3b
       -0.066857286 0.018808454 -0.13195771 0.0061700647
000170 70 5e a9 bd a4 00 41 bc 80 91 1c 3d c4 3c 77 3d
       -0.08269966 -0.011779938 0.038224697 0.060360685
000180 49 08 3c 3b b6 30 84 3c 77 01 a6 3d 5d 52 d7 bc
       0.0028691462 0.016136508 0.08105748 -0.026284391
000190 70 24 0f 3d bc 63 1c be 11 bc d5 3d 00 f8 56 bc
       0.03494686 -0.1527242 0.104362614 -0.013120651
0001a0 c6 d3 8d 3d 80 a8 60 bd 01 f0 a1 bd 37 d7 be 3d
       0.06925158 -0.054848194 -0.07907105 0.09318393
0001b0 cd bb 1e 3d 1c 16 90 3c 59 bd 47 be 08 a0 8b 3c
       0.03875332 0.017588668 -0.19505824 0.017044082
0001c0 3d b7 24 bd 8f 73 9a 3d 07 fc 92 3c 63 b3 bf bd
       -0.040213812 0.07541572 0.017942442 -0.09360387
0001d0 b9 3a 14 bd 42 17 89 bd 32 1d 70 bd 3b 04 04 be
       -0.036188815 -0.06693889 -0.058621593 -0.12892239
0001e0 15 80 01 be 6d 49 22 3c 44 b0 10 3d 5f 3d 66 bb
       -0.12646516 0.009905201 0.03532435 -0.0035131795
0001f0 9e 5d 47 3d c9 68 13 3c 48 c6 e7 3d d1 b5 b1 be
       0.048673265 0.008997151 0.11317116 -0.34709027

net.4.weight f4 [128, 128]
000000 bc b2 9f 3d 54 02 75 3d 30 38 58 bb 91 45 c7 3c
       0.07797763 0.059816673 -0.0032992475 0.024325164
000010 01 10 1c bc 05 ba 9b 3d 00 95 5b 3d 03 c3 98 bd
       -0.0095253 0.0760384 0.053608894 -0.074590705
000020 bb 57 87 bc fa fc e4 3c c6 6e 96 3d 0a 9a 7c bd
       -0.016521325 0.02795266 0.07345347 -0.06167034
000030 db 97 b2 3d b5 a7 8c 3d 54 80 ac 3d 04 c5 bb bc
       0.087203704 0.06867925 0.08422914 -0.022921093
000040 0f 17 3b 3c 5f 06 b1 3d 92 d3 38 bb e6 eb 95 bd
       0.011419072 0.08643793 -0.0028202278 -0.07320385
000050 23 7e c4 bd fa a2 80 3d d4 70 a7 3d 74 93 27 bd
       -0.09594371 0.06281085 0.08175817 -0.040912107
000060 cb 86 66 bd d0 3c 04 bd da 12 5d 3d 81 8e 8e 3d
       -0.056280892 -0.032284558 0.053973056 0.06960774
000070 c4 f8 af bd 81 8c 83 bd a5 02 8e bd 88 d0 ef 3b
       -0.0859237 -0.06423283 -0.06934098 0.00731856
000080 02 7d 15 bd b4 18 80 3d 12 80 3b bd 29 88 8b 3d
       -0.03649617 0.06254712 -0.045776434 0.0681308
000090 50 69 59 bd 4b 2f d6 3d b3 3f a3 bd 83 a6 8b 3d
       -0.05307895 0.10458239 -0.07971134 0.06818869
0000a0 d4 5e ae bd 15 6b 09 3d d8 ee 86 bd e9 e8 12 3d
       -0.08514181 0.033549387 -0.065885246 0.03586665
0000b0 31 bf 4c 3d 23 91 1b bc e8 d3 d3 3b fb 05 81 3d
       0.04998702 -0.0094950525 0.00646447 0.06299969
0000c0 a8 5e 2e bd d6 51 26 bd 31 8f b7 3c 4a 41 04 bd
       -0.04257074 -0.04060539 0.022407146 -0.032288827
0000d0 1d 20 48 bd e2 65 9e bd d9 35 ef bc 9d a4 ba bd
       -0.04885875 -0.07734276 -0.029200481 -0.09113429
0000e0 93 cb 3e 3d 27 e2 9f 3d 28 ed 30 bb e0 ae 24 bd
       0.046580862 0.07806807 -0.0026996825 -0.040205836
0000f0 81 de 8f 3d 1c 91 18 3d 23 fa a5 3c 72 42 18 3d
       0.07024861 0.037247762 0.020260876 0.037172742
000100 5d cc 68 bd 69 be 9e 3c a0 94 78 bc 52 22 79 3d
       -0.05683552 0.019377904 -0.015172154 0.060823746
000110 c9 c9 71 bd 13 cf 8b 3d d8 2c 4a bd 39 0a 72 3d
       -0.059030328 0.06826606 -0.049359173 0.05909178
000120 49 90 b0 bc a4 4a bf 3b eb 06 e4 bd f9 9d 16 bd
       -0.021553176 0.0058377553 -0.11134132 -0.03677175
000130 dd 32 38 3b 31 0a 21 3d 51 b5 26 bc d0 de 2c bd
       0.0028106489 0.03931636 -0.010175065 -0.042204678
000140 22 57 36 bd cf 6e 5c bc 48 1b f9 3c 23 48 9e 3d
       -0.04451669 -0.013454153 0.030408517 0.07728603
000150 8a 41 b1 3d 09 8d 18 3d 04 70 18 bd 1b db 16 3d
       0.08655079 0.037243877 -0.0372162 0.03683005
000160 bc 76 b9 3d 53 fc 98 bd 00 f0 d2 bd dd ff 74 bc
       0.0905585 -0.07470002 -0.102996826 -0.014953581
000170 b3 4a 8c bd 34 3d 9b 3c a0 37 b6 bd 19 97 23 bd
       -0.06850185 0.018950082 -0.088973284 -0.03993902
000180 13 a5 36 3d 63 3c 4e bc 11 bf cb bc 21 b0 2f bd
       0.04459102 -0.0125876395 -0.024871381 -0.04289258
000190 3f e6 33 3c 89 14 ba bb da 69 fb bc dd a2 54 3d
       0.010980188 -0.0056787175 -0.030690122 0.05191313
0001a0 dc fd 8b 3d e1 88 ec bb 45 35 e0 bd 80 6f 27 3c
       0.06835529 -0.0072184657 -0.1094766 0.010219455
0001b0 e5 c6 05 bd f2 ee df bd 1f 4f 35 bd e7 19 7d bd
       -0.032660384 -0.10934247 -0.04426491 -0.06179228
0001c0 3b 14 3a 3d 94 67 67 bd 54 10 05 3d a3 c1 a2 3d
       0.04542945 -0.056495264 0.032486275 0.079470895
0001d0 2d f8 9e 3d 6c c1 3f 3c 72 fd 9b bd 58 91 61 3d
       0.077621795 0.01170383 -0.076167 0.05507025
0001e0 cc fb c2 bd cb 8d b5 bd fd 91 45 3b 42 88 bf 3d
       -0.09520683 -0.088649355 0.003014683 0.09352161
0001f0 10 82 e2 bc 18 13 d2 bd e5 7c 11 bd b1 b6 d0 3d
       -0.02764991 -0.10257548 -0.0355195 0.101910956
000200 47 ba ca bc fa c6 c1 bd a0 0f 7f bd 16 1a b7 3d
       -0.024747027 -0.0946178 -0.06227076 0.089405224
000210 bb 27 cf 3d 73 b4 ea bd 97 19 90 bd b6 13 d2 3d
       0.10115 -0.11460199 -0.07036131 0.10257666
000220 19 28 b7 3c f0 46 97 bd 1e 2a dd 3d 4c 5b 19 3d
       0.022357987 -0.07386577 0.10799049 0.037440583
000230 2c 7d 00 bd 78 5b 00 3d e7 de bf bd b4 53 76 3d
       -0.031369373 0.03133723 -0.09368687 0.06013842
000240 f4 89 fb 3c bb 94 c7 bd c9 4b a0 bd 2e 42 91 bd
       0.03070543 -0.09745165 -0.07826955 -0.07092701
000250 69 d5 ce 3d d9 46 14 bd d3 98 3a bd 46 cd 12 3c
       0.100992985 -0.036200378 -0.0455559 0.008960074
000260 34 ff 19 3c c2 c0 5b 3d f7 f9 89 bd 8e b8 09 3c
       0.009399224 0.053650625 -0.0673713 0.008405818
000270 a0 27 4e bd 7c c1 c0 bb 86 64 80 3d 62 4a 40 bd
       -0.050330758 -0.00588244 0.06269173 -0.046945937
000280 b1 8e be 39 a5 38 1a bd cb da a5 3d 66 6e b9 3d
       0.00036345937 -0.037651677 0.08098372 0.0905426
000290 51 a0 8e ba 33 84 59 bd 22 7f 5d bd 94 d2 bd bd
       -0.0010881518 -0.05310459 -0.05407632 -0.0926868
0002a0 d8 65 1c 3d b6 6c 36 3d 08 8b 81 bd ff d9 a9 3d
       0.038183063 0.04453727 -0.06325346 0.082935326
0002b0 73 28 70 bd da da 9c bb a7 e0 e5 3a 3d 11 d7 3d
       -0.058632325 -0.0047868313 0.0017538265 0.10501335
0002c0 d2 8c 11 3b 83 07 fb bc 47 82 41 3c ca d8 32 bd
       0.002220918 -0.03064323 0.011810846 -0.043663777
0002d0 2a 38 9b 3d e9 e0 12 bd 81 a0 1a 3d 36 b4 4d 3c
       0.07579072 -0.035859022 0.037750725 0.012555173
0002e0 2c 3e b7 bd 1a 57 19 ba 0a 30 51 bd a8 3d bf bc
       -0.08947405 -0.0005849466 -0.051071204 -0.02334483
0002f0 db 76 29 bd 6d 2b c0 bc 78 44 c9 bc 77 2b 1f bd
       -0.041373115 -0.023458207 -0.024568781 -0.03885981
000300 88 ef 87 bc ae 2f c7 bc 24 38 c7 3d 26 93 b5 bc
       -0.01659371 -0.024314728 0.09727505 -0.022164892
000310 c7 c0 35 3b d1 19 9f bb 4d d9 60 bc a7 33 18 3d
       0.0027733312 -0.0048553725 -0.013723684 0.037158635
000320 53 28 3d bd e1 93 60 3e eb 94 4e bd a5 7c 04 bc
       -0.046181034 0.21931411 -0.050434988 -0.008086358
000330 7d 84 3e bd f7 74 98 3d 98 30 55 3d d5 87 b1 3c
       -0.04651307 0.07444184 0.052048296 0.021671215
000340 22 f8 8f bd 9c 50 37 bd bd 68 cc bd e9 27 1a 3c
       -0.070297495 -0.04475461 -0.09980915 0.009408929
000350 26 c6 25 bd 98 7f 68 3d 0e 79 29 bd a9 42 84 bd
       -0.040472172 0.056762308 -0.041375212 -0.06458027
000360 aa 3e 48 3d 11 58 e9 bc 36 72 49 bd 87 51 69 bd
       0.048887886 -0.028484376 -0.049181186 -0.056962516
000370 70 b9 30 3c 58 8d 99 3d 8c b4 c9 3d dc 2f 4e 3c
       0.010786399 0.07497662 0.0984889 0.012584653
000380 b8 f5 a8 3c da 91 83 bc b2 f2 70 bc 89 5b d9 bc
       0.02062498 -0.016060758 -0.014706301 -0.026532905
000390 97 f8 ad bd bb 98 5b bd 09 10 9f 3d 68 8d 9a bd
       -0.084946804 -0.053612452 0.0776673 -0.07546502
0003a0 d3 72 97 3d b6 4e d9 3d a6 bb b0 bd 80 6d 84 3d
       0.07394948 0.10610716 -0.08629541 0.06466198
0003b0 af 18 80 3d 28 65 e8 3d 3e 10 38 bd 76 14 dd bd
       0.06254708 0.11347419 -0.044937365 -0.10794918
0003c0 db 25 3e bd d6 00 7d 3c 3d 9a d8 3c 86 d5 b0 bd
       -0.04642282 0.015442094 0.026440734 -0.08634476
0003d0 30 a2 32 bd fa 29 71 3d 24 32 4a bd 1b df 7e 3d
       -0.043611705 0.058877923 -0.049364224 0.06222449
0003e0 12 33 6e 3d f0 02 9f 3d 25 0e 59 bc 3b 80 ea bc
       0.058154173 0.07764232 -0.013248001 -0.028625598
0003f0 50 66 26 3b 8a f8 b7 3d 65 1c 42 bd f5 12 25 3e
       0.0025390573 0.08982952 -0.04739036 0.16120513

net.4.bias f4 [128]
000000 82 05 3e bd 31 e9 57 3d 69 dd f5 3c 2f 91 1e 3c
       -0.04639197 0.052712623 0.030012803 0.009678169
000010 3d 41 b4 3b 82 6c 3e 3b 52 90 97 3c df 6e c3 3c
       0.005500941 0.0029056375 0.018501434 0.023856578
000020 fa ab ed bb ef 6b 73 bc 6f fa 4e 3c 46 91 b5 3a
       -0.007253167 -0.014857276 0.01263295 0.0013852499
000030 b3 d9 6b bd 16 fe da 3d c4 85 12 be 66 8c 11 bd
       -0.05758066 0.10692994 -0.1430884 -0.035534285
000040 39 42 89 3c ad 95 75 3d 0a 4b 5c 3c 9d 87 19 bd
       0.01675521 0.059957195 0.013445625 -0.037482847
000050 bb 20 84 bd 85 53 68 3c 38 89 a1 3d 6e de 6e bd
       -0.06451555 0.014180069 0.078875005 -0.058317594
000060 8d c0 27 3d 19 52 99 bd db 1a 72 3d 72 7b 9c bd
       0.040955115 -0.07486362 0.059107643 -0.07640733
000070 cd 51 07 be 1e f2 af bd ee cc 5d 3c 3f e9 14 3d
       -0.13214798 -0.08591102 0.013537629 0.036355253
000080 e5 07 92 3d b1 25 80 3d 18 a4 6c 3d 8d 68 8a bc
       0.07130412 0.06257189 0.05777368 -0.016895557
000090 41 b2 a4 bd bc 16 7b 3d 80 09 7e bc 2c da 86 3d
       -0.08041812 0.061300978 -0.015505195 0.06584582
0000a0 7f 9e d5 3b 76 d5 a8 bd c6 98 f4 3c 15 3f 78 bd
       0.0065191383 -0.082438394 0.029858004 -0.060607035
0000b0 f0 63 90 3c df d9 60 3d 3a c1 28 3d 8b 76 6f 3d
       0.017625779 0.054895278 0.0411999 0.05846266
0000c0 a1 60 93 ba da ee 3a 3c 9f 06 8c bc 46 d4 6e bd
       -0.0011244008 0.011409486 -0.017093001 -0.05830791
0000d0 c9 d9 b3 3c 43 a2 b6 bd 75 5a 65 3d 61 b2 ea bd
       0.021954434 -0.08917668 0.05599447 -0.11459804
0000e0 98 35 ab 3d 16 b6 e6 3c 1f f3 45 3d f3 33 3d 3d
       0.083598316 0.028162997 0.04832756 0.04619212
0000f0 40 37 d3 3d 91 02 bb 3d ff 83 e9 3a c5 d0 d9 bd
       0.103132725 0.09131349 0.0017815827 -0.10635523
000100 26 20 97 bd 5f 7f 02 bd 51 b7 88 bd 34 8f 7a 3c
       -0.07379179 -0.03185975 -0.0667559 0.015292931
000110 9a ea 02 bd c8 8b c2 3d 14 ab 5e 3d 8b 55 7d bd
       -0.031962015 0.094993174 0.05436237 -0.06184916
000120 18 1f b2 be 53 ef 36 bc f6 bc 2a bd 5b 3b c4 3d
       -0.34789348 -0.011165458 -0.041684113 0.09581634
000130 0a 38 4f 3c ec c1 ad bd f2 cb f8 bc 6c 04 7b 3d
       0.012647638 -0.08484253 -0.030370686 0.061283514
000140 aa 28 8d bd 32 93 b8 bb f1 0f f5 bb 75 83 a8 b9
       -0.06892522 -0.0056327814 -0.007478707 -0.000321414
000150 4c fc 4b 3d cc a3 56 3d 92 1a 43 bd e1 dc bb bc
       0.049801156 0.052402303 -0.04763276 -0.022932472
000160 84 fa b7 3b dc 4b e2 bc 8f 36 56 3d c1 0d 8a 3d
       0.0056145806 -0.027624063 0.052298125 0.067409046
000170 cc 15 29 39 96 ec 2a 3c 33 32 98 bd 1c 0a 53 3d
       0.00016125216 0.010432383 -0.0743145 0.051523313
000180 00 43 19 bd 0e 70 43 3d 7e 2d 2c 3d 2b ca 64 bd
       -0.03741741 0.047714286 0.042035572 -0.055856865
000190 71 56 22 bd a9 b0 80 bd 63 a6 68 bd eb fe 87 3d
       -0.03963322 -0.06283695 -0.056799304 0.066404186
0001a0 05 61 8f 3d 7c 7c 38 3d 71 55 ab bc 8e af ec be
       0.07000927 0.045040593 -0.020914765 -0.46227688
0001b0 93 c9 aa 3d 6e 81 e5 3c cf b4 70 bd 83 eb ab 3d
       0.083392285 0.028015818 -0.058766183 0.0839453
0001c0 4d 62 8b bd 49 86 89 bd 2d 59 5d bc 76 02 57 bd
       -0.06805859 -0.06715066 -0.013510031 -0.05249258
0001d0 f7 68 96 3d 7f 41 bb 3c 54 51 e3 bb 5f e7 5b bc
       0.07344239 0.02285838 -0.0069371853 -0.013421862
0001e0 2c b7 b1 3c 11 63 9d bc 46 a3 86 bd 1d 1e 00 bd
       0.021693788 -0.019212278 -0.06574111 -0.03127872
0001f0 f7 f8 2f bb cc 90 ae bb 1b d9 6d 3d 9d 07 ab bd
       -0.0026851275 -0.0053273197 0.058068376 -0.083510615

net.6.weight f4 [2, 128]
000000 7f 5f 9e bd 6a 19 95 bc 1a 22 42 be 24 9a cc 3d
       -0.07733058 -0.018200595 -0.18958321 0.099903375
000010 8d 78 0b 3e 75 87 0c 3e 8e 58 87 bd c3 ca 93 bd
       0.13620205 0.13723548 -0.06608687 -0.07216408
000020 a8 d2 df 3d c9 a1 6d 3d ca c5 88 3d 54 6b 19 3e
       0.10928851 0.05801562 0.0667835 0.14982349
000030 c4 bc 90 3d dc 00 0a be f2 59 5d 3e 65 d4 4a be
       0.07067254 -0.1347689 0.21616343 -0.19807585
000040 32 f5 bf 3d 92 10 01 be f4 6e 37 3e 45 b5 a2 3d
       0.09372939 -0.12603977 0.17913419 0.07944731
000050 59 73 dd 3c 8f c2 c3 bd 29 7f e7 3d 39 19 dc bd
       0.027032541 -0.095585935 0.11303551 -0.10746998
000060 e5 75 9e bd fa 91 bf bd 98 c5 24 3e 14 ae c4 bd
       -0.0773733 -0.09354015 0.16091001 -0.09603515
000070 c4 0d 94 be 07 a8 2a 3e e8 4a c6 bd 39 1a 35 3d
       -0.28916752 0.1666566 -0.09682256 0.04421446
000080 b1 67 2b bd 76 9a 06 3e d7 49 c7 bd e9 24 f9 bd
       -0.041846935 0.1314486 -0.09730881 -0.12165243
000090 32 33 86 3c 0c 2f 08 3e e2 0b 38 3d 99 e3 10 be
       0.016381834 0.13299197 0.044933207 -0.14149322
0000a0 c4 1f 3d 3e 26 a6 0d 3d 2a 3f fa 3d dc 3a 86 be
       0.18469149 0.03458228 0.12219079 -0.2621678
0000b0 ae 92 c7 bd de 5c 05 be 82 c6 0c 3e 3e 7d cf 3d
       -0.09744774 -0.13023707 0.137476 0.1013131
0000c0 f4 63 1d 3d 8d 78 92 3c c5 5e c5 bc cd 67 83 bc
       0.0384254 0.017879749 -0.024093041 -0.016040707
0000d0 8b ae 94 bc 7e 6a 19 be 5b c3 dd bc d0 5f 87 be
       -0.018149635 -0.1498203 -0.027070692 -0.26440287
0000e0 0f 6f 35 3e af 3a aa bd f0 e1 41 be df 2c 98 bd
       0.17718147 -0.08311974 -0.18933845 -0.074304335
0000f0 a2 5a de bd 6f 5a 1c 3e fa 49 03 3e 1a af 1d 3e
       -0.108571306 0.15268873 0.12821189 0.15398827
000100 11 42 40 be d7 6d 4b bd b8 d3 85 bc 11 7f dd 3c
       -0.18775202 -0.0496653 -0.016336307 0.027038129
000110 20 d1 89 bd 1d a2 0b 3e f9 13 9f bd e1 f6 7c 3d
       -0.067293406 0.1363606 -0.07767481 0.06175888
000120 82 aa 0a 3f 3e 68 cb 3d a1 f0 42 3e 20 c7 25 3e
       0.54166424 0.09931992 0.19037105 0.16189241
000130 29 bb 80 bd 65 a3 d2 3d b6 2a cc 3d 46 1e 0c 3e
       -0.06285698 0.10285071 0.09969084 0.13683423
000140 54 5f 85 3d 3c 65 40 be dd a3 60 be 4c 3e 72 bd
       0.06512323 -0.18788618 -0.21937509 -0.059141442
000150 ff 80 05 3e 7e 76 f9 bd e3 72 d2 3d d8 fa 0f bd
       0.1303749 -0.12180804 0.10275819 -0.035151333
000160 ae 09 92 bd fc 49 eb 3c 1f 27 92 3d 38 44 0e bd
       -0.071307525 0.028721802 0.07136368 -0.034733027
000170 a2 0b a7 bd 7e a2 62 bd 02 30 51 bc 04 c8 ee 3d
       -0.08156516 -0.055330746 -0.012767794 0.11659244
000180 0c 1e 3b be 1d 9a 01 be 4c 98 2d 3e c1 db 4b bd
       -0.1827318 -0.12656446 0.16952628 -0.04977012
000190 91 84 f7 bd ef f6 ba bc cb 47 06 be 98 da 02 be
       -0.12085832 -0.022822825 -0.13113324 -0.127787
0001a0 6a 4d d9 3d d3 e0 57 bd f8 bd 18 be 94 2f 87 bf
       0.10610469 -0.052704643 -0.14916217 -1.0561395
0001b0 b2 65 c4 3d 56 05 3d bd 06 1d 14 be 02 11 ba bd
       0.09589709 -0.046147667 -0.14464197 -0.09085275
0001c0 6d 6d 02 be 81 a8 00 3e 79 2f f4 3d 8d 14 7d bd
       -0.12737055 0.12564279 0.11923117 -0.061787177
0001d0 d7 03 9f bd 46 db 08 be 4d 5d 24 3e ef 55 65 3d
       -0.07764404 -0.13364896 0.16051216 0.055990156
0001e0 a3 4e 04 3e b8 b4 8c bb ae 36 28 bd ad c6 e0 3c
       0.12920623 -0.0042940043 -0.04106777 0.027438486
0001f0 bc 9c 79 bc 1f ec 05 be b8 d3 07 be 2c 22 ab 3d
       -0.015235122 -0.13078354 -0.13264358 0.08356127
000200 b4 75 31 bd a8 28 8d 3d 56 8d 56 3d 36 02 a6 bd
       -0.04332514 0.0689252 0.052380882 -0.081058905
000210 e7 a7 0d 3c 54 32 3f 3d 33 47 c9 3d e0 60 51 3d
       0.008645988 0.046678856 0.09828033 0.051117778
000220 c0 9f d1 3d 7f 37 cb bd a0 ca 97 3d 92 c1 09 3c
       0.10235548 -0.099226944 0.074116945 0.008407967
000230 61 15 7a 3d 90 c5 63 3d d5 90 80 bc 8b d7 8d 3d
       0.061055545 0.055608332 -0.015694061 0.06925877
000240 40 04 cd 3d 8f ef 38 bd 8e ff 1d bd 43 59 e2 3d
       0.10010576 -0.045150336 -0.038573794 0.110521816
000250 2c cc 10 3d 46 ef 9f bc 6b 62 84 3d a1 0d 2f bd
       0.035350963 -0.019523274 0.06464084 -0.042737607
000260 21 9e 45 3d ce c3 04 be 84 67 5a bc 15 ee 8e 3d
       0.048246507 -0.12965319 -0.013330344 0.06979004
000270 63 e9 91 3d 52 8f 16 bd d8 5c 46 bd 6d ca 23 3d
       0.07124593 -0.036757775 -0.048428386 0.03998797
000280 b4 38 44 bd 21 07 cf 3d 92 28 d2 bd 9e 79 fd bc
       -0.04790564 0.101087816 -0.102616444 -0.03094178
000290 c1 68 c7 bd 9b c4 2a 3d 1f 66 de bd 7d 39 df bc
       -0.09736777 0.041691404 -0.10859322 -0.027249092
0002a0 48 66 cc bc 4c 7f d5 bd 03 a8 af 3d ed b2 44 3d
       -0.024951115 -0.104246706 0.085769676 0.0480222
0002b0 02 9f 3c 3d c8 18 16 3d e8 f4 63 3d 23 09 59 3d
       0.04605008 0.036644727 0.055653483 0.05298723
0002c0 63 21 cd 3d 1d 29 78 3d 16 77 a0 3d 55 80 da bd
       0.10016134 0.060586084 0.07835214 -0.10669009
0002d0 38 69 12 3d 1c a9 88 bc b4 85 89 bd 01 2d 8b bd
       0.035744876 -0.0166822 -0.06714955 -0.06795693
0002e0 e7 da c0 bb e3 b4 6e bd 40 d3 ff 3c 5a 6e c0 3d
       -0.00588547 -0.058277976 0.031228662 0.09396048
0002f0 fa 3f 0e 3d 7a dd 0f 3d 9a 92 4a bd 84 9e 28 3d
       0.03472898 0.035123326 -0.049456216 0.041166797
000300 7e a0 f8 bc ef cc 8b 3d 45 c7 59 3d 4c 7c ae bd
       -0.030349966 0.06826197 0.053168554 -0.085198015
000310 4b 97 8c 3d 0a 80 8a 3d a4 e7 b1 bd 6e cf de 3d
       0.06864794 0.06762703 -0.0868676 0.10879408
000320 35 33 13 3c d7 b4 e7 3c 00 b0 13 bd 31 14 2b bd
       0.008984377 0.028284473 -0.03605652 -0.041767303
000330 cd 29 98 bd 1a aa 86 bd d1 92 c1 3d a4 a2 cc bd
       -0.07429848 -0.06575413 0.09451831 -0.09991959
000340 42 a3 83 bd 09 5e 15 bd 66 92 15 bd 0d ce 04 3d
       -0.06427623 -0.036466632 -0.03651657 0.032423068
000350 59 62 7a bc 20 90 97 bd 5d 0d a5 3d 29 4b bb 3d
       -0.015282237 -0.074005365 0.080591895 0.09145195
000360 31 d3 a0 3d f4 63 18 3d 2d 2b 27 3d 90 16 66 3d
       0.078527816 0.037204698 0.04081266 0.05617386
000370 53 26 bd bd 04 bf ad 3d e8 e4 8a bd 63 03 a1 bd
       -0.092358254 0.08483699 -0.06781942 -0.07861974
000380 86 0a 5f bd f2 98 d5 bd a7 75 e5 bc 8f 3b d8 bd
       -0.054453395 -0.10429563 -0.028010203 -0.10558235
000390 d4 14 37 bd 0a 7b a6 bd 07 eb 90 3d db d6 a1 3d
       -0.044697598 -0.081289366 0.07076078 0.079023086
0003a0 b0 53 41 3c e1 2d 56 3d 8c 74 2e 3d c9 63 19 bc
       0.011799738 0.052289847 0.042591617 -0.00936217
0003b0 d2 8d a4 3d 20 21 b6 bd 1f 57 b2 3d 5f 58 95 3c
       0.080348626 -0.08893037 0.08708023 0.018230615
0003c0 94 2a 8b bd 25 95 f5 3c 8e 87 a4 bd 0f 47 e4 3d
       -0.067952305 0.029978344 -0.080336675 0.11146366
0003d0 61 6c e0 bc cf c4 82 3d 89 5f 37 3d fd b9 12 3d
       -0.02739543 0.063851945 0.044768844 0.035821903
0003e0 a6 7d 00 3d 00 ee b7 3d 9e 1c c9 3d 97 2a 67 3d
       0.031369828 0.08980942 0.098199114 0.0564371
0003f0 6a 43 93 3d ea 7a 83 bd b8 a6 08 3d 82 49 9f bd
       0.071905926 -0.06419928 0.03336212 -0.077776924

net.6.bias f4 [2]
000000 22 a3 80 bd 3f 17 88 bd
       -0.06281115 -0.06645059
