model/Mg3Sb2.pth (torch, 139988 bytes, 8 tensors)

net.0.weight f4 [128, 6]
00000000: 9042 c3be 5354 84bd 3b87 0cbc 62dc 82be
00000010: 0d55 d2bd adb9 0b3e 1096 9e3d a478 43bd
00000020: e795 b83d 9d24 ba3e bab3 cdbe 2419 a8be
00000030: a9a2 2dbe 7c8c c1be 0cae 783e 9896 8a3d
00000040: 7f78 473e aec5 cdbe 9210 9f3e 181d 85be
00000050: f267 e1be 9ef3 a93c b18f 8c3d dbca bb3d
00000060: e5cb 373c d4f5 a33e 5bb6 ddbe 2d29 c7be
00000070: 028c 6b3d 47fd b33e 229c 94bd 3b92 26be
00000080: 656e 9cbe 5151 c6bd 412e 9fbd c964 933e
00000090: 058c aabe caf2 6abd 9762 d5bc 4969 733e
000000a0: 8ae5 60be 5f7b ebbe daf6 7d3e e008 1d3e
000000b0: baee c73d bb69 c2be 2a5b a2be 1ccf 203e
000000c0: b08a af3d 7f93 ad3e d7d6 d3be d94c a5bd
000000d0: 0235 83be 85f4 673e 4a66 313b 503b 9f3e
000000e0: 2957 0bbe 24b8 df3c 40ff 9f3e 248b 853e
000000f0: 041c 0ebc edb9 64be a2e1 dfbd 661e 993e
00000100: 3e6b e73d b2d9 8a3e f371 023e 0977 573d
00000110: b8a3 a6be 9488 2dbe 0271 783e 04b6 79be
00000120: 5c40 813d 9627 da3d ddc0 a13c 0a00 93be
00000130: 6abd 83bc 40db 173d 9f45 963e 7737 603d
00000140: e0e7 cdbd b797 15be 57b4 d13e 3090 3dbd
00000150: 9534 37bd 6fe7 d9bd f46a 37bd feaa 083e
00000160: f867 99be 180c 853e 40a0 533e a8ce cbbd
00000170: 0c7f 08bf b6dc 39be 60bf a0be 2b23 81be
00000180: dad7 e6be 34e0 d8be 5828 b63e d106 433e
00000190: 6cc9 303e e577 b13e 9aa5 983e a329 4b3e
000001a0: f808 f7be 358a 94be 458d 27be 19ee 90be
000001b0: 73fe 0d3e 7f0b 97bd c36e 953e 7218 0b3e
000001c0: d8b9 a83e 4f71 ddbe 2b81 3cbe 84fe 2a3e
000001d0: 2f3c 8abe 04d1 ad3d 1747 be3e 8f4d 183e
000001e0: 646c a6be fc7d 813e d442 9cbe de87 743c
000001f0: e73f 3bbe 1a1c 42bd a182 a13e 9f14 c4be
00000200: 780a 883e 1205 11bd 0497 923e 910f 943e
00000210: 7c32 a9be 1441 15be 32e3 8f3e 2fb3 5f3e
00000220: 89f8 e6ba 2326 6dbe cd2c b1be 91e7 fdbd
00000230: 3cee 053e 48f1 6f3e 881d 67be fbb8 81be
00000240: 19fd 07be 2e74 8b3d b0dd 983e 0b82 923d
00000250: aed8 883e 6b14 cf3e 2b9c 4e3e 932d 403e
00000260: cadd 6bbc 9029 9ebe 9293 df3d 96c0 123e
00000270: 5b3a 01be 4371 e8bd ca6e 43be 995c 1f3d
00000280: 9f23 ce3e da29 b93e 61bd a9bd e637 5b3c
00000290: 8e65 373b ddfc a8be 7bb8 bf3e e7f5 7b3e
000002a0: f3c9 b43e 89d7 94bd 7fc8 1bbf bc6e 073f
000002b0: c4b1 65be 4d5a 31be d801 d3be a76d 863e
000002c0: 35db 75be 5524 1a3e 87b3 653e bab4 ab3e
000002d0: de79 c5bd 74ba c33e 772b 03bf 81aa e2bd
000002e0: 98e6 a4be 5108 03be 06b8 123e c6a9 1a3e
000002f0: 7191 63be 6db9 e2be 9016 d13d e0b1 723e
00000300: 2ec2 fdbe 04dc 0ebf 97ee 063e 7707 8dbe
00000310: d274 bebd 104f f6be 59bf 723e c9b3 5f3e
00000320: 64ec 93be 1f44 b33e 331b b9be 29af cfbd
00000330: 0714 753e 5986 b13e 31fb 153c 0149 783a
00000340: 6837 fb3e 2813 f0bd 0b7a 7b3e 5d00 07bd
00000350: e043 30be caf6 8dbd 64b2 1c3e 69ab b73e
00000360: 92e6 9ebb 526d a23e f52f 81bc f3b4 a13e
00000370: 14be 00bf a065 9ebe 5d76 8ebd 0998 a4bd
00000380: 37b3 a73e 19ac ef3d 992b ddbe c96e 873e
00000390: c66f 8dbe 742f 54be 419e 8e3e ad73 7d3e
000003a0: 7afd 923c be22 a43e f5e9 693e 5bf8 24be
000003b0: 5e1a b33e 2f11 ec3e b1e8 4b3c 27b2 8fbe
000003c0: c75a dc3d 72a9 77be dd4f c8bd 6614 3fbe
000003d0: f2b6 b83e 2bf8 b93e 6362 99bd 614f ce3d
000003e0: 2af1 9b3e 9e5b b3be a445 823d 1fac cc3e
000003f0: 5efe 93be 3050 71be 4e18 f63d 22af 9ebe
-0.3813672 -0.06461396 -0.008577163 -0.25558764 -0.102701284 0.13645048 0.07743466 -0.047722474
0.090129666 0.3635606 -0.40176183 -0.3283168 -0.16956581 -0.37802494 0.24285144 0.06767005
0.1947956 -0.4018988 0.3106733 -0.2599876 -0.44024616 0.020746049 0.068633445 0.09169551
0.011218046 0.3202349 -0.4330319 -0.38898602 0.05750657 0.35154173 -0.072563425 -0.1626672
-0.30552974 -0.096834786 -0.07772494 0.2878783 -0.3330995 -0.057360448 -0.026047988 0.23770632
-0.21962562 -0.45992562 0.24801198 0.15335417 0.0976233 -0.3797129 -0.31710178 0.15704006
0.085713744 0.33901593 -0.41374847 -0.08071298 -0.2562638 0.2265187 0.0027069026 0.3109994
-0.13607468 0.027309485 0.31249428 0.26082718 -0.008673672 -0.2233655 -0.10931708 0.29906005
0.11299752 0.27119213 0.1273878 0.052603755 -0.32546782 -0.16946632 0.24261859 -0.2438584
0.06311104 0.10652082 0.019745285 -0.28710967 -0.01608153 0.037074327 0.29349992 0.054740395
-0.10053992 -0.14608656 0.409579 -0.046280086 -0.04472788 -0.106398456 -0.044779733 0.13346478
-0.29962134 0.2598579 0.206666 -0.09951526 -0.5331886 -0.18150601 -0.31396008 -0.25222144
-0.45086557 -0.42358553 0.35577655 0.19045569 0.17264336 0.34661785 0.29813844 0.19840102
-0.4824903 -0.29011694 -0.16362484 -0.28306654 0.13866596 -0.073752396 0.29186067 0.13583544
0.32954288 -0.4325051 -0.18408649 0.16698653 -0.2699904 0.08487132 0.37163612 0.14873336
-0.3250457 0.2529143 -0.30519736 0.014924971 -0.18286096 -0.04739008 0.31544974 -0.38296983
0.26570487 -0.035405226 0.2863084 0.28918126 -0.3304633 -0.14575607 0.28103024 0.21845697
-0.0017621677 -0.23159079 -0.34604493 -0.123976834 0.1307916 0.23431885 -0.22569859 -0.2533644
-0.13280143 0.06809269 0.29856634 0.0715371 0.26727813 0.40445265 0.20176761 0.18767385
-0.01439614 -0.30891085 0.10916819 0.14331278 -0.12619917 -0.11349728 -0.19085231 0.038906667
0.40261552 0.36164743 -0.08288074 0.013380026 0.0027984115 -0.3300542 0.37445435 0.24605523
0.35310325 -0.072676726 -0.6085281 0.5290334 -0.22431093 -0.17319603 -0.41212344 0.26255533
-0.24009402 0.15052922 0.22431765 0.3353632 -0.09642385 0.3822819 -0.512382 -0.11067677
-0.3220718 -0.12796141 0.14328012 0.15103826 -0.2222345 -0.44282094 0.102093816 0.23700666
-0.4956221 -0.5580447 0.13176952 -0.27544758 -0.092996255 -0.48107195 0.23705806 0.21845926
-0.2889129 0.3501291 -0.36153564 -0.10140831 0.23933421 0.34672812 0.009154127 0.00094713276
0.4906571 -0.11722404 0.24558274 -0.03295933 -0.17213392 -0.06931837 0.15302426 0.35872963
-0.0048492635 0.3172403 -0.015769938 0.31583366 -0.50290036 -0.3093691 -0.0695617 -0.08036811
0.32753918 0.11702747 -0.43197325 0.2645171 -0.2762434 -0.20721227 0.27855113 0.24751158
0.017943133 0.32057756 0.22843154 -0.16110365 0.34981054 0.4610686 0.012445615 -0.28065607
0.10759502 -0.24185732 -0.09780858 -0.18660125 0.36077076 0.3632215 -0.07489469 0.10073734
0.3045743 -0.35030836 0.06360939 0.39975068 -0.28905004 -0.23565745 0.120163545 -0.3099299

net.0.bias f4 [128]
00000000: 131c 273e ef8b 03be 1052 c83d 16b4 89be
00000010: 177c 153d ce3a d83e f9a3 183d 888b 85be
00000020: cbdc c13e bf50 debd 31af e43e 9357 1dbe
00000030: 0d9c 44be b690 783d 02b1 223f d4a1 c93e
00000040: c600 243e d6ca f63d 9380 4539 6b94 54be
00000050: c3c8 2fbf 1052 99be 4a49 b93d 337e 2b3d
00000060: f479 10be abcd 84be 132c f23e b0d9 c4bd
00000070: 7715 b6be 3d8c 6a3e f58e 0d3c ea98 e63e
00000080: 8500 2abf 4b39 06be 15ad 213e 39ab cd3e
00000090: 7365 30bc 5476 cc3e 7b3e 1abe 63c6 953d
000000a0: f86b 9b3e de43 efbe d304 573d c797 20be
000000b0: 9cf0 e23e abbd d43e 9228 e0be ad34 54bc
000000c0: a9ad a7be df6f 73be 3a30 bdbe 7bd3 0b3e
000000d0: f147 8fbe 4806 b5be 7176 c53e 68f2 6b3e
000000e0: 600f 173e c0fe 46be 53ce fb3e 9426 da3e
000000f0: e3dd dc3d 0b35 d33e c0fe a3be a76d cdbd
00000100: 7f8a b4be 6329 1e3e 664e d33e 5a45 943e
00000110: 157f 97bc 5ddc 043f 7ac2 f73e 385b a6be
00000120: 41c6 823e 2de7 8f3d b2bf 9fbe a0ee 9b3d
00000130: 8fc5 11be cddc 4cbe 93ec b2be f7f5 4b3d
00000140: dab7 46be 8d58 a23e 07cb ce3e 3154 c43e
00000150: bbea 29be ac8c bc3e 47c6 adbe 828d 99be
00000160: 03d1 febb 8cb8 f43d 3b73 a7bd 2db0 0f3f
00000170: 1266 2e3e ed3e 6bbe 4f08 a83d 6310 dd3e
00000180: d904 d83c 75f2 bcbe a1f7 38be 9325 f83e
00000190: 6ab7 32be 1385 9f3d 1e5a 633d 95cf 57be
000001a0: dca8 67be 629e 233d c694 df3d 817b 9a3d
000001b0: 544c 75bd 799e 4d3e 481c 95bd b149 f8bd
000001c0: 27a2 adbe 0ca2 afbd 6107 71be 00a8 683e
000001d0: c9ea 133d ea10 323e 70c9 a5be aece 5f3e
000001e0: d2d9 033c 2cd0 4e3e 6e10 e53c 66b1 f6be
000001f0: b1aa a83e 5989 ccbe 2f4f f33e 75fb e83c
0.16319303 -0.12846349 0.09781277 -0.26895207 0.036495294 0.42232364 0.03726575 -0.26083016
0.37863764 -0.10855245 0.4466491 -0.15365438 -0.19200154 0.060684882 0.6355134 0.39381278
0.1601592 0.12050407 0.00018835282 -0.20759742 -0.68665713 -0.2994542 0.09047182 0.0418684
-0.14109021 -0.25938162 0.4729925 -0.09611833 -0.3556325 0.22905059 0.008640041 0.4503854
-0.6640704 -0.13107793 0.15788682 0.40169695 -0.010766375 0.39934027 -0.15062897 0.0731323
0.3035581 -0.46731466 0.052494835 -0.15682898 0.44324195 0.41550955 -0.43780953 -0.012952012
-0.3274968 -0.23773144 -0.36950856 0.13654892 -0.27984574 -0.35356355 0.38566926 0.2304169
0.14751959 -0.19433117 0.4918085 0.42607558 0.10784509 0.41251406 -0.32030296 -0.1003068
-0.35261914 0.15445475 0.4127075 0.2895916 -0.018493215 0.5189875 0.4839056 -0.3249147
0.2554188 0.07026515 -0.3120094 0.076138735 -0.14235519 -0.20006104 -0.34946117 0.049795117
-0.19406071 0.31708184 0.40389273 0.38345483 -0.16593449 0.36826074 -0.33940336 -0.29990774
-0.007776381 0.11949262 -0.08176275 0.561282 0.17031124 -0.22973223 0.0820471 0.43176565
0.026369499 -0.3690373 -0.18063213 0.48466167 -0.1745278 0.07789054 0.055505864 -0.2107528
-0.22623008 0.039945967 0.10917048 0.07543088 -0.059887245 0.20079984 -0.07280785 -0.121234305
-0.33912775 -0.0857583 -0.23537971 0.22720337 0.03611258 0.17389265 -0.32380247 0.21856186
0.008047538 0.20196599 0.027961936 -0.4818222 0.32942727 -0.39948538 0.4752135 0.028440217

net.2.weight f4 [128, 128]
00000000: 330b b8bd 56a0 1e3d f61c 68bd b854 d43c
00000010: eaf2 7dbc e035 5fbd d54b d8bd fbae 33bd
00000020: da77 883a cee2 813d b9c2 7dbc 30a9 483c
00000030: 5084 d13d 294e 9bbc 167a bebd 1b26 88bd
00000040: 9c78 86bd 950a 02bd 84e6 0abd f37e 60bd
00000050: f82b 83bd fc3f ce3c 55f3 c8bd cca8 b4bc
00000060: 1df1 d03c ffe1 bf3d 1e97 96bd 513a c9bc
00000070: 5aa3 91bd f4c9 473c a33b 66bd 73ab 8a3d
00000080: b693 97bc 351b 3e3c 9805 3abd fd1d 5d3d
00000090: 8900 2e3d f58b e1bd a216 2dbd dda4 3dbd
000000a0: 2c19 8c3c b776 f13c dc76 8abd 4062 68bd
000000b0: 0186 1a3d d1f7 1d3d bf5d 16bc 69b6 a83d
000000c0: f318 883d 2a35 9dbc 4e87 84bd 61e8 c1bc
000000d0: 9e05 9ebd c24d 79bc 03b3 043c 4f97 1a3d
000000e0: 87d0 af3d de42 543d 858d 92bd f6e4 983d
000000f0: 3ca8 83bd e3e1 bf3c c9ed 7cbc cee3 b23a
00000100: aa8e babc ce2c 9a3c ae0d b33d 419c 1a3c
00000110: da84 23bc da6c cfbd dc35 16be cbb9 cdbd
00000120: cabf f2bd 615f e8bc 60cc 5bbd af69 5e3d
00000130: 1413 63bc b0f5 6fbd 2b83 6d3d 174a e1bd
00000140: 811a 8ebc 5358 073d c859 753d 2ae2 3fbd
00000150: a957 023c e206 243c 0369 9c3d 0dd1 0abd
00000160: bfa3 e9bc fb22 633d b339 b0bd 21d6 08bd
00000170: 4c01 e3bc 9eea 8d3a 5675 2f3d 3a19 3fbd
00000180: ae25 c23d 4a37 3e3d 9f60 e8bc 98e2 4b3c
00000190: 0bac 183d 50ca 2b3d 3f3f 59bd 96e8 913d
000001a0: d1ee b93d 4435 ac3c 4761 00be c4e1 04bd
000001b0: 8b71 0bbc 542d 283d 6e3b 9abd 9449 613d
000001c0: 3a8b bfbc 9f40 403c b8b4 c5bd a0db bd3d
000001d0: bb40 f8bc 2b65 bebd 7604 37bd 51ef 8a3c
000001e0: 18bb 52bd 3358 24bd 66e4 e03c e9dc 2bbc
000001f0: 261d a53d b0e1 ee3d 4664 e8bd cf1b f73c
00000200: d7c7 8bbd 5d2e 13be 62c9 ddbd d156 ca3e
00000210: 7c72 fc3d 3b65 8e3c f0ef 90bd 6532 a9bc
00000220: 7a6d 8f3d e78f ccbc bf3a 0cbe 9668 163e
00000230: a24a 0abc f88c 1b3d a81e 18be 9098 953c
00000240: 2d9d dfbd 668c 913d ecf3 81bd 755e cc3d
00000250: 197c 4e3e c0ee 5c3d c357 99bd e345 ecbd
00000260: 4957 bf3c 00c9 fd3c c71d cfbd 705c c43c
00000270: 275e 7e3e 425f 54bd afcf d93d cbe2 283d
00000280: a29f 9d3a 3cc3 0fbd 7850 fbbc 4335 e1bc
00000290: c779 cbbc 6198 0cbe 6718 a6bd cc37 a8bd
000002a0: 5d84 1a3d e380 50bc 775f b63b 63f9 583b
000002b0: 0b54 86bc 2a0e 50bd 9f63 80bc 26d2 ffbb
000002c0: 9599 ae3d ede5 19bd 21bc ba3d 6a25 d43c
000002d0: 9143 a63d b2a3 9f3d ca08 05be 173f 163d
000002e0: f189 a7bd 2849 1f3e 694f 09be 2f74 73bd
000002f0: 4eea b0bd 750d f03c 8793 553e 7235 37bd
00000300: 1236 09bc 6d90 94bd 93b1 50bd 5cad ccbc
00000310: 7aef b2bd 4240 773c d746 1cbe 55de 9c3b
00000320: 3da7 f4bd 47a2 e1bc d8cb 193d 989d bdbd
00000330: 5143 7a3d 0b32 293d d9f7 3a3e c07a 81bc
00000340: f80c 05be c163 4fbe 841f 823d a4f2 f2bc
00000350: 1a3c 07bd ebe8 133d 1006 403e 2aba eb3d
00000360: 73dc a2bd f816 ffbc 45b3 a33d 8bea 1ebd
00000370: 97ba 2f3d 1126 3e3d d9a6 38bd ca05 2fbd
00000380: 7b04 9dbd 4938 7a3b 0c87 9dbd 7245 97bd
00000390: b059 773e d3ef afbd e5af f93d a105 783e
000003a0: f7b7 843e 1e22 2dbd f4fe 2abd af39 10be
000003b0: 68df 8a3d 7d87 7dbd 6512 92bd 5f1c 7e3d
000003c0: 682e 41bd 0968 993d 0ee7 b23d e11b 003d
000003d0: 2a40 31be 9794 bb3d 94e4 843c 1ba0 85bd
000003e0: e27b c83c ca5f fbbc 9109 3bbd b1d6 ad3d
000003f0: 7e31 fcbd 98ae 813e 06cc 54be 92b8 59bd
-0.08986511 0.038727127 -0.056668244 0.025919303 -0.01549981 -0.05449474 -0.10561339 -0.043868046
0.0010411695 0.06342088 -0.01548832 0.012247369 0.10230315 -0.018958168 -0.0930063 -0.06647893
-0.06565973 -0.031748373 -0.033911243 -0.05480857 -0.06404871 0.025176995 -0.09812037 -0.022053145
0.025505597 0.09369277 -0.07353042 -0.02456394 -0.07111235 0.0121941455 -0.056209218 0.067709826
-0.018503051 0.011603166 -0.04541549 0.053983677 0.04248098 -0.11013023 -0.042257912 -0.046299804
0.017101847 0.029475553 -0.06760952 -0.056734324 0.037725452 0.038566414 -0.009177624 0.08237917
0.06645384 -0.01919039 -0.0647112 -0.023670377 -0.07715915 -0.015216293 0.00809932 0.037741955
0.08584695 0.051821582 -0.07155899 0.07465546 -0.064285725 0.02342314 -0.015437552 0.0013648213
-0.022773106 0.018820193 0.087428436 0.009436668 -0.009980405 -0.10128184 -0.14668983 -0.10045203
-0.11852987 -0.028365793 -0.053661704 0.054300006 -0.013859529 -0.058583915 0.05798642 -0.1100046
-0.017346622 0.033043217 0.059900075 -0.046846546 0.00795547 0.010011407 0.07637217 -0.033890773
-0.028520463 0.05545328 -0.08604755 -0.033407334 -0.02771058 0.0010827368 0.04283651 -0.046654917
0.09479843 0.046439447 -0.028366385 0.012444161 0.037273448 0.041940987 -0.05303883 0.0712444
0.09078754 0.021021493 -0.12537108 -0.03244187 -0.0085109575 0.041058853 -0.075308666 0.05500181
-0.023381818 0.011734157 -0.0965361 0.09270406 -0.030304303 -0.0929664 -0.04468199 0.016959818
-0.051447958 -0.040123176 0.027452659 -0.010489681 0.080622 0.1166414 -0.11347251 0.030164627
-0.06825226 -0.14373155 -0.10829426 0.3951936 0.12326524 0.017382255 -0.070770144 -0.020653913
0.07003303 -0.024970962 -0.13694285 0.14688334 -0.008440645 0.037976235 -0.14855444 0.018261224
-0.10918651 0.07106857 -0.063453525 0.09978954 0.20164527 0.053938627 -0.07487442 -0.11536767
0.02335705 0.030979633 -0.101131015 0.023969859 0.24840604 -0.051848657 0.106353156 0.04123191
0.0012025724 -0.0350983 -0.030678019 -0.027491217 -0.024838341 -0.13730003 -0.08110123 -0.082137674
0.037723888 -0.0127260415 0.0055655795 0.003310763 -0.016397497 -0.050794758 -0.015672503 -0.007807034
0.08525387 -0.03757279 0.09117914 0.025896747 0.08118356 0.07794894 -0.12991634 0.03668126
-0.08180607 0.1555525 -0.13409199 -0.059436973 -0.0863844 0.029303292 0.20857058 -0.044728704
-0.008374708 -0.072541095 -0.050950598 -0.024985008 -0.08737083 0.015091004 -0.15261398 0.004787246
-0.11945961 -0.0275432 0.037547916 -0.09258574 0.061099354 0.04130749 0.18258609 -0.015805602
-0.12993228 -0.20252897 0.063536674 -0.029656716 -0.0330163 0.0361108 0.18752313 0.11510117
-0.079522036 -0.031138882 0.07993177 -0.038797896 0.042902555 0.04642302 -0.045080993 -0.04273013
-0.0766687 0.0038180521 -0.07691774 -0.073862925 0.24155307 -0.08590665 0.12191752 0.24220897
0.25921604 -0.042268865 -0.04174705 -0.14084505 0.067808926 -0.06189679 -0.07132415 0.062038776
-0.047163397 0.07490546 0.087354764 0.031276587 -0.17309633 0.09159201 0.016222276 -0.06524678
0.024473134 -0.030685324 -0.04566342 0.08488215 -0.123141274 0.25328517 -0.20780954 -0.053154536

net.2.bias f4 [128]
00000000: af60 473d cdc6 4c3b f232 613d 7710 d43d
00000010: 826f 7ebd d79b bdbd 45ce 8abd d7d4 1b3d
00000020: fb8b a43d 9aeb 30bd 9295 98bd cef5 b33d
00000030: 4cf2 7c3d 3ad6 9e3c b224 bcbb 0153 4dbd
00000040: 468b 2cbe 5e3b 453c bd84 5abd f87f 453b
00000050: 8c7a e03c b79d c53d 66a6 c63c c3af 1fbd
00000060: f9bb dfbd 8065 f13d b1ef 02be c09a 02bd
00000070: 9991 bbbd 8f4a ad3c 4944 9dbd 8a57 7cbe
00000080: b0ad 8fbe 10bc b6bc 781e aabc 2566 213d
00000090: 9dc4 db3c 3187 0f3d 048c 24bd d3c8 d9bd
000000a0: dfae 473d a939 783d b01b 44bd f52e 1bbe
000000b0: 566a c6bc 9667 5b3b 8248 47bd b55b a4bd
000000c0: 6833 93bd 374d 35bd 40ea 60be 6a85 903d
000000d0: f380 d1bd 8aa4 b03d 0a58 8dbc da07 4f3d
000000e0: d1ee 513d faf4 363d 80ad 2a3d 7d09 cf3d
000000f0: 4711 96bd ec7e 1bbd 3c25 3c3d 0dc9 563b
00000100: e8e0 4bbd e0b5 943b 697d 6bbd 946d e1bd
00000110: 9c7c ef3c 126c 203d 7095 abbd 062f 4f3d
00000120: f678 e3bd 81ff 9b3d 71d5 a33d d1c3 ac3c
00000130: 8ad0 33bd c944 153d ec79 873c 898d 61bb
00000140: fa18 95bc 2f2f 1ebd 83d5 b5bd 708d 93b9
00000150: f29c 4cbd ef1f c2bd 6c8a ae3d 5487 6ebe
00000160: a561 683d 3f0d f0bd fee8 2f3d 183f 1e3e
00000170: 8eca 2abe eecb 4e3d 1efc a63c 7f84 d13c
00000180: 8a87 203d 2d2b 9fbc 5a7e 693b 1dde 773d
00000190: 5f39 8a3d d585 03bd 5a92 55bd 579f 4a3d
000001a0: fd97 d03c 1e7f a73d 969e 01bd d071 323d
000001b0: a049 08bd bc11 08be 8669 2c3d 8046 eb3b
000001c0: f503 a13d f4c8 8dbd ab58 f2bc ea3f 73bd
000001d0: 6fd6 723d 157b 433d 7e4a 123d 3c44 b1bb
000001e0: 9a30 0dbd 9aea 723d 71e5 403d a8d6 24bd
000001f0: 2956 10bd 5237 463d a54f 9dbd 011e 08bd
0.04867619 0.0031246424 0.054980226 0.10354703 -0.06211806 -0.0925824 -0.06777624 0.038044777
0.08034512 -0.043193437 -0.07450403 0.08787118 0.06175451 0.01938926 -0.005741679 -0.050127987
-0.16850004 0.01203808 -0.053349245 0.003013609 0.027402185 0.09649222 0.024249267 -0.03898598
-0.10924525 0.11786938 -0.12786748 -0.031885862 -0.0915863 0.021153716 -0.0767904 -0.24642769
-0.280622 -0.022306472 -0.020766482 0.039404053 0.026827151 0.035041038 -0.04017259 -0.10634007
0.048750754 0.060601864 -0.047877967 -0.15154631 -0.024220627 0.003347849 -0.048653133 -0.08025304
-0.07187539 -0.04426309 -0.2196436 0.07056697 -0.10229673 0.08625133 -0.017253894 0.050544597
0.051253144 0.04466722 0.04166937 0.101092316 -0.07327514 -0.03796284 0.045933947 0.0032773644
-0.049775034 0.0045382828 -0.057492647 -0.110072285 0.029234223 0.039165564 -0.08378112 0.050581954
-0.11107056 0.07617093 0.07999695 0.021089466 -0.04390005 0.03644255 0.016537629 -0.0034416637
-0.018200386 -0.038619217 -0.08878615 -0.00028143404 -0.049954362 -0.09478747 0.085224956 -0.23293811
0.056733746 -0.117212765 0.042946808 0.15453756 -0.16678831 0.05048745 0.02038389 0.025575874
0.03919176 -0.019429768 0.003562829 0.060514558 0.06749224 -0.032110054 -0.052141525 0.049468365
0.025463099 0.081785426 -0.03164538 0.04356557 -0.03327334 -0.13288015 0.042092822 0.007180035
0.07862083 -0.069230944 -0.029583296 -0.059387125 0.05928653 0.047724802 0.035715573 -0.0054097455
-0.03447018 0.059305765 0.047093812 -0.040243775 -0.03523842 0.0483926 -0.076812066 -0.03323174

net.4.weight f4 [128, 128]
00000000: d444 cf3d fc70 303d 3529 08be 5c09 963d
00000010: 100b a8bd 1486 a73d 566f 25bd 7a12 7d3d
00000020: a34a 03bb e8ae 143e 13ac b7bc 314c 6b3d
00000030: 2c33 753d c9eb c63b 16f2 493d 14c1 9c3c
00000040: 63a4 c9bd acf0 a7bd d5d8 133e 3c7e 633d
00000050: da43 99bd 33a8 5ebd e3f9 e43d c8c3 a6bc
00000060: 120c 413d cbaa bebd d218 723d e8ba 8ebd
00000070: 1ae3 64bd eee2 16bc 7ee7 8cba 5c05 e73c
00000080: a54e bbbc cf3f d0bb ae4a 9dbc 8a9a 663d
00000090: 34f8 1c3d 20e2 ee3d 8281 cf3d e5a9 67bd
000000a0: 4ea0 6d3d ac48 8d3d 8df3 81bc 71ee ca3c
000000b0: d386 20bd 2f01 1c3d ffb8 a2bc a83a 993b
000000c0: bd37 dfbb 0275 82bd fb79 82ba 5960 41bd
000000d0: bdcc 5b3d ce57 38bd 982f 163d 163a 0cbc
000000e0: d646 dcbd 7c12 7fbc 4e35 f9bc 4248 7fbd
000000f0: d7dc 27bd da01 9d3d e39b 8f3d f7db 54bd
00000100: e943 163d 5bab d13d 9966 c93d fe8c b83d
00000110: cda9 14bd e4c2 963e 332a 23bd 5e09 c3bd
00000120: 1c3f da3d 0d71 10bc 4369 ed3c 984b 183c
00000130: be27 7bbd 89e2 0a3d 19b9 fa3c 15f2 b9bd
00000140: cbfb c83c d992 88bc 8c74 933d c052 5fbd
00000150: bc8d e43c b4cf 023e 2941 963c e10f 893e
00000160: 346a f73c 9a4f 5dbd 94cf c4bc dbd5 733b
00000170: b45e 9fbd f2f6 5a3d 7b59 543d c46f b63d
00000180: 6fce d7bd 52fe 1bbd 35d0 3c3c b806 33bb
00000190: 3023 7bbd 0560 ac3d 8b0a 603c 29a7 353b
000001a0: f0e7 293e f284 3b3d ebcf 703d 6b5b b0bd
000001b0: c855 833c 62a7 143e a58c 8ebb e8a9 fbbd
000001c0: 8d74 7fbd 172b 893d 0845 11bd 1051 783c
000001d0: f961 eebc cce4 e43c a4b5 a9bc 6c22 303d
000001e0: dc18 77bd 65e0 433d ef3a 163b c1ae b1bd
000001f0: 18fe 503d 114e b7bd 1cb9 b23d 494c 113d
00000200: ce4c cbbd 6cf9 18be e123 a33d 2e8b a7bd
00000210: 0c35 b93c 20ff c5bc 733c 473d 18e2 4cbd
00000220: 88c8 093c 3e72 75be bc2d 0d3d d7a6 903c
00000230: 64ba 81bd fdc9 56bd 47f9 cf3d baf5 58bd
00000240: 3541 983e e52b 87bd 5bf7 0c3e 5fc4 683e
00000250: c970 003e 39fa 0c3c 14e9 babc cc6f 97bd
00000260: 3ce9 433e 5d78 c5bc 8e66 b4ba fb93 5c3d
00000270: 382c eebd 816f cabd 3b20 8dbd 4ab7 683e
00000280: 67df 793e 1417 d1bd 1e32 d63c 64dd 92bd
00000290: fd5a 3e3d a120 2cbc de5c 89bb 14eb a33d
000002a0: 079c 8c3d 61fb 0b3d f1f5 9c3d 0d0c 8c3e
000002b0: 28cd 1cbd 3554 93bd 52d0 81bd 2188 06be
000002c0: 98ff ceba c003 2b3d 30b3 0abe 224b 88bd
000002d0: 9e9e 093e 2e4a c13d 83e3 f4bc d230 0fbd
000002e0: a121 2a3e 44f7 6f3d 8c88 033d a257 023c
000002f0: d428 aabd 38ec 08bc 500a 0cbd 6141 13be
00000300: c631 503d de97 be3c 6bdd 0b3d 7c7c ddbd
00000310: 1d3b 5bbd cbe7 27be 906b ae3a 90b9 413e
00000320: 133c cb3a 39f8 173d 9f03 ba3d b512 a3bd
00000330: b884 1fba ce1b e23c d480 d63b 4b05 0abd
00000340: 819f 3abd 8d27 1b3d 8d8c b0bb e108 033e
00000350: fe4a 89bb 9f04 2fbe 2da3 d0bc c9e9 0dbd
00000360: 297e 3e3d e1d4 d83c 4627 92bc c0ac 42bb
00000370: f52a a5bd 9484 4abd d00f a23d e807 52bc
00000380: a3ce 02bd 1e80 83bb 8433 fb3c 5008 213d
00000390: 4ef4 8ebd f7ed bcbd 726b 76bd 413a 6d3d
000003a0: b2c5 37be 755f 90ba a5d6 6a3b 4259 3e3d
000003b0: 08b8 62bd 8719 143e 4de7 e4bc c3d9 c9bd
000003c0: 558f 5ebc 62ac e6bd 9f5c 203e 7626 e1bd
000003d0: eac1 a9bc c5bb 62bb 0b86 f5bd cfb2 763c
000003e0: 19e9 983d b8d3 abbd e15c 18bc 6fe9 8bbd
000003f0: 6c9e 9b3d 7f13 99bb a381 d03c 40d1 ddbc
0.1012055 0.0430765 -0.13296969 0.07326004 -0.08205235 0.0817987 -0.04038938 0.0617852
-0.00200335 0.14519846 -0.022420919 0.05744571 0.059863254 0.0060705882 0.049303137 0.019135036
-0.098458074 -0.082002014 0.14438184 0.05554031 -0.07483645 -0.054359626 0.111804746 -0.020357028
0.04713065 -0.0930992 0.0591057 -0.06969243 -0.055880643 -0.009209378 -0.0010750142 0.028200798
-0.02286465 -0.006355263 -0.01920065 0.056299724 0.038322642 0.11664224 0.101321235 -0.05655851
0.058014207 0.06898627 -0.015863204 0.0247719 -0.03919108 0.038087066 -0.019863604 0.004676182
-0.0068120644 -0.06369974 -0.0009954566 -0.047211025 0.05366205 -0.045005612 0.036666483 -0.008558771
-0.107556984 -0.015568372 -0.030420925 -0.06232477 -0.040982094 0.07666369 0.07012155 -0.051967587
0.036685858 0.102377616 0.09834022 0.09011267 -0.036294747 0.29445565 -0.039835166 -0.09523271
0.106565684 -0.008816016 0.028980857 0.009295367 -0.061317198 0.033907447 0.03060584 -0.090793766
0.024534127 -0.016671585 0.07199964 -0.054522276 0.027899615 0.12774545 0.018341618 0.26769927
0.030202009 -0.054030992 -0.024024762 0.0037206325 -0.07781735 0.05345816 0.051843148 0.08908036
-0.10537421 -0.038084336 0.01152425 -0.0027317237 -0.061312854 0.08416752 0.013674389 0.0027718043
0.16592383 0.045781083 0.058792036 -0.086111866 0.016032115 0.14516976 -0.004350262 -0.122882664
-0.06236701 0.06697672 -0.035466224 0.015156046 -0.029099451 0.02794113 -0.020716496 0.043001577
-0.060326442 0.04782142 0.002292331 -0.0867591 0.051023573 -0.08950437 0.08726713 0.03547314
-0.09926759 -0.14938897 0.07965828 -0.08180843 0.022608303 -0.024169505 0.048641633 -0.050020307
0.008409627 -0.23969361 0.034467444 0.01765768 -0.06334379 -0.052438725 0.10154968 -0.052968718
0.2973725 -0.06600169 0.13766234 0.2273116 0.12543024 0.00860458 -0.022816218 -0.073943704
0.1913194 -0.024105245 -0.0013763474 0.053852063 -0.11629528 -0.09884549 -0.06890913 0.22726169
0.24401627 -0.1020948 0.026146945 -0.07171133 0.046473492 -0.010505826 -0.004191979 0.08003822
0.06865697 0.03417528 0.07664097 0.27352944 -0.03828159 -0.071937956 -0.06338562 -0.13137867
-0.0015792726 0.041751623 -0.13544917 -0.066549554 0.13439414 0.09437977 -0.029893642 -0.034958668
0.16614391 0.05858542 0.032112643 0.007955464 -0.083085686 -0.0083571 -0.034189522 -0.14380409
0.050828718 0.023265775 0.034146708 -0.10814759 -0.05352317 -0.16397016 0.0013307203 0.18918443
0.0015505574 0.037101958 0.09082722 -0.079625525 -0.0006085145 0.027601149 0.006546119 -0.033696454
-0.04556227 0.037879515 -0.0053878487 0.12796356 -0.004189848 -0.17091607 -0.025468433 -0.034646783
0.046507034 0.026468696 -0.017840993 -0.0029705018 -0.08064834 -0.049442843 0.07913172 -0.012819268
-0.031935345 -0.0040130755 0.030664213 0.039314568 -0.06980191 -0.09225076 -0.06016106 0.057916883
-0.17946509 -0.0011014777 0.0035833505 0.04647184 -0.055351287 0.14462863 -0.027942324 -0.09855988
-0.013583978 -0.11263348 0.15660332 -0.10993664 -0.020722348 -0.0034596783 -0.11988457 0.01505728
0.07466335 -0.083899915 -0.009299488 -0.06831633 0.07598576 -0.0046715136 0.02545244 -0.027077317

net.4.bias f4 [128]
00000000: 89f6 b8bd f268 60bd 67d3 d83c d831 f5bc
00000010: 2b6a 75bd 7551 7fbd 9472 f8bc 202d 3bbd
00000020: 088a 113d 94e4 f4bc 2408 403d 32a0 bdbc
00000030: ec4f 15bc 8ded 183d 5ee0 b9bd 0470 c9bc
00000040: bede 82bd 896f 803d 42c7 763d 7970 b6bc
00000050: 8f5c 9d3d a024 18be e48f 303d 38e8 a53c
00000060: c06c 07bd 3607 323d 6e9c 473d 3c25 74bd
00000070: a3cf 103d 742c babd 7fcf 91bd 7e63 233d
00000080: 8b9b b23c 2507 38bd 1a3e f3bc be4a b8be
00000090: 7579 86bc 858c f5bc 08f1 b83d 3210 bf3d
000000a0: 800e a13d 9414 92bd ced0 3c3c fc0e 99bd
000000b0: 2d7a 0d3d f931 abbd 2bc3 183d 8ed1 0ebe
000000c0: 116a 89bd cd85 523d c6a0 d63d a97a 43bd
000000d0: 2edb 133d 3807 c5bd 22cc b23c 88cd 2abd
000000e0: 464a 93bd 5b3c 823d 1993 ae3d 5f6b 053d
000000f0: ac85 92be c44c a5bc 5972 c53d 4de7 3cbe
00000100: db02 a8bd 24bb 893d 1916 fabc 1b37 973d
00000110: d80b b63d 25bd b23d df6e a53d 385c 30bd
00000120: 421f f6bc 19ac d43c 4ed0 853d 6050 a53d
00000130: 992d 503c 2a40 c93c f283 f4bc 1b41 afbd
00000140: 8eb2 093c 120b 05bd a98d 1bbd ff8e 4e3c
00000150: 9e6a 153d aec7 243c d065 a5bd 7645 9e3d
00000160: 749e efbc c4ae 96bc 9984 8a3d b1a7 06bd
00000170: a707 2ebd f5f3 27bb e452 373d ef50 f5bd
00000180: 598f 4cbd e959 abbd aa27 55bd bf42 cabd
00000190: d8ba 5e3b 9e9b acbd e150 933d d380 283d
000001a0: 9444 a9bc a30d cc3d ea97 3e3d 37e2 9c3d
000001b0: 08bf 3bbd 9776 7f3d 0e4c dfbd 9117 993d
000001c0: ba30 93be 5ef3 0ebd d2cf d5bc 9761 303d
000001d0: f74d 97bc a393 33bc f234 78bd d1f2 903d
000001e0: 9a6c b63d d375 9e3c bdcf 333d 6ceb ecbc
000001f0: 8206 afbc 20cc 99bd 1c2d d9bd ab77 7cbd
-0.09031398 -0.054787584 0.026467992 -0.029930994 -0.059915703 -0.062333543 -0.030328073 -0.04569733
0.035532027 -0.02989415 0.046882764 -0.023147676 -0.009113293 0.03733592 -0.09075998 -0.024589546
-0.06390141 0.06271274 0.06024862 -0.022270428 0.0768367 -0.14857721 0.043105975 0.020252332
-0.033062696 0.043463908 0.048733167 -0.059605822 0.035354268 -0.0909051 -0.07119655 0.039889805
0.021802684 -0.04492869 -0.029692698 -0.35994524 -0.016415337 -0.029974231 0.09030348 0.09329261
0.07864094 -0.07132831 0.011524392 -0.07473561 0.034540344 -0.08359141 0.0372955 -0.13947126
-0.06709684 0.051397134 0.10479884 -0.0477244 0.036097698 -0.096205175 0.021825854 -0.041699916
-0.07191901 0.06359168 0.085241504 0.0325731 -0.2861761 -0.020178206 0.09640951 -0.18447609
-0.0820367 0.06725147 -0.030528115 0.073835574 0.08888978 0.08727483 0.080777876 -0.043056697
-0.030044202 0.025960969 0.065338716 0.08071971 0.012706184 0.024566729 -0.029848073 -0.0855734
0.008404387 -0.03248126 -0.037976895 0.012607335 0.03647863 0.010057373 -0.0807606 0.07728092
-0.029250361 -0.018393882 0.06763572 -0.032874767 -0.042487767 -0.0025627587 0.044756785 -0.119783275
-0.049941394 -0.083667584 -0.05203978 -0.09876012 0.003398588 -0.08428119 0.07193161 0.04113848
-0.020662583 0.099635385 0.046531595 0.076603346 -0.04583648 0.062368955 -0.10903178 0.07475198
-0.28748113 -0.03490006 -0.026100073 0.04306182 -0.018469794 -0.010960492 -0.060597368 0.070775636
0.08907433 0.019343292 0.043899287 -0.028920852 -0.021365408 -0.07509637 -0.10604307 -0.06163756

net.6.weight f4 [2, 128]
00000000: c419 553e 6037 83be 5c77 60be afd3 a0be
00000010: cb34 b9bc 246c e1bd a1ef a63d 9e00 e4bd
00000020: 4cf9 86be d42d a2bd 11fa 4dbd 1b6c 5b3e
00000030: 3425 5dbd aeca da3d 1ab6 003c b7fd 283e
00000040: e762 06be 9e83 223e 9189 0dbe ac3c 23be
00000050: 7484 013e bf1b 5bbe 4923 223e 0f52 a73d
00000060: 0b0d 3e3e 5f65 69be d7bf 163e 4e5f cc3c
00000070: 2de8 cfbc a813 323e 2b71 823d 9eff 03be
00000080: ab83 04be fd5c 913d bac0 29bd cb66 e9be
00000090: c76d 2f3e 7fb3 2dbe 1588 11be 3e71 28be
000000a0: 0dd1 76be f2eb 8a3d cd63 a23b 3634 4e3e
000000b0: 737d 253e d81f f73d de3d 9dbd e9f1 d7be
000000c0: a7d7 3fbd 5824 fa3d ec02 35be 8f8a df3d
000000d0: 3086 513d 510f 9c3d c362 853d 262e 5cbe
000000e0: 4878 7b3d 2466 363e e549 bc3d cd61 21bd
000000f0: 41aa 18bf 01c7 5e3e 4eac e23d 4df0 583e
00000100: 803f 11be ed3f 5ebc c3d6 d93d 4943 33be
00000110: 04d3 05be f4ec 80be cf39 fa3d 6dda 7a3a
00000120: bd4d 06be 6092 3abb daec 6cbd eea4 1cbe
00000130: 72ac 4e3e eea8 f7bd c3fe c1bc cddf 8c3d
00000140: a9b3 383e be35 ff3d 75f0 063e 1482 173e
00000150: be83 013e c1a7 e33d eef2 f83d 8058 efbd
00000160: 54ea 4f3e de33 643d 39af a83d 75bf 2a3e
00000170: 0322 d13c 86df cd3d 7611 10be cb87 403e
00000180: 60cd e9bc 3b85 75bd 4490 10bc 1fc7 ec3d
00000190: c8a4 a0bd 930a 1d3e f949 e73d 9a82 1b3d
000001a0: 46cb 933d 3e07 9d3d 9014 fa3d d8f5 aabc
000001b0: 4706 6ebe 7333 c33d 5f4c 3ebc 7321 863d
000001c0: c6ab af3e 09a9 a0bd 538f 203d 47ee bbbd
000001d0: 63d3 d0bd 9b5a 213e f402 fc3d f1d2 c43b
000001e0: 7770 0d3e 5e66 32be 5a54 1fbe 0ae5 f03d
000001f0: 92b1 a3bd e821 d1bd c212 6a3e 8575 0b3e
00000200: f927 1abd f155 293d 6db9 1cbd 8bd8 0dbd
00000210: aeda 8d3d 47b0 c73d 6d02 91bd 8bb7 a4bd
00000220: 0634 2d3d 7f13 913d 8463 bd3d e55c a6bd
00000230: adf4 9f3d 09a3 ba3d fdea 2b3d e97e 4a3d
00000240: af30 89bd ff89 493d 29f1 8f3d a89b c33d
00000250: d914 3dbd 3b6b c23d d332 1d3d c148 a33d
00000260: 305e 6cbd 9376 48bc b007 07bd 6df9 c0bd
00000270: 4bb6 80bd ccba 643c 1f06 273d 9337 dd3c
00000280: 438a fabc 99a8 8f3d 0cf6 92bd b4bd c0bc
00000290: bbed c4bd 7b4e 033c c078 95bd 3612 33bd
000002a0: 5efe 653d 70c5 993d 1eca 263d 93f3 57bd
000002b0: 052c 35bb 14ee 84bd 47b4 2abd cb3e 99bc
000002c0: f0ec 303d aa4c 8cbd b8fc 0cbd 32ae d13d
000002d0: f05d 543d 2fe6 6d3d 26b6 433d 485c cabc
000002e0: 2c9f 71bd dfce debc 76bf 92bd d592 54bd
000002f0: fcf1 003c e77f d73c d0d0 bf3d 1736 8f3c
00000300: 832d 99bd 7821 a5bd 0483 9b3d e717 70bd
00000310: f216 92bd 0651 ef3c 1e2d 4d3d d82e d13d
00000320: 0d18 87bd ef66 553d c81f 89bd 816c 483c
00000330: 4d6d 173c f038 acbd 3514 d13d 6dc0 9d3d
00000340: 6acf 94bc f027 b5bd 77be b23c caf0 ba3d
00000350: 980a 6abd 489b a43d aef1 7abd fe1e a93d
00000360: a1e3 c1bd 02dd dd3c 1b06 40bd b5ec af3c
00000370: 9624 423d da0b 743d 0788 0ebd efd7 a1bd
00000380: 0735 d53c 088f 0c3d 2157 493d 0a37 c43d
00000390: 8163 86bd 671f 5ebd f59a c7bd 1143 ca3d
000003a0: b08f 80bd 312d 913d b153 1dbd 6754 82bd
000003b0: be12 433d d4a5 7e3d c9b6 ba3c c418 9a3d
000003c0: facc 913c fe1f a63d 8865 693d 7d70 aa3d
000003d0: f3d0 9a3d e286 2fbc f976 9d3d 0417 5f3d
000003e0: 327d 213d 5a55 6b3d 333e 5d3c c542 bcbd
000003f0: 109d d0bd 7672 c2bd 1098 03bb 6ddc d33d
0.2081061 -0.25628185 -0.21920532 -0.31411502 -0.022608181 -0.11006954 0.08151174 -0.1113293
-0.26362073 -0.07918897 -0.05028731 0.21427958 -0.053990558 0.10683189 0.007855916 0.16503035
-0.13123666 0.1587052 -0.13822009 -0.15941113 0.12648183 -0.21397303 0.15833773 0.08169948
0.18559663 -0.22792576 0.14721619 0.024947789 -0.025379265 0.17390311 0.06369241 -0.12890479
-0.12940852 0.07097814 -0.041443564 -0.45586237 0.1713172 -0.16963004 -0.14212067 -0.16449448
-0.24103184 0.06783284 0.004955745 0.20137104 0.16161136 0.120666206 -0.07677816 -0.4217675
-0.04683652 0.12213963 -0.17676896 0.109151 0.05115336 0.07620109 0.06512978 -0.21501979
0.061394006 0.17812401 0.09193782 -0.03939991 -0.59634787 0.21755601 0.11068021 0.21185417
-0.1418438 -0.013565046 0.10636666 -0.17506136 -0.13068777 -0.2518078 0.12218057 0.0009569291
-0.13115592 -0.0028468594 -0.057843067 -0.1529729 0.2018297 -0.12092768 -0.02368105 0.06878624
0.18037285 0.124614224 0.13177665 0.14795715 0.12647912 0.11115981 0.1215571 -0.11686802
0.20304233 0.055713527 0.08236546 0.16674598 0.025528913 0.10052399 -0.14069161 0.18801801
-0.028540313 -0.05994151 -0.008823458 0.11561417 -0.078439295 0.15336065 0.11293406 0.03796635
0.07216506 0.07667397 0.12210953 -0.02086918 -0.23244582 0.095312975 -0.011614888 0.06549349
0.3431074 -0.07844741 0.039199185 -0.09176307 -0.10196569 0.1575722 0.12305251 0.0060065915
0.13812433 -0.17421862 -0.15559521 0.11762436 -0.07992853 -0.10211545 0.22858718 0.13619049
-0.037635777 0.041341726 -0.038262773 -0.03463034 0.069264755 0.09750419 -0.07080541 -0.080428205
0.04228594 0.07083797 0.09247497 -0.08123187 0.0781034 0.09113128 0.04197215 0.049437437
-0.06698739 0.04920387 0.070284195 0.095511734 -0.04616246 0.09493109 0.038378548 0.07972861
-0.05770701 -0.012235302 -0.032966316 -0.09422574 -0.062847696 0.0139605515 0.040777322 0.027004039
-0.030583506 0.07014579 -0.07175836 -0.023527957 -0.09615656 0.008014317 -0.07298422 -0.04371854
0.056150787 0.07508361 0.040720098 -0.052722525 -0.0027644646 -0.06490722 -0.041675832 -0.0187067
0.04319471 -0.0685056 -0.0344207 0.10238303 0.0518474 0.05808085 0.047781132 -0.024702206
-0.05898969 -0.027198253 -0.071654245 -0.051897842 0.007870194 0.026306106 0.09366 0.017481847
-0.07479384 -0.08063024 0.075933486 -0.058616545 -0.07133283 0.02921344 0.050091855 0.10214013
-0.06596384 0.05210012 -0.06695515 0.012232901 0.009242368 -0.084092975 0.10208932 0.07702718
-0.018165309 -0.08845508 0.021819336 0.09127958 -0.05713901 0.0803743 -0.06126564 0.082578644
-0.09467245 0.027082924 -0.046880823 0.021475175 0.047398172 0.059581615 -0.034797695 -0.07902514
0.026026262 0.034316093 0.04915536 0.0958081 -0.065619476 -0.054229166 -0.097463526 0.09876073
-0.06277406 0.07088698 -0.038409892 -0.06363755 0.047625296 0.062169865 0.022792237 0.07524255
0.017797936 0.08111571 0.056981593 0.08322237 0.07559385 -0.010713311 0.07688708 0.05446531
0.039426036 0.057454444 0.013503599 -0.09192423 -0.10186207 -0.09494488 -0.002007965 0.10344777

net.6.bias f4 [2]
00000000: 0a69 35ba d4f9 35bd
-0.0006920254 -0.044427708
