model/MgAgSb.pth (torch, 139928 bytes, 8 tensors)

net.0.weight f4 [128, 6]
000000 67 5d 9a bd 5d 32 a3 be 18 a4 ec bd 67 dd 6c 38
       -0.07537346 -0.31874362 -0.11554736 5.647298e-05
000010 aa 1e 9c 3e 79 81 ce 3e b4 c7 95 be 83 9e 3c be
       0.30492145 0.40333155 -0.29253924 -0.18419842
000020 ba d1 7f 3e 7f b0 51 3e 24 1d 8f 3e 28 27 9b 3e
       0.24982348 0.20477484 0.2795192 0.3030331
000030 48 79 fa 3d 69 fb cd 3d be 79 e5 be 26 c8 79 bd
       0.12230164 0.10057718 -0.44819444 -0.060981892
000040 e7 45 8e 3e 0d da a8 3d 0b e9 c3 3e 33 f3 b1 3e
       0.27787706 0.08244715 0.38263735 0.3475586
000050 8f 8c 3b be 0e fb 83 3d 78 aa 8d 3e 9e 4c a3 be
       -0.18315338 0.06444369 0.2766912 -0.31894392
000060 94 fb 8f 3e c5 93 66 3e 2e b2 b7 be 22 92 ad be
       0.28121626 0.22517307 -0.35878128 -0.33900553
000070 32 da 9c be c2 15 6d be fd ee 24 3e cf d0 ad 3e
       -0.3063522 -0.23152831 0.16106792 0.3394837
000080 34 4a 10 be f7 22 86 be 28 e5 cf bc e8 8f 99 bd
       -0.14090806 -0.2619855 -0.025377825 -0.07498151
000090 9b c3 a0 be 51 e9 7b 3d fc c0 c1 3e 30 aa 23 be
       -0.31399235 0.061501805 0.37842548 -0.1598289
0000a0 2f 7a eb 3b 01 72 78 be a0 1a 00 3e 7d d9 8a 3e
       0.0071861963 -0.24262239 0.12510157 0.27119055
0000b0 32 c6 aa bd 70 89 a2 3e c1 dc 34 be 23 be c0 3e
       -0.08338584 0.31745481 -0.17662336 0.37645063
0000c0 72 06 45 3c 96 06 8a 3e b6 b7 b1 be da 2a 98 be
       0.012025462 0.2695815 -0.34710473 -0.29720193
0000d0 ea 6d bb 3d 1a 97 04 3d 36 f8 22 3b 96 85 3c 3e
       0.09151824 0.032370664 0.0024867184 0.18410334
0000e0 94 0f 86 3e 3a 35 88 3e 29 b1 dd be dd f7 e4 bc
       0.2618376 0.2660311 -0.43299225 -0.027950222
0000f0 47 2a b0 3e f1 da 86 be ae 1a 21 3e 09 8a 03 bf
       0.34407255 -0.26338914 0.15732834 -0.513825
000100 6a db b5 be 93 48 06 be 87 b0 4a be 50 48 ca be
       -0.35518962 -0.13113622 -0.19793902 -0.39508295
000110 29 81 37 bb 43 83 7b be 3c d4 73 be 28 3e e6 be
       -0.002800057 -0.24561791 -0.2381143 -0.44969296
000120 4c 26 eb be 08 a4 eb be ca e6 9b 3e c7 5c 9d be
       -0.45927656 -0.46023583 0.30449516 -0.30734846
000130 e4 0e 72 3d 2e 12 2e be d3 56 41 3e 34 1e cd 3d
       0.059096232 -0.16999123 0.18880777 0.100155264
000140 de 5e d3 be 8b 0e 0d 3e b0 d4 b2 be 30 0b 0d 3e
       -0.41283315 0.13775079 -0.34927893 0.13773799
000150 8f f8 bd bc e1 9c 8a be 15 90 1b 3e dc 95 4d 3e
       -0.023189811 -0.27072814 0.15191682 0.20076698
000160 c8 1e 8d be ff b5 d7 3d 8d f4 ec 3d 92 f4 48 3c
       -0.27562547 0.1053276 0.11570082 0.012265341
000170 d6 ba 6c 3e 62 e1 e0 bd 28 eb eb bd d0 8e cc 3e
       0.23118147 -0.10980488 -0.11519462 0.39952707
000180 6f 46 03 be 16 94 e6 bd c7 53 b1 bb f6 95 08 3d
       -0.12819837 -0.11258714 -0.0054115984 0.03334614
000190 15 9c 20 3e 42 90 e2 be 11 b9 67 3e 3b 76 5f be
       0.1568454 -0.44250685 0.22629191 -0.21822445
0001a0 e2 94 b7 3e fd f6 8d be 1f 84 7a 3e 0d 2d 6e 3e
       0.35855776 -0.277275 0.24464463 0.23259373
0001b0 4b 22 f6 be f9 48 13 bf 55 9a db bd 89 4a a7 bc
       -0.48073038 -0.5753322 -0.10722796 -0.020421283
0001c0 b6 74 59 3e f7 95 ea 3c e6 ca 05 bf ad 56 1e bf
       0.21235928 0.028635962 -0.52262723 -0.61851007
0001d0 0b b9 6d 3e 69 ee 90 3e d9 ab 98 be 89 d5 bf be
       0.2321512 0.28306893 -0.2981861 -0.37467602
0001e0 b6 10 2b be 57 d9 3a bd b6 17 60 be 7f 88 e5 3e
       -0.16705593 -0.045617428 -0.21884045 0.448307
0001f0 12 3b 9e 3d fc 10 20 be e6 7c 1b be 37 8d f8 3e
       0.077261105 -0.15631479 -0.15184364 0.48545238
000200 02 de ed be fe ce fc 3e af 2b b2 be b0 05 ae be
       -0.4645844 0.49376673 -0.34798953 -0.33988714
000210 16 3e 7e bd 44 31 d9 be f0 f2 8d be 84 f8 53 3d
       -0.06207093 -0.424204 -0.2772441 0.051750675
000220 72 14 6f be c8 29 ae 3e ab 73 e8 bd bf d1 c2 3e
       -0.23347643 0.34016252 -0.11350187 0.3805065
000230 ed 03 d6 3d 3e 4b 79 be 13 f7 10 3e 55 9a a3 be
       0.104499675 -0.24345109 0.14156751 -0.31953683
000240 85 5d f0 3d 57 64 29 be ad 71 a3 3e ac 41 47 3e
       0.117365874 -0.16542183 0.31922665 0.19458646
000250 07 fa f9 3b eb 0a 68 be a4 9e 63 be 2d 9e 88 3d
       0.0076286825 -0.22660415 -0.22228485 0.06670795
000260 33 79 3d be f7 6a 1c 3e bf 7b 6e be 1d 94 44 be
       -0.18503265 0.15275179 -0.23289393 -0.19197126
000270 73 13 4e be 81 de 60 be 4f 10 a8 3e a6 7f d1 3d
       -0.20124607 -0.21959879 0.32824942 0.10229425
000280 ea 13 a3 3e 45 e4 78 be d7 f7 bf 3e 91 bc 18 3d
       0.3185113 -0.24305828 0.37493774 0.037289206
000290 fb 95 98 bd d3 91 66 be 7b 67 d0 3e a5 b9 ba be
       -0.074504815 -0.22516565 0.4070395 -0.3646976
0002a0 ab d3 27 be 33 b1 48 3e 55 52 8d 3e e3 7e d4 3e
       -0.16389339 0.19598846 0.27601877 0.41503057
0002b0 3d 97 ab 3e fa 8d 2b be 7d 4a ca 3e f5 df 92 be
       0.33513823 -0.16753379 0.39509955 -0.2868649
0002c0 d1 9b d4 be e5 20 d7 be 6a ac a8 3e 88 79 b8 be
       -0.41525128 -0.42017284 0.32944041 -0.3603022
0002d0 36 2b 91 3e 93 4e b9 bd 18 4c f6 3c 4a d2 ca 3d
       0.2835328 -0.0904819 0.030065581 0.09903391
0002e0 b9 aa bb be b2 b4 2d bd 15 40 8f 3d ce 4c 15 bc
       -0.3665369 -0.042408653 0.069946446 -0.00911255
0002f0 2a 87 36 be 4b 30 ce 3d 36 46 d6 be cb 37 84 be
       -0.17824998 0.10067805 -0.41850442 -0.25823817
000300 54 b5 8e 3c 73 d1 cb be ee d3 8b be db 10 1d 3e
       0.017420448 -0.39808235 -0.27310127 0.15338461
000310 cd 89 48 3e e4 91 3b 3e 01 6a a6 3d 91 2b 33 3e
       0.19583817 0.18317372 0.081256874 0.17497088
000320 32 ea 58 be c7 e0 74 bd a3 0d 8b be b4 43 de be
       -0.21183088 -0.059784677 -0.27158841 -0.43411028
000330 d8 b0 57 3e fe ea fa bd 4a 36 a9 be 5d c4 71 3d
       0.21063554 -0.122518525 -0.33049232 0.059025157
000340 97 8a d3 3e d2 4a 4f be 0d 71 ca bd 50 b9 87 be
       0.41316673 -0.20243385 -0.09884844 -0.2650857
000350 de 36 94 3d 8c 2e 63 3d 5e e4 4a 3e 69 2f 9c be
       0.072370276 0.055464312 0.19813678 -0.3050492
000360 35 1c 0e be 64 4b f0 bd 98 c0 a9 3e d7 64 85 3d
       -0.13877948 -0.117331296 0.3315475 0.06513374
000370 02 11 3b be f0 bb a6 bc 0c 1b 07 3e eb 68 6b 3e
       -0.18268207 -0.020353287 0.13193911 0.22989242
000380 12 3f b3 be 7e d6 ad 3e 4d 62 84 3e d4 f8 c7 be
       -0.35009056 0.33952707 0.25856248 -0.39057028
000390 4b b0 8c 3e 83 6d b4 3e 58 8c d4 bd 54 4f b0 3e
       0.2747825 0.352398 -0.10378331 0.34435523
0003a0 03 11 71 be 52 99 8a 3e 2b 93 4b be 8f fb b0 3d
       -0.23541646 0.270701 -0.19880359 0.08641731
0003b0 23 2a a6 be d0 86 c2 3e 4a 26 4c be 5b ad de bd
       -0.32454023 0.3799348 -0.19936481 -0.10872909
0003c0 76 d8 b8 be e4 dd 38 be c7 6f 66 3b 45 62 c3 be
       -0.36102647 -0.18053395 0.003516184 -0.3816091
0003d0 50 b5 08 3e 91 7e cb 3e af 8f bb 3e 1f 8a 1b 3e
       0.13350415 0.39745 0.3663306 0.15189408
0003e0 f2 1f 3f be 3f 51 83 3e 4d 14 9d 3e f4 07 04 3c
       -0.1866453 0.25647923 0.3067955 0.008058537
0003f0 04 de d4 3e 12 42 ce 3d c7 ac 87 3d d9 a5 07 be
       0.41575634 0.10071196 0.066247515 -0.1324686

net.0.bias f4 [128]
000000 cf 2c 06 bd f4 93 ba be a4 9c b5 bd 69 fc 9f be
       -0.032757577 -0.36441004 -0.088677675 -0.3124726
000010 e3 77 8d 3d 7f 58 82 be 31 54 22 3e b7 28 cb be
       0.06907632 -0.25458142 0.15852429 -0.396795
000020 71 fa bc 3e 8e 4c bb 3e a2 e7 cd be 4a 06 95 be
       0.36909822 0.36581844 -0.40215784 -0.2910636
000030 44 da 9c be 63 b2 dc be 1f d9 29 3e d7 47 a4 be
       -0.30635273 -0.43104848 0.16586731 -0.3208606
000040 7e bc d9 be f0 13 2a 3f 14 2e 13 bf 80 db 05 bf
       -0.4252662 0.6643667 -0.57492185 -0.52288055
000050 43 66 9c be a7 66 e0 3d 3c d8 20 bc cb 44 40 3e
       -0.3054677 0.109570794 -0.009817179 0.18776242
000060 38 80 4c 3e 1c c6 9e be b9 d1 41 bd bb b6 a8 be
       0.19970787 -0.3101052 -0.047319148 -0.32951912
000070 7a 6b 77 3e 89 c0 64 be de f4 af be 33 61 cb 3e
       0.24162093 -0.22339071 -0.34366506 0.39722595
000080 b2 b3 b6 3e 9a d3 3b 3f 70 47 8f 3e 11 19 6d 3e
       0.35683972 0.73369753 0.2798419 0.23154093
000090 9a 85 a4 3d 49 79 b4 be a3 6c 8f be 1d ac be bd
       0.08033295 -0.35248783 -0.2801257 -0.09310172
0000a0 f4 8f de bc 1e 1f bc be 1a 07 d0 be bd 7b 4e bd
       -0.027168252 -0.3674249 -0.40630418 -0.050410975
0000b0 d9 09 b4 bd a0 4f 2b 3e 65 6c 3f 3e 76 ed 80 be
       -0.08790941 0.16729593 0.18693693 -0.25181168
0000c0 f1 7f bb bd 78 7f b3 3e 1a 4d 94 3e c6 5d a0 be
       -0.09155262 0.35058188 0.28965074 -0.31321543
0000d0 d9 70 74 be e8 88 ad 3e c0 c2 f3 3e 0d 5f a3 bd
       -0.23871173 0.33893514 0.4760952 -0.07977114
0000e0 27 ed 62 3e 7a 8a 5e 3e f8 d7 0f 3e 31 7b b8 3d
       0.22160779 0.21732512 0.1404723 0.09007872
0000f0 97 a6 f5 ba 59 15 a7 3e 48 6d 8f 3e 60 47 a4 be
       -0.0018741664 0.32633474 0.28013062 -0.32085705
000100 3f b7 bc 3e 82 f4 5e 3e 54 f2 87 3e e3 e9 d3 be
       0.36858556 0.2177296 0.2655207 -0.4138938
000110 4b 16 ae 3d ed 22 ee be 64 3e a7 3e 84 3a 4f be
       0.08500346 -0.4651102 0.32664788 -0.20237166
000120 22 d0 d6 be d9 c7 15 bd 0a 37 dd 3e 7f 0d e8 3e
       -0.41955668 -0.036567543 0.43206054 0.45322797
000130 72 33 9e be a3 43 d8 be ac ee 8f bd 02 c0 b6 be
       -0.30898625 -0.42239103 -0.07027945 -0.35693365
000140 2c e8 5b 3e 87 27 5f bd d5 8b 9c be 60 cf 70 be
       0.21475285 -0.054481056 -0.30575433 -0.23516607
000150 8a b5 e1 3e c6 65 2e be 4c 6b 22 be 63 c9 b7 be
       0.44083816 -0.17031011 -0.15861243 -0.35895833
000160 5b e3 33 3e 73 5f 73 be 4e fd a8 be f3 4c b6 be
       0.17567198 -0.2376688 -0.33005756 -0.35605583
000170 91 b1 54 bd d2 11 59 be c4 49 ac 3e 2b f7 91 3e
       -0.051927153 -0.21198204 0.3365003 0.28508887
000180 8e a9 45 be 62 8a 62 3e 3d a4 f1 bd e9 3a 8a 3e
       -0.19302961 0.22123101 -0.11798904 0.2699807
000190 29 07 32 3f d5 9b 1c 3d 32 20 ca be c4 ce a7 3d
       0.69542176 0.03823455 -0.39477688 0.08193734
0001a0 80 43 e7 3d 44 2a 4e 3e d8 73 00 3e 4e 98 88 bc
       0.112921715 0.2013331 0.12544191 -0.016674187
0001b0 6f 43 ac be 6b fc e9 3d 17 1c 0d 3e 05 e4 c6 3e
       -0.33645198 0.11425098 0.13780247 0.3884584
0001c0 5e d3 6c 3e fc e6 9b 3c 38 a5 24 be a2 3b b9 be
       0.23127505 0.01903104 -0.16078651 -0.3617831
0001d0 b4 6f 0b be 1a 1d ea bd 8e 3d f7 3d 4b f6 fd be
       -0.1361683 -0.11431332 0.120722875 -0.4960197
0001e0 8f 8e 69 bd be bb fa bd 52 47 90 3e 33 fa 0f 3f
       -0.05702072 -0.1224284 0.28179413 0.5624115
0001f0 de 88 39 3e 2d 57 64 3d 7d 02 a7 bd 5d ab c4 3e
       0.18118617 0.0557472 -0.081547715 0.3841199

net.2.weight f4 [128, 128]
000000 04 c4 a5 bd 28 2a dd bd 90 2d a3 3d b2 55 d6 3c
       -0.08094028 -0.10799056 0.07967675 0.02616391
000010 0e 3b 53 3d ed c5 1e bc cb 7e 8c bc b3 7e 2c bd
       0.05156999 -0.009690744 -0.017150303 -0.042113017
000020 3a 1a c6 3d 1c 53 8f 3c b1 19 7c 3d 41 f7 9d bd
       0.09672971 0.017495684 0.06154794 -0.077131756
000030 51 f7 95 bd 47 49 61 bd 1d d4 99 bd 30 b4 59 3b
       -0.073225625 -0.055001523 -0.075111605 0.0033218972
000040 e7 3c 2b bd 80 12 95 3d 19 02 83 3d 34 e2 07 3d
       -0.041806128 0.07278919 0.063968845 0.03317471
000050 c4 0c da bb 80 68 10 3d 6c ae fc bd 2d 56 ff 3d
       -0.006654354 0.03525591 -0.12337956 0.124676086
000060 81 d9 a6 3d 51 5c ee 3c 63 f3 80 bd b4 a2 11 bd
       0.08146954 0.029096754 -0.06296422 -0.035555556
000070 c6 b1 4d 3d a0 c9 fa bc a1 a6 01 be 79 c8 f8 bc
       0.050218366 -0.03061372 -0.1266122 -0.03036903
000080 21 46 2b bd b6 4b 16 3d 0b 73 86 3c 3c f0 ad 3d
       -0.041814927 0.036693297 0.016412279 0.08493087
000090 ee 89 e5 3c 71 ab 5f 3d 9c e3 3e bd 5a 7c a2 bd
       0.028019872 0.05460686 -0.046603784 -0.079338744
0000a0 17 c9 9d bd 99 d1 5d bd 0c 06 5f bc 85 26 e0 bd
       -0.077043705 -0.054154966 -0.0136122815 -0.10944847
0000b0 59 92 37 bd 5e 7d c3 bd 81 c5 a6 bb b5 0b a1 bd
       -0.044817302 -0.09545396 -0.0050894623 -0.07863561
0000c0 b7 2a 9f ba 4e c3 60 bd e7 24 df 3c 34 51 ca ba
       -0.0012143467 -0.054873757 0.027239276 -0.0015435577
0000d0 c6 55 90 3c 40 45 92 3d 6a bc da bd a3 97 a7 bd
       0.017619025 0.07142115 -0.106804684 -0.08183219
0000e0 87 a9 84 bd 08 8f ee bc 12 40 7e bd 6c 14 88 bd
       -0.06477647 -0.029120937 -0.06207282 -0.0664452
0000f0 0e 0c 34 3d ed 07 3a bd 72 a6 42 3d 8a 50 e8 bd
       0.04395681 -0.045417715 0.047522016 -0.113434866
000100 97 87 9f 3d fa 62 36 bd 5f 20 51 bd c9 2a a0 bd
       0.077895336 -0.044527985 -0.051056262 -0.078206606
000110 17 52 a6 bd 3f af 5b 3d aa aa e8 3c 6f ff fc 3b
       -0.08121126 0.053633925 0.028401691 0.0077208797
000120 b2 87 a3 3c 00 53 ad 3d 32 c0 ab 3d 77 e2 ac bc
       0.019962166 0.084630966 0.08386268 -0.02110408
000130 06 ae 9e bd e5 a5 8a bd 58 a8 1f bd c5 0b 1f bd
       -0.07748036 -0.06769923 -0.038978904 -0.038829584
000140 83 74 ed 3c d9 a4 82 bc e2 fb 73 3d f7 d1 d1 3c
       0.028986221 -0.015947746 0.059566386 0.025612814
000150 7c 89 67 bd fd 86 99 bd 39 45 ab 39 0f b0 94 3d
       -0.0565276 -0.0749645 0.00032667237 0.07260143
000160 42 81 65 bc 0a d2 08 be 96 54 9d 3c 9c 09 15 bd
       -0.014007868 -0.13361374 0.019205373 -0.036386117
000170 87 c9 e8 bc e2 1e d7 bc 85 56 fe 3d 9c d5 4c 3c
       -0.028416408 -0.026259843 0.12418846 0.0125021
000180 19 4e e7 3c ec 55 1f bb e2 f1 c4 bd 2b 13 e6 3c
       0.028235482 -0.0024312688 -0.09616448 0.028085312
000190 6e 2c d8 3c 7a 23 02 be 25 84 96 3d 4c b1 3c bd
       0.026388373 -0.12708846 0.07349423 -0.04606752
0001a0 9d 95 74 3d 53 61 0a 3d a5 c8 8d bc 71 ec 5c 3d
       0.059712995 0.03378422 -0.017307589 0.053936426
0001b0 f0 32 1c bd d4 37 ab 3b 1b a5 8d 3d 94 cd a0 ba
       -0.038134515 0.005225161 0.06916257 -0.0012268298
0001c0 08 8a c5 3c 4e 70 dd bd df f5 8b 3d c5 e8 2e bb
       0.02411367 -0.10812436 0.068340056 -0.0026689034
0001d0 4e 72 b9 3a d2 2b ff 3c 3b 98 14 bd f9 e6 f4 bd
       0.0014148445 0.031148825 -0.03627799 -0.11958117
0001e0 02 af 26 bd d2 cf 28 3d 28 48 22 bc 0c fd 5f bb
       -0.040694244 0.041213818 -0.009904899 -0.0034177927
0001f0 17 99 0a 3e 9c 47 77 bc 32 7f fa 3c 04 25 88 bd
       0.13534962 -0.015092757 0.03057823 -0.06647685
000200 89 4a 6a bd 7a 09 51 bd 3e 3b 05 bd 37 b2 6c 3d
       -0.05719999 -0.05103443 -0.0325272 0.057787146
000210 9f 79 2d bd 6f 3f 73 bd 93 f2 3b 3d d4 de 9a bd
       -0.042352315 -0.059386667 0.045885634 -0.07562032
000220 5a cd 08 bd 0c 57 0a bd be 05 af 3d eb f9 d3 bd
       -0.033398964 -0.03377442 0.08546017 -0.103504024
000230 64 be 0a bd 57 5a b6 3d 31 f2 e8 3c 36 54 b5 bb
       -0.033872977 0.0890395 0.028435798 -0.0055337204
000240 de 12 93 bd 3e 24 57 3d dc 9e 39 3c 91 25 95 bd
       -0.07181333 0.052524798 0.011329379 -0.07282556
000250 a3 a2 c5 bd db 0c 17 3d 20 45 73 3d 02 c3 36 3d
       -0.09650161 0.036877494 0.059392095 0.044619568
000260 46 c8 b1 bc 4d d9 a3 bd de 2a 44 3d 38 47 09 3d
       -0.021701943 -0.08000431 0.047892444 0.033515185
000270 aa 99 dd 3c 82 26 62 3c 27 3e 02 be 0e 97 a2 3d
       0.027050812 0.013803126 -0.12719022 0.07938968
000280 7a 41 b0 3d fe 4b f9 3d 36 d5 14 3e df f4 92 bd
       0.08606239 0.121726975 0.14534459 -0.07175612
000290 5a fc 6a 3d 2a d6 7d 3d d9 d6 c4 3d 4b 0d 7d 3d
       0.057369567 0.06197182 0.096112914 0.061780255
0002a0 c7 54 ea bc c0 d8 5f 3d 97 4d 70 3d 7d 69 6c bd
       -0.028604878 0.05465007 0.058667745 -0.05771779
0002b0 85 d4 1c bd 15 a4 55 bd ba 53 23 3d 16 f3 12 bd
       -0.038288612 -0.052158434 0.03987477 -0.035876356
0002c0 c1 70 a4 3d 39 bc 82 3d 79 4a a5 3c 11 21 20 bc
       0.080293186 0.06383557 0.020177113 -0.009773509
0002d0 98 65 b4 bd 82 f9 e6 b9 91 24 d5 3c 6c bf 73 3d
       -0.0880844 -0.00044054916 0.026018413 0.059508726
0002e0 67 bc d0 3d 4e 26 9a bd 94 d3 b8 3a 06 7f 84 bc
       0.10192185 -0.07526837 0.0014101141 -0.01617385
0002f0 72 fe bf 3c d3 aa 8e 3d d7 47 0a 3d 7e f0 cd 3c
       0.023436759 0.06966176 0.033759918 0.02513909
000300 80 3d 8b 3d a5 00 89 3c c6 e4 bf bd e9 bf 85 3c
       0.067988396 0.01672394 -0.09369807 0.016326861
000310 b1 59 d8 3b 46 6b 17 bd dc 03 a9 3d 44 47 8b bd
       0.006602489 -0.03696754 0.08252689 -0.06800702
000320 65 7b 27 3d fc dd 5a bd 24 02 de 3d c6 a6 a9 39
       0.040889163 -0.053434357 0.10840252 0.00032358448
000330 7e 2b 89 bd 3d 40 9d 3d d7 1e 92 3d 40 33 91 bd
       -0.066977486 0.07678268 0.071347885 -0.07089853
000340 19 0a 49 bd 80 c7 f9 bc ce 71 d6 bb 3b 4e 82 3d
       -0.049081896 -0.030490637 -0.0065443283 0.063625775
000350 fe d4 e1 bb b9 0d 90 bd 80 bf c6 3d c7 8e a1 bc
       -0.0068918457 -0.070338674 0.097044945 -0.019721402
000360 c2 98 88 bd e5 80 f1 bd 1e a6 80 bd 7f 46 12 bd
       -0.06669761 -0.11792163 -0.06281684 -0.03571176
000370 e3 cc 8f bd b4 de 1c 3d b8 e0 f1 bc 8e 2a 08 3c
       -0.07021501 0.038298324 -0.0295261 0.008310927
000380 b8 2b 0f bc 3e 91 c1 3d 8d c1 17 bd 81 e1 4b 3d
       -0.008738451 0.09451531 -0.03704982 0.049775604
000390 00 df a9 3d e4 b3 67 3c 3f 49 87 bc 3a e9 4e 3b
       0.08294487 0.01414201 -0.016514419 0.003157212
0003a0 6c 04 a7 3d 8d 20 6b bc 54 74 26 bc 11 72 8f 3c
       0.0815514 -0.014351022 -0.010159571 0.017510446
0003b0 2c d2 b4 bd 8e 2c 5c 3d 67 b9 61 3d 77 d0 2f bd
       -0.088291496 0.05375343 0.055108454 -0.042923417
0003c0 0a 99 9b 3d 9d d8 f0 bd 82 9e 6a 3c 9b 59 e1 bc
       0.07597549 -0.11760066 0.014320018 -0.027508548
0003d0 cd b9 36 bc 97 0b 18 bd 16 f2 aa bc c0 f4 85 bd
       -0.011152697 -0.037120428 -0.020867389 -0.06540823
0003e0 9a 61 9f bd 01 11 97 bd 48 5e f4 bc ae 75 46 3c
       -0.07782288 -0.0737629 -0.029830113 0.012113018
0003f0 64 d3 cf bc 04 5b 96 bc 72 66 15 3c 15 f3 11 bd
       -0.025369354 -0.018353947 0.009118663 -0.03563221

net.2.bias f4 [128]
000000 a5 e1 d4 3d 3c 65 e7 3d 61 31 b2 3b 90 bf 70 3d
       0.10394601 0.11298606 0.0054380153 0.05877644
000010 af 5c 09 3e d1 ac 70 3d 2a 42 a3 3d 8d ee 9e 3d
       0.13414262 0.05875856 0.07971604 0.07760344
000020 ad 64 51 3d e2 e3 12 3d b9 2b 0e 3b b2 5c ea 3c
       0.051121403 0.035861857 0.0021693541 0.028608654
000030 4a ee 04 3d 35 5f 6c 3d 09 df 15 bd 5a 56 c4 3c
       0.032453813 0.057707984 -0.036589656 0.023966957
000040 f3 52 a2 3d 11 d0 25 3d d7 69 8a 3d d3 9e e6 b8
       0.079259776 0.04048163 0.067584686 -0.00010996838
000050 95 75 8a 3d be 69 93 bd ba ae d5 bc 1b 3e 03 3d
       0.06760708 -0.07197903 -0.026084293 0.03204165
000060 4d e9 ff 3d 01 3a ee 3d db 86 0d 3c de 6c 15 3d
       0.124956705 0.11632157 0.008638109 0.036480777
000070 ac 10 22 3d 77 59 a2 3d 13 15 a9 3d 49 0b 32 3e
       0.03956668 0.0792722 0.08255973 0.17387117
000080 e7 c1 d0 bc c5 b3 aa be 02 c1 65 bd 11 25 91 3d
       -0.025483085 -0.33340278 -0.05609227 0.07087148
000090 ea 62 68 3c c0 b8 c8 3b ae c8 06 3e bd e6 8c 3d
       0.014183739 0.0061255395 0.1316249 0.06879947
0000a0 c4 db 9a bd 7c c9 bc bc 6e 80 89 3d 8d b0 32 bd
       -0.07561448 -0.023045294 0.06713949 -0.043625403
0000b0 87 fc 1d 3c 19 8b fd bc ca 1b a1 bc 11 82 ff 3c
       0.009642727 -0.030950116 -0.019666571 0.03118995
0000c0 89 ba 01 3d 55 63 4f bd f5 1f eb 3d 5f a4 11 bd
       0.031672034 -0.05063184 0.11480705 -0.035557147
0000d0 90 c8 ce bd cf 72 c5 3d 8c 35 37 bc 2c 92 2b 3b
       -0.10096848 0.096410386 -0.0111822 0.0026179655
0000e0 0a 71 65 3d 2b 64 07 3e e1 25 25 bd bb e9 a4 3d
       0.056016006 0.13221805 -0.040319327 0.08052393
0000f0 c4 0f 83 3c ea 98 4e bd 9f 15 81 bc 2d 5e ba 3d
       0.015998729 -0.0504388 -0.01575738 0.09099994
000100 2c af 85 3d f5 9e 03 3d fd a6 59 bb cb 5a f7 bc
       0.06527552 0.032134015 -0.0033211105 -0.03019466
000110 78 02 28 3d 4c 28 e8 3d cf 90 80 bd a2 45 6d bd
       0.04101798 0.11335811 -0.0627762 -0.057927735
000120 49 14 90 3c c3 fb a6 bd 2a 6a 9d bd 75 90 f5 3b
       0.017587798 -0.081534885 -0.07686265 0.0074940273
000130 ad 28 d6 3d 95 90 04 bd 2c a9 2e bb f3 91 e2 3d
       0.10456977 -0.032364447 -0.0026651127 0.11062994
000140 9f 56 b1 3d 11 aa bf bd 2f 34 28 bc 14 81 57 3e
       0.086591 -0.093586095 -0.010266348 0.21045333
000150 46 1d 3f 3d 41 6a 0b bc 2b 9f 69 3c 07 af 4c 3b
       0.046658777 -0.00850922 0.01425914 0.0031232254
000160 9d d4 48 3d e5 7e 18 be d5 70 ec be c4 73 1d 3e
       0.04903089 -0.14892156 -0.46179834 0.15376192
000170 6c 03 7e bd d6 ba a2 3d 63 1f 5a 3c a0 db d4 bd
       -0.062014982 0.079457924 0.013313147 -0.10393453
000180 60 64 ca 3d 49 db 30 3e 9a 34 28 bd 04 a6 09 3d
       0.09882426 0.1727115 -0.04106579 0.03360559
000190 d2 52 e9 3b 2e 12 02 be 83 4c 7b bd 0b 02 2a 3d
       0.0071204687 -0.12702248 -0.061352264 0.041505855
0001a0 9b 2f b7 bc 93 95 20 bf 6e cc d8 3b a9 8b 96 3d
       -0.022361567 -0.6272823 0.006616167 0.07350857
0001b0 fd 71 4a bd f8 06 75 bc 15 b5 cc bb 2f ad 9a bc
       -0.049425114 -0.014955275 -0.0062471726 -0.018881408
0001c0 bc 17 95 3b 79 33 a4 3d 18 fe 07 3b 50 30 f8 3b
       0.0045499485 0.0801763 0.0020750817 0.0075741187
0001d0 77 5d 4d 3d 40 ec 1e 3d 8c d6 90 3d 83 89 7b bd
       0.050137963 0.038799524 0.070721716 -0.06141044
0001e0 fa 35 51 3d 88 dd 64 3d 6a ec 86 3d 3d da 85 3c
       0.051076867 0.05587533 0.06588061 0.016339416
0001f0 9f 42 02 3e a0 ee c9 3d 2c cc 9e 3d 12 a0 34 be
       0.12720726 0.09859967 0.077537864 -0.17639187

net.4.weight f4 [128, 128]
000000 60 6e db bc b1 fb 03 bd ee b6 51 bd 79 c9 87 3a
       -0.02678603 -0.032222454 -0.051199846 0.0010359726
000010 fa 90 8b 3d 97 de 23 3d d5 f0 a8 3d 71 81 a0 bd
       0.068147615 0.0400072 0.0824906 -0.07837189
000020 f4 73 bc bc 0a 39 82 bd 99 fe c1 bd 9d f7 b1 3c
       -0.02300451 -0.063585356 -0.09472389 0.021724517
000030 0d eb 95 39 0b b5 1a bd 8f 7b 91 3d 8e 94 24 3d
       0.0002859462 -0.037770312 0.07103645 0.040180735
000040 c1 f1 22 3d f7 81 11 3d 55 5d 3d 3d a0 08 a6 bc
       0.039781336 0.035524335 0.046231586 -0.020267785
000050 a0 d1 23 3c 2b 70 d8 bb 09 43 6b bd 6c 86 68 bd
       0.009998709 -0.0066051683 -0.057436977 -0.05676882
000060 5d 6b e8 3c 48 84 9b 3c 77 4e d4 bc ce cd 3c 3d
       0.028371507 0.018983975 -0.025916321 0.04609471
000070 2a 0d 4a bd 93 0d c1 bd 16 74 99 3d ec 4e 57 3d
       -0.04932896 -0.09426417 0.07492845 0.0525655
000080 c8 0b 4d 3d fb e7 31 3c 9a 1c 84 3d 9f d9 e8 bc
       0.050060064 0.010858531 0.06450768 -0.028424082
000090 f6 8e 9f 3d df 30 22 bd d7 81 1f 3d d5 97 9a bd
       0.077909395 -0.03959739 0.038942184 -0.07548491
0000a0 64 85 39 3c 44 c0 b5 3b 67 89 ba 3c 44 ff b3 bc
       0.011323307 0.0055466015 0.022770597 -0.021972306
0000b0 6e 54 da 3d 26 b6 46 bc 70 ea b3 bc 63 27 be bc
       0.10660635 -0.0121283885 -0.021962374 -0.02321214
0000c0 78 e6 af bd 33 ac b9 3b bb 18 58 bd ee 05 39 bd
       -0.0858888 0.0056662797 -0.05275796 -0.04517167
0000d0 25 50 1b 3e 3c 09 04 3d 7f 44 a1 bd b3 b1 52 3c
       0.15167291 0.03223537 -0.07874393 0.01285975
0000e0 9d 28 9b 3d bb 70 db bd cb 5e 5c bb c2 d1 6b 3d
       0.07576106 -0.10714861 -0.0033625837 0.057573088
0000f0 06 b0 9d bd 7e 1f 9f bd a7 8d 80 3d da b9 30 bd
       -0.076995894 -0.077696785 0.06277018 -0.04314599
000100 66 f6 06 3d 85 e2 bc bd 98 78 f2 bc 29 5f b9 3d
       0.032949828 -0.09222893 -0.02959852 0.090513535
000110 d8 d7 8c 3d 0b c3 4d bd c7 92 ee 3d db 63 4d bd
       0.068771064 -0.050234836 0.11649089 -0.050144058
000120 fa c5 a1 bd 24 fe 6e bd c8 0b ee 3c 95 47 aa 3d
       -0.07899089 -0.058347836 0.029058352 0.083144344
000130 c2 32 c9 bc 0a 7f ce 3c 08 ed 53 b9 62 e5 7f 3d
       -0.024560336 0.025207061 -0.00020210829 0.062474616
000140 d6 75 70 bd 2c 91 4b 3d 84 49 67 bd 01 8b 9a bd
       -0.058706127 0.049698994 -0.056466594 -0.07546044
000150 04 69 0f bd 16 33 53 bd 37 47 80 3d de 11 75 bd
       -0.03501226 -0.05156239 0.06263583 -0.059831493
000160 02 87 1d bd eb c3 55 bd e8 4d f7 bc 08 c8 95 bd
       -0.03845883 -0.052188795 -0.030188516 -0.073135436
000170 61 66 c1 bd 2f 81 f0 3c b1 ef 88 3d f2 44 27 bd
       -0.09443355 0.029358475 0.066863425 -0.040837236
000180 e4 64 5f bd 1f 5d 9f bd 94 1f 11 bb 34 a5 f7 3c
       -0.054539576 -0.07781433 -0.0022144066 0.030230142
000190 b6 d8 b4 3c 17 02 5c 3e f7 5d 82 bc 6d 51 1b 3d
       0.022075992 0.21485172 -0.015913947 0.03791945
0001a0 17 ba be bd 83 52 e6 bd a9 08 1e bd 3b ea 34 3d
       -0.093128376 -0.112462066 -0.038582478 0.044168692
0001b0 e8 5a f0 3c 2e 7c 85 3d bd 25 cc bd 36 13 e4 3c
       0.029340222 0.06517826 -0.099681355 0.027841192
0001c0 9e d4 ee 3c 88 94 35 3d 8c d6 6f bd 19 f6 22 3d
       0.029154118 0.044331104 -0.058554217 0.03978548
0001d0 5d c5 4c 3d 60 b8 4b bd e6 53 ad 3b 65 3a d1 3c
       0.049992908 -0.04973638 0.0052895425 0.02554054
0001e0 b0 b5 05 3a a8 8d 06 bd e2 07 f5 3b a7 80 47 3c
       0.0005100621 -0.032849938 0.0074777463 0.012176669
0001f0 62 98 04 3d 97 2e c8 bd ee a2 f1 bb 37 09 2a 3d
       0.032371886 -0.09774511 -0.007374159 0.041512694
000200 a9 4b ff bd 81 dc af bd 71 3b 59 bb 7b e8 9f bd
       -0.12465603 -0.0858698 -0.0033147002 -0.07808014
000210 6a 21 13 bd 04 c1 e9 3c 66 13 db 3c 6f a3 e5 3c
       -0.035920538 0.02853442 0.026742648 0.028032033
000220 6e d9 18 bc 6e 1c 36 bc d0 3c c4 bc 4d 00 a0 3d
       -0.009329183 -0.011115177 -0.023954779 0.07812557
000230 1d 14 8d bc 35 e3 21 be 8a de 3e bb 5e 2a 90 3c
       -0.017221505 -0.15809329 -0.0029124343 0.017598327
000240 ae 82 db bd c5 3e e2 bd a9 dc 22 bd 5d a1 3b bd
       -0.107182845 -0.110471286 -0.03976122 -0.045808185
000250 65 77 20 3d 82 9a 13 3c 88 38 ff 3c ee 0d f4 bc
       0.039176363 0.0090090055 0.031154886 -0.029791798
000260 28 d5 03 be d0 df 98 3c bc 36 0c 3d 82 c0 9a bd
       -0.12874281 0.01866141 0.034231886 -0.07556249
000270 dc 23 57 3d 38 2c ed bd f2 43 7c bd 46 7a 9b bd
       0.052524433 -0.115807 -0.061588235 -0.07591681
000280 93 b2 06 bc f2 f2 23 3e 30 61 87 bd 5c fa a1 bc
       -0.008221286 0.16010645 -0.06610334 -0.019772701
000290 d2 70 04 bd 1f 59 b2 bd a1 ec 9e bd 0c ae e6 3d
       -0.032334156 -0.08708405 -0.07759977 0.112636656
0002a0 2d 50 47 bb 9d 35 eb ba 1d 03 2f be 7a 09 da 3d
       -0.0030412779 -0.0017945055 -0.17091031 0.10646339
0002b0 51 58 83 bc ff 7e 1c 3e 08 4f 81 3d f7 12 bf 3c
       -0.016033323 0.1528282 0.06313902 0.023324473
0002c0 dc 21 d3 bc f8 23 e5 bd 9c 3d 5c 3d db f8 28 bd
       -0.025772981 -0.11188501 0.053769693 -0.041252952
0002d0 5c 36 80 3d 4b b8 46 bc 13 45 c5 bb 26 12 81 3d
       0.06260368 -0.0121289 -0.006020197 0.0630229
0002e0 db 70 2b bd ae 63 92 bd 7b 4a 3c bd 1d d3 3c 3d
       -0.041855674 -0.07147919 -0.045969468 0.04609977
0002f0 ac 03 3c 3d 3d 56 2a 3d a1 73 1b 3d ae 1b 37 3d
       0.04590194 0.04158615 0.03795207 0.04470413
000300 a7 31 a3 bd 25 34 12 3b df f7 d9 bd 7a a3 41 bc
       -0.07968455 0.0022308913 -0.10642981 -0.011818761
000310 9d 18 cd b9 0e e5 3f bc 31 03 0b bb 99 5d bb 3d
       -0.00039118985 -0.011712326 -0.002121162 0.09148712
000320 50 76 13 3e 95 03 15 3e 2e c1 17 bd f0 70 65 3d
       0.14400601 0.14552148 -0.037049465 0.05601591
000330 a5 02 ac bd ee 6b 43 3d 81 73 4e bc 41 45 16 be
       -0.08398942 0.04771035 -0.01260078 -0.14674856
000340 43 6c e4 3c 10 de 89 bd 98 8d c9 bb a8 61 3c bd
       0.027883654 -0.06731808 -0.0061509125 -0.04599157
000350 f2 f9 1d bd 27 15 bb 3c 9e 4a 46 3d 8f 40 ab b8
       -0.038568445 0.022837235 0.048411004 -8.1659404e-05
000360 88 11 85 bd 82 d9 2b 3e 86 c4 8f bd 55 e3 7e 3d
       -0.064974844 0.16782191 -0.07019906 0.06222852
000370 5a 99 ec ba 9a b9 09 bd 58 67 96 bd d0 f6 db 3d
       -0.0018051073 -0.03362427 -0.0734393 0.10740435
000380 47 0d 8b bd c6 71 37 bd cd 3b 0c be 8c 2d 0a bc
       -0.06789642 -0.044786237 -0.13694687 -0.008433711
000390 c8 d8 12 bd 4b 27 90 3b 45 70 2e 3d 8f 99 ba 3c
       -0.03585127 0.0043992153 0.042587537 0.0227783
0003a0 c7 ce b5 3c bd 80 c4 be 25 30 24 bd 4a 09 37 bc
       0.022193326 -0.3837947 -0.040084977 -0.011171648
0003b0 e3 9c e3 bc 34 79 a0 bb 4c 06 97 bd 28 e4 b8 3c
       -0.02778477 -0.004897261 -0.07374248 0.02256973
0003c0 b3 c1 49 3d dd 23 27 bd 81 f1 27 3c 4e 8e be bd
       0.04925699 -0.040805686 0.01025045 -0.09304486
0003d0 ef e2 73 bc c3 87 c7 3c 22 15 12 be 22 32 c4 bd
       -0.014885648 0.024356728 -0.14265874 -0.095798746
0003e0 9a 9a c2 bd a4 93 1f 3e 5c 2b 20 ba 91 fd 05 3d
       -0.09502144 0.15583664 -0.00061099767 0.032712523
0003f0 8f 1f ac 3c c1 29 d9 3d b0 3c ca 3d ee 1b 54 3e
       0.021011142 0.10603667 0.098748565 0.2071378

net.4.bias f4 [128]
000000 c4 bf 11 bd 09 03 d4 bc ed 42 60 be 77 8a ad 3d
       -0.035583273 -0.025880354 -0.2190053 0.08473676
000010 fa aa e6 3d 8d 87 79 3d d7 53 4b bd 03 71 93 3d
       0.1126308 0.060920287 -0.049640503 0.0719929
000020 e2 02 80 3d c0 df f3 3b c9 61 65 bd 02 d3 c0 3c
       0.0625055 0.0074424446 -0.05600146 0.023538116
000030 cc a7 9d bd cf fd f7 bc f6 24 03 3d 0a a6 32 bd
       -0.0769802 -0.030272393 0.03201767 -0.04361538
000040 80 63 92 bd d9 33 e3 bd c6 f8 0c 3c 81 77 05 3c
       -0.07147884 -0.110938735 0.008604234 0.008146168
000050 d2 5b a3 bc 26 2a 84 3c d7 ba 39 3d 00 2d 91 3d
       -0.019941244 0.01613338 0.0453442 0.07088661
000060 c1 8e 6d 3d 7f 5e 80 bd ad 62 91 3d 6e aa 0f bc
       0.05799747 -0.06268024 0.07098899 -0.008768661
000070 f3 fe a6 bd 5f 57 70 be 53 ca 30 3d e3 5d 87 3c
       -0.081540965 -0.2347083 0.0431617 0.01652426
000080 b7 37 0a bd a7 49 45 3d 6d d8 97 bc 2a 9b 99 3d
       -0.03374454 0.048165943 -0.018535817 0.07500298
000090 1c 4a a1 3d 2c a2 9f 3c 9a ba 08 3d 02 50 57 3c
       0.07875463 0.01948651 0.033381082 0.013141634
0000a0 00 db 0c 3d e4 20 20 3d 7c cd 6e 3d 65 09 81 bb
       0.034388542 0.039093867 0.058301434 -0.0039378875
0000b0 c8 c4 99 3b c7 02 f4 3c 71 18 30 bd 08 19 17 ba
       0.0046926476 0.02978648 -0.04299206 -0.0005763923
0000c0 75 45 23 3d 7c 56 8d 3d 28 c7 0f bd d4 1e 41 3b
       0.03986116 0.06901261 -0.03510204 0.0029467838
0000d0 75 bc a7 3d 36 aa a8 3d 0f f0 aa bc 7a ff 47 3d
       0.08190242 0.0823559 -0.020866422 0.048827626
0000e0 13 f0 07 3d 1a 4f b9 3d 3d 0e 5d bd 09 1d 1d bd
       0.033187937 0.090482906 -0.053968657 -0.03835777
0000f0 ff 78 8f bd 47 a9 ae bc 3b b5 24 bd 9d 60 51 bb
       -0.070055 -0.021320952 -0.040211897 -0.0031948455
000100 0b b0 9e bd 97 eb af bd 35 77 1e 3d 73 ee 6e bd
       -0.07748421 -0.08589857 0.038687903 -0.05833287
000110 0e ce 60 3c b1 68 81 bc c5 27 65 3d b0 4d 75 bc
       0.013721002 -0.015796991 0.05594613 -0.014972135
000120 b8 8f 22 bd 52 09 ab bd f4 3d a4 bd f7 38 11 bf
       -0.039687842 -0.08351387 -0.08019629 -0.56727546
000130 89 4b 80 3d 0b 59 a0 bd 39 10 ce 3d 1d d4 59 bd
       0.06264407 -0.078294836 0.10061688 -0.053180803
000140 7b 02 87 3d 75 ef 81 3d 73 16 eb 3c db ae 70 3d
       0.0659227 0.06344501 0.028697228 0.058760505
000150 80 50 96 bc 16 7d 7f bd 53 18 a0 bd 15 f2 30 3d
       -0.018348932 -0.06237515 -0.078171395 0.043199617
000160 c1 9e ad 3d de 5d 98 38 94 be 01 bd e9 25 8f bd
       0.084775455 7.265409e-05 -0.03167589 -0.06989653
000170 59 91 16 3c 7d 13 c3 bd db 9d e8 3c 10 49 89 bd
       0.009189927 -0.095252015 0.028395584 -0.06703389
000180 5f fa 83 bd 57 25 29 3d c4 e6 11 3e f9 73 43 bc
       -0.06444239 0.041295376 0.14248186 -0.0119295055
000190 89 61 6f 3c 85 70 03 bc 61 96 5c 3d 94 51 5f bd
       0.014610657 -0.008022432 0.05385435 -0.05452116
0001a0 8b 1a 35 3d c4 5b 8a 3c 61 c5 2f 3c 14 5a 5b 3c
       0.044214766 0.01688946 0.010728211 0.0133881755
0001b0 ab 9f 57 bd e7 47 f5 bc 32 c4 c8 bd b4 a4 85 bd
       -0.052642506 -0.029941512 -0.09803046 -0.06525555
0001c0 2c dd 40 bd 2c d8 79 3c a8 03 06 bd 92 4a 3a 3d
       -0.047085926 0.015249293 -0.03271833 0.045481272
0001d0 a1 79 7a bd bb 21 43 3d 22 ff 72 bd 20 9b 35 bc
       -0.06115115 0.04763959 -0.059325345 -0.011084348
0001e0 80 80 20 3b d6 ab 0e 3a 03 47 45 3c f5 55 92 3d
       0.0024490654 0.00054424757 0.012040856 0.07145301
0001f0 75 43 20 3d 70 44 b3 bd ea fb 98 bd da e0 c7 3d
       0.039126832 -0.08753288 -0.07469924 0.09759684

net.6.weight f4 [2, 128]
000000 cb ca b2 3c 71 3f 2e be c4 69 ac be 06 27 e5 bd
       0.021825215 -0.17016388 -0.33674443 -0.11189084
000010 e4 ac 42 be 52 09 86 bd ed 63 2d bd c5 99 0f 3d
       -0.19011265 -0.065447465 -0.042331625 0.035058755
000020 93 44 32 bc 27 01 70 3e b7 f5 37 3e 3b d3 1a 3d
       -0.010880607 0.2343794 0.17964827 0.0377991
000030 c9 53 5f bd 9f e5 57 3e d1 17 14 bd 51 00 f6 3d
       -0.054523263 0.21083687 -0.036155526 0.12011779
000040 45 7b 25 3e 43 8f 08 3e b7 22 43 be a4 66 3c 3e
       0.16160305 0.133359 -0.19056211 0.1839853
000050 f2 b7 0f 3d fb 02 aa 3c 4d f5 30 bd 64 2c 3d 3d
       0.035087533 0.020753374 -0.043202687 0.046184912
000060 94 38 0e be ae fd 0f 3e 4a 94 03 bd 22 95 89 3d
       -0.1388877 0.14061615 -0.03212384 0.06717898
000070 3a 47 82 3d ff 06 89 be 5f 8f 2e be d1 03 80 bd
       0.06361242 -0.2676315 -0.17046879 -0.06250728
000080 80 3c 82 bd 43 df 06 3e 3b 3a 91 bd 23 c4 80 bd
       -0.06359196 0.13171105 -0.07091185 -0.0628741
000090 c2 1d 4b 3d dd 4a 22 3d 1c c5 2c be 8d 17 5c be
       0.049588926 0.039622176 -0.16872066 -0.21493359
0000a0 be 1b a3 3d 75 53 ce bd cc 44 26 be 47 55 0e 3e
       0.07964276 -0.10074512 -0.16237181 0.13899718
0000b0 98 54 f6 bd e3 bf 95 3d af 26 1f be 7f 03 cf bc
       -0.12027854 0.0731199 -0.155421 -0.025270222
0000c0 88 97 cb 3d 3c 85 ea bd 7c 1d f3 3c 4c 8a 70 be
       0.09941012 -0.11451194 0.029677145 -0.23490256
0000d0 f8 19 13 be 7b bd c7 3d 47 42 55 3e 39 01 1e 3e
       -0.14365375 0.097529374 0.20826064 0.15430154
0000e0 79 db cf bd d9 3b 74 bc a7 f2 80 bc 26 1c e0 bd
       -0.10149283 -0.014906847 -0.015740706 -0.10942869
0000f0 f7 4a cf bd c9 ab 1a 3e 4a ce 44 bd e9 ab 83 3e
       -0.1012172 0.15104593 -0.048048295 0.25717095
000100 51 ea a0 bc ee 4f df bc ca bb 84 3d 90 06 d8 bc
       -0.01964298 -0.027259793 0.064811304 -0.026370317
000110 78 85 f7 3d ca 90 e6 bd 6a 83 cb bd c4 e6 8c be
       0.12086004 -0.11258085 -0.099371746 -0.2751981
000120 9c 02 fa 3d 1b 7f 9c 3c 25 7e 2c 3d 1c 74 1a bf
       0.12207529 0.019103577 0.04211249 -0.6033342
000130 0a 83 1c be df e6 03 3e c0 58 48 be fe 8d be 3c
       -0.15284362 0.12881039 -0.19565105 0.023261067
000140 6b ca b5 bd af 7b 1f be a4 a1 68 be 7c dc 4f 3e
       -0.08876499 -0.15574525 -0.22717911 0.20298952
000150 62 27 03 3e d8 11 d7 bd 67 ae e0 bd 5f 07 3e bd
       0.12807992 -0.1050145 -0.109707646 -0.04639375
000160 ff de f7 bd b4 ad 76 bd 6c 04 8f bd 3a d1 08 be
       -0.1210308 -0.06022425 -0.06983265 -0.13361064
000170 2b a9 ce bc 50 f8 1d 3d 77 86 f4 3d 06 e8 a5 3d
       -0.02522715 0.038566887 0.1193971 0.081008956
000180 f5 52 4f 3e 3c 0f 43 bd cd 97 b7 be 47 6e 98 bd
       0.2024649 -0.04762195 -0.35858002 -0.07442909
000190 ea c6 f8 bd 30 ef be 3c 6e b6 0c bc 12 30 be 3d
       -0.12147315 0.023307413 -0.0085884165 0.092865124
0001a0 75 44 aa bd 97 05 07 be bb 71 bf bd b9 75 ed 3c
       -0.083138384 -0.13185726 -0.09347864 0.028986799
0001b0 be b4 bd bd 73 d6 2a 3e a4 e5 1b 3e 2a cd fc 3d
       -0.092629895 0.16683368 0.1522432 0.123438194
0001c0 71 b1 2a 3d 43 52 1b 3d 65 31 ea 3d 9c c9 21 3d
       0.041673128 0.037920248 0.114352025 0.03949891
0001d0 4b 80 f1 bd be ea 95 bd 13 61 fb bc 97 97 ed bd
       -0.11792048 -0.07320164 -0.030685937 -0.11601179
0001e0 5d 10 5b 3e b9 9f 17 3e 56 a8 b9 3d cd 2c 62 3d
       0.21392961 0.14807023 0.09065311 0.055218507
0001f0 31 ff b6 bc 2d d1 dd 3d ec 66 47 3d 0e 90 45 3e
       -0.022338482 0.10830913 0.04868214 0.19293234
000200 84 1b a6 bd 71 47 f4 bc f6 88 08 bc 6b c1 05 bd
       -0.08110717 -0.029819222 -0.008333435 -0.03265516
000210 63 07 1d bd 05 fb 46 3d 1a 7d d5 3d 60 8b dc bd
       -0.038337123 0.048579235 0.10424252 -0.10768771
000220 eb cb a3 bd 3c da dd 3c 48 2d 99 bd b3 6a bf 3d
       -0.07997879 0.027081601 -0.0747934 0.09346523
000230 68 17 3f bd e0 9d 6f bd 3b c7 29 3d d8 b9 85 3d
       -0.04665318 -0.05850017 0.041449767 0.065295875
000240 ea 81 0a 3d 22 3b 85 bb 51 74 8b 3d 89 f3 36 3d
       0.033815302 -0.004065887 0.06809295 0.044665847
000250 d8 4f 39 3d f3 fa 83 3d fe 9b e5 bd 82 92 af 3d
       0.04524216 0.06444349 -0.11211394 0.08572866
000260 e6 63 61 3d 3e c8 37 3d e4 25 47 3d df 5f 87 bd
       0.05502691 0.0448687 0.04862012 -0.06610083
000270 35 9c 96 bd eb 5f b0 3d 81 73 ad 3d ca ea 5a 3d
       -0.07354013 0.08612045 0.08469296 0.05344657
000280 66 ac 61 3d b9 eb a3 bd 65 e2 46 bc 95 04 a4 bc
       0.055096053 -0.08003945 -0.012138938 -0.020021716
000290 0e 4a cf 3d d6 f2 25 bd a7 2b 3d 3d 31 c4 fd 3d
       0.10121547 -0.04051479 0.04618421 0.12390936
0002a0 c9 1c 50 3d 1b fa 50 bd 89 f0 96 bd c0 9f c0 3d
       0.0508087 -0.05101977 -0.07370097 0.0940547
0002b0 f8 9d a2 bd 81 f4 57 bd 5b d4 c7 bc e7 bf ba bd
       -0.079402864 -0.05272341 -0.024393251 -0.09118634
0002c0 67 98 57 3d 2f c8 89 3d bb 39 52 3d b8 b0 ab bd
       0.052635577 0.06727635 0.051324587 -0.08383316
0002d0 32 09 56 3d 23 f1 65 3c 0f 46 8c bd df c8 8b 3d
       0.052254863 0.014034542 -0.068493 0.068254225
0002e0 98 b4 3d bd 0e 8b 9a 3d 28 08 a5 3d 75 ee 94 3d
       -0.046314806 0.07546054 0.08058196 0.072720446
0002f0 de e6 a7 bc 65 cd 32 bc 66 0d 8f 3d c7 85 30 bd
       -0.020495828 -0.010913228 0.069849774 -0.04309633
000300 3b 03 ad bd f6 f7 2d bd 83 3d b5 3d 0d 64 b3 3d
       -0.08447882 -0.042472802 0.08849623 0.087593175
000310 ee bc f7 bc 6e 3d 43 3d 04 c9 73 bd 8f 15 ce 3c
       -0.030241456 0.047666006 -0.059517875 0.025156764
000320 d5 95 cd 3d eb cf b4 3d e5 74 42 bd ab 81 85 bb
       0.10038344 0.0882872 -0.04747476 -0.0040742955
000330 e8 5c b7 bd 7f f7 fb 3c 9f 44 16 bc 20 53 bc 3d
       -0.08953267 0.030757664 -0.009171634 0.09195542
000340 b8 8b c4 bd 60 db 7f bc 4b 97 59 3d db 77 3b bc
       -0.09596962 -0.015616268 0.0531228 -0.01144215
000350 ac 7c a1 3d 14 5d a6 3d f3 f8 b9 3d bc 01 b0 3d
       0.078851074 0.08123222 0.090806864 0.08594081
000360 5c a1 be bd 51 8d 8b bd 0d 87 65 3d 22 e5 aa 3d
       -0.093081206 -0.06814063 0.056036998 0.08344485
000370 27 d5 c0 bd 32 39 4e bd d8 35 2e 3c 2d 52 b6 3d
       -0.094156556 -0.050347514 0.010632955 0.089023925
000380 e5 88 b5 3c e8 d2 46 bd d7 92 f4 bb 23 c1 c9 bd
       0.022160003 -0.04854098 -0.0074637937 -0.09851291
000390 10 78 30 bd f4 e8 5b bc dd 89 97 bd ef 4e 14 3d
       -0.04308325 -0.01342224 -0.07399342 0.03620809
0003a0 29 3d 64 bd 72 75 85 3d 39 3a 31 3d c4 32 b3 3d
       -0.05572239 0.065165415 0.043268416 0.08749917
0003b0 b4 6b ab 3d 74 3c e6 bc 82 97 9a bd 23 1f 89 3d
       0.08370152 -0.028104998 -0.07548429 0.06695392
0003c0 90 32 a8 3c b0 75 bd 3d 60 ef bb 3d d6 d4 45 3d
       0.020531923 0.09250963 0.091765165 0.04829868
0003d0 96 05 37 3d 24 69 5f bd ca a4 f6 bd 0d 28 d6 bd
       0.04468306 -0.05454363 -0.1204315 -0.10456858
0003e0 bf da bf 3c 27 01 f1 bc 6a 1c 80 3d 15 79 1c 3d
       0.023419736 -0.029419495 0.062554196 0.03820141
0003f0 f4 39 8c bd 91 93 9d bd dd 07 4e 3d 55 cf 8f bc
       -0.06846991 -0.07694162 0.050300468 -0.017554918

net.6.bias f4 [2]
000000 56 04 12 bd 17 49 3f bd
       -0.035648666 -0.046700563
