model/NbFeSb.pth (torch, 139928 bytes, 8 tensors)

net.0.weight f4 [128, 6]
000000 ce ba 9c 3e 6e 9a 8d bc ce dd 8b be 7c 26 52 be
       0.3061127 -0.017285552 -0.2731766 -0.20522493
000010 25 2f 51 3e 6d 42 b9 3b 38 8d 02 3e 1d 90 af 3e
       0.2042814 0.0056536705 0.12749183 0.34289637
000020 f8 3a 99 3d ff 8b cd 3e 37 70 ae be 3e 7b b9 3e
       0.074819505 0.4014587 -0.34069988 0.3622684
000030 29 1c 3a 3d f0 63 2e 3e 8c 61 4b 3d 00 b3 df be
       0.045437012 0.1703031 0.049653575 -0.43691254
000040 bb 24 a4 3e 33 fc 4a be 98 9b a4 bb 6d 7f 16 be
       0.32059273 -0.19822769 -0.005023431 -0.14697047
000050 dd 38 aa 3e c2 e9 ad be df 00 1e 3e 7d 91 e4 3e
       0.33246508 -0.33967406 0.1543002 0.4464225
000060 68 48 d6 3e 56 59 c3 3d 80 42 1b 3e d7 75 2a 3e
       0.41852117 0.09538524 0.15162086 0.16646515
000070 ae e7 cb 3e c4 ca a1 3e 03 9f 54 bd 79 f7 a6 be
       0.39825195 0.3160001 -0.051909458 -0.32610682
000080 7a d9 f5 be c7 cc 12 be 84 7d a8 3e ba d7 21 3e
       -0.48017484 -0.14335929 0.3290826 0.1580495
000090 34 ee 81 3d 5f c0 cd 3c 8a 31 e1 3c f7 b0 88 3e
       0.06344262 0.025116144 0.027489442 0.26697513
0000a0 a9 b1 64 be ae bd 06 bc 3f 75 b2 3e e6 67 02 3d
       -0.22333397 -0.008223934 0.34855077 0.031837367
0000b0 c0 d7 2d be 41 15 28 bd 45 b9 cd 3e de a6 48 be
       -0.16976833 -0.041035894 0.40180412 -0.19594905
0000c0 d7 42 35 be d1 1d 8c be 42 fa 3a 3e dc e8 b8 3d
       -0.17701279 -0.27366498 0.18259528 0.090287894
0000d0 e5 fd 23 3d c0 8a 9d be d9 c7 c2 be 79 9e c0 be
       0.040037055 -0.3076992 -0.38043097 -0.37620905
0000e0 c0 10 34 3d c4 02 ca bd 9f 10 c8 3d bc 6e 3d 3e
       0.043961287 -0.09863809 0.09768795 0.18499273
0000f0 fe 05 99 bd ce bc 09 be 1a da 36 bf ce 7a 8e 3d
       -0.07471846 -0.1345093 -0.71426547 0.06957017
000100 9a 46 99 be 9f 51 ca 3e 9b e9 13 3e a9 b4 20 3e
       -0.29936677 0.39515397 0.14444582 0.15693916
000110 81 63 f5 3e 97 39 7b bd 41 19 b6 be 4f 3f 54 be
       0.47927478 -0.06133422 -0.35566142 -0.20727275
000120 03 f4 37 3e 48 3e 90 3e d7 51 67 be a8 0c ff 3e
       0.17964177 0.28172517 -0.22589813 0.49814343
000130 f3 d6 92 be 18 04 ba be e4 7a 89 3e c4 98 4c 3e
       -0.28679618 -0.36331248 0.2685157 0.1998015
000140 c7 8d d0 be ab 89 6a be ab e6 0a be 6e cf 91 be
       -0.40733168 -0.22904079 -0.13564555 -0.2847857
000150 4e f2 76 be 9d 0a bb be f9 a2 42 3e 3b 56 db bb
       -0.2411587 -0.36531535 0.19007482 -0.006693629
000160 16 44 a2 be 60 6c 96 3d 69 b0 ed be fe bf b5 3b
       -0.3169257 0.0734489 -0.46423653 0.005546569
000170 69 4b ab 3e 8d 65 18 3d af 7a 60 bd 4b 6d bf bc
       0.3345597 0.03720622 -0.0548045 -0.023367545
000180 d2 c4 b0 be 0b 26 3c be ba f7 61 be 05 a6 65 be
       -0.34525162 -0.18373887 -0.22067156 -0.22426613
000190 33 f8 9a 3d 74 9d d4 3e 06 04 b8 be 88 85 4e 3d
       0.075668715 0.41526377 -0.3594057 0.050420314
0001a0 ab a8 3e 3e 60 fd b8 3c 9c 76 e9 be d8 2d a6 3d
       0.18619029 0.022581756 -0.45598304 0.08114213
0001b0 91 62 b2 be 91 08 b7 3e 0c c5 05 bf 3a 39 8c be
       -0.34840825 0.35748723 -0.52253795 -0.2738741
0001c0 96 a5 7d 3e d1 6f a5 3e 63 56 63 be 96 8f 17 3e
       0.24770197 0.32311872 -0.22200923 0.14800867
0001d0 af 86 20 be 31 fa b1 3d 36 1b 04 bf f4 17 88 be
       -0.15676378 0.08690298 -0.5160402 -0.26580775
0001e0 42 88 3d 3d 66 90 37 3e ab c4 60 3e 91 24 4d 3e
       0.046272524 0.17926177 0.21950023 0.2003348
0001f0 3e 3b ed 3d 98 f1 c9 3e 2b 61 4f bc a1 3d 56 ba
       0.11583565 0.39442134 -0.012657444 -0.00081726356
000200 06 54 4e bd 72 55 e7 bd 4a 90 9e 3d e8 ea 64 3e
       -0.0503731 -0.11295594 0.07742365 0.22355235
000210 bf 44 b4 3d 90 5e 80 3e ab 89 1e be 36 8f 09 3f
       0.08802175 0.25072145 -0.15482204 0.5373415
000220 ec 20 0e bf 69 09 07 be 4e 87 93 3e 85 e8 0e 3d
       -0.55518985 -0.13187183 0.28814167 0.034889717
000230 55 68 77 be 4a 23 6f bd 74 5a a1 bd 79 d0 57 bd
       -0.24160893 -0.058383264 -0.07878581 -0.05268905
000240 d8 34 b6 be 84 24 80 3e 13 0d d6 3d 51 f9 e0 3c
       -0.35587192 0.2502786 0.104517125 0.027462633
000250 a2 1b b2 bd 47 97 88 3d 14 54 cd be 8c 50 a9 3d
       -0.08696677 0.06669479 -0.4010321 0.08267316
000260 9d 07 c6 3c 3b c1 d3 be b9 3d 0f 3c ff 7e f1 bd
       0.024173552 -0.4135836 0.008742743 -0.11791801
000270 d3 e6 9e 3e 49 85 22 3e 4a 6d 23 be 4b 3d 18 3e
       0.3103548 0.15871157 -0.15959659 0.14867131
000280 8f b7 5e 3e 97 86 5e 3e 3d cd 2c be a4 a6 ac be
       0.2174971 0.2173103 -0.16875167 -0.33720887
000290 28 c5 19 be 2f 17 c4 be 39 ec 8b 3e e9 93 e6 be
       -0.15016615 -0.38298938 0.2732866 -0.45034721
0002a0 43 0d 12 3d c3 e7 27 3e 5d 78 1f bf 82 32 0a be
       0.03565718 0.16397004 -0.62293035 -0.1349583
0002b0 1f a0 b6 3d 93 f0 b7 bc 5f f9 dc 3e ce 64 29 3c
       0.089172594 -0.022453582 0.43159005 0.010338975
0002c0 17 4b f4 be b4 e7 ba be d3 0c b9 3e 9d f6 49 be
       -0.4771354 -0.365049 0.36142597 -0.19722982
0002d0 b3 de 84 3e fd d1 e1 bb 3b a7 cd be f9 48 82 3e
       0.25951156 -0.0068914876 -0.4016665 0.254463
0002e0 bf b9 6c 3e a8 21 a8 be 31 3b 56 be d0 c4 f4 bc
       0.23117732 -0.32838178 -0.20921017 -0.029879004
0002f0 3d 7a 49 be 23 79 38 be 6d 80 fc 3b c1 7c 1a be
       -0.19675536 -0.1801496 0.0077057392 -0.15086652
000300 80 91 47 3e 22 24 45 3b b4 d0 3c be ed f8 a7 3e
       0.19489098 0.0030081351 -0.18438989 0.32807103
000310 ba d5 bd be 6b 49 86 3e 11 e4 69 be b0 1a a4 3e
       -0.37077123 0.26227888 -0.22840907 0.3205161
000320 3c 24 04 3e 89 67 41 be d8 1b 9c bd e3 2f 5d 3e
       0.12904447 -0.18887152 -0.07622498 0.21600299
000330 f3 5e ad 3c 3d c5 b0 3e 27 f3 b9 be d1 e7 62 be
       0.02116344 0.3452548 -0.36318323 -0.22158743
000340 d5 9e 47 3e 51 f5 c9 3e 04 0d ab be bd 90 6b be
       0.19494183 0.39444974 -0.33408368 -0.23004432
000350 5f ea 49 3d 5b b5 4c 3e bb 9a e1 3d f2 b1 02 3e
       0.04929578 0.19991057 0.110158406 0.12763193
000360 b3 b9 86 3e ba 55 3c 3e 73 a1 7f bd d6 a0 97 3e
       0.26313552 0.18392077 -0.06240983 0.29614896
000370 5c ba 19 be 5e 2a 8b 3e e3 cd 58 3e 01 c8 bd 3e
       -0.15012497 0.2718076 0.2117229 0.37066653
000380 5d 8c 7a be 02 a8 03 bf 18 ba 67 3e 64 9e 44 be
       -0.24467607 -0.51428235 0.22629583 -0.19201046
000390 75 06 3e bd aa a6 72 3e f9 23 92 be f2 bf 2c be
       -0.046392877 0.2369639 -0.2854307 -0.16870096
0003a0 54 76 ac be 4d 81 df 3e 1a a9 6a 3d b1 96 d7 bc
       -0.33684027 0.43653336 0.057290174 -0.026316972
0003b0 ac dc ab be 51 da 4c be b1 c1 4e 3d c3 4c 97 3d
       -0.33566797 -0.20005156 0.050477687 0.07387688
0003c0 85 04 3e 3e 65 ff cc be 0f 21 e5 3e 9a 7e d3 3c
       0.18556412 -0.400386 0.44751784 0.025817204
0003d0 95 33 4e 3d 91 0a a1 be 53 8e 94 be 89 e2 d5 3e
       0.05034216 -0.31453374 -0.29014835 0.41774395
0003e0 49 82 84 be 38 f0 59 be d3 81 44 3e e7 52 f2 be
       -0.2588065 -0.21283042 0.19190149 -0.47328874
0003f0 fb 2a 5e be c2 21 a2 3e 6c 34 b9 3e 20 f4 1c be
       -0.21696083 0.3166638 0.36172807 -0.15327501

net.0.bias f4 [128]
000000 35 69 70 3e f1 41 97 3d 8e 77 b5 3e 50 66 44 3e
       0.23477633 0.07385624 0.35442775 0.19179654
000010 05 f8 f2 bd e9 1c 48 be 0c 8d 02 3f 87 9d 17 3e
       -0.11863712 -0.19542278 0.5099647 0.14806186
000020 a2 70 96 be 0e 36 7b 3d c9 ff 9f be fd b4 86 3e
       -0.29382807 0.061330847 -0.31249836 0.26309958
000030 6a d3 a3 be f7 22 98 be 39 25 da 3d 4f 09 62 be
       -0.31997234 -0.29714176 0.10651631 -0.22073863
000040 92 ab b9 3e 2e 46 46 be 5f 21 89 be 92 a8 a1 be
       0.3626371 -0.19362709 -0.26783273 -0.3157392
000050 ae 85 83 be 5f 41 1b 3e 2b 3b dd be 40 5a d0 3e
       -0.25687927 0.15161656 -0.43209204 0.40693855
000060 b2 68 28 3f 81 25 aa be 51 28 f9 3d 81 40 d4 3e
       0.6578475 -0.33231738 0.12165893 0.41455463
000070 21 88 b9 be 9b fb 35 be cf e8 3d be 40 d7 1e 3e
       -0.3623667 -0.17771761 -0.1854584 0.15511799
000080 92 d6 06 3e d4 b4 d5 3e 15 d6 88 be c8 d7 f4 3c
       0.1316779 0.41739523 -0.26725832 0.029888049
000090 7c 35 bd be 9d f2 a0 3e 02 92 ae bd a4 90 47 3e
       -0.36954868 0.314351 -0.085239425 0.1948877
0000a0 30 6f 83 be 50 1d 24 be 0d 7e 64 3e 49 c3 06 3f
       -0.25670767 -0.16026807 0.2231371 0.5264173
0000b0 21 26 e2 3c 7f db b3 3e d8 34 28 bf a7 ce b5 3e
       0.027606072 0.351284 -0.65705633 0.35509226
0000c0 93 73 98 3e f4 2f e8 3e c5 fb 15 bd 7e 01 11 3e
       0.29775676 0.45349085 -0.03661706 0.14160725
0000d0 5a ba 76 be 98 7b a5 3e 86 c0 01 3f 10 19 77 3e
       -0.24094525 0.32320857 0.5068439 0.24130654
0000e0 37 4e 3f 3e 3e d2 83 bd e3 02 9a 3e 7d d0 47 3e
       0.1868218 -0.06436585 0.30080327 0.19513126
0000f0 f8 86 a6 3e 1a 0d e2 3c 91 e0 30 bd 26 de 17 bf
       0.32524848 0.027594138 -0.043182913 -0.59323347
000100 93 09 da be 07 98 c7 be c5 73 38 3f 59 fc 93 be
       -0.4258543 -0.38983175 0.7205165 -0.28903463
000110 14 b7 5b 3e 01 d7 a2 3e 1a d4 cd be 6f 5c c0 3e
       0.21456558 0.3180466 -0.40200883 0.3757052
000120 f9 c7 cd be 10 33 ad 3d a5 4f ed 3e 3d f7 48 3e
       -0.4019163 0.08457005 0.46349826 0.19625564
000130 b9 b0 dd bd 74 ad 82 be 9b 03 20 3e 5b 84 c2 bd
       -0.10824723 -0.2552296 0.15626375 -0.09497901
000140 f7 57 93 be 44 f5 f1 3d bd 4b 38 be 87 a0 b1 bd
       -0.2877805 0.11814359 -0.17997642 -0.08673196
000150 86 be f2 3e 40 f4 26 3f 72 be 8d 3d 8c b9 55 3e
       0.47410983 0.65216446 0.0692109 0.20871562
000160 90 5d 96 3e d0 4c fc bd e0 23 05 3f 5a 69 99 3d
       0.29368258 -0.12319338 0.52007866 0.07490797
000170 21 c4 16 3c 42 71 ac bc d6 a9 a4 3e ed f2 8f bd
       0.009202034 -0.0210501 0.32160825 -0.07028756
000180 54 43 00 bf e5 19 14 3e 7d 3c b4 be 40 36 ec bb
       -0.50102735 0.14463003 -0.352024 -0.0072086155
000190 b3 aa 88 be 92 18 62 3e a5 c6 6c 3e aa cc b3 3e
       -0.26692733 0.22079685 0.23122652 0.35117084
0001a0 b3 fc d0 bd 1f 08 d8 be 51 fc 85 bd 53 2f 7e 3e
       -0.102044486 -0.42193696 -0.06542266 0.2482274
0001b0 80 00 0b be 88 73 e4 3e 46 6c 8d 3e fc bc 16 3e
       -0.1357441 0.44619393 0.2762167 0.1472053
0001c0 4b 1d 08 3f 86 5f 90 be f6 f6 4f 3e 97 4c 1c be
       0.531697 -0.2819788 0.20309052 -0.15263592
0001d0 aa 12 5a be e2 b3 4b be 58 e0 19 3e a7 02 e7 be
       -0.21296182 -0.19892839 0.15026987 -0.4511921
0001e0 ce e9 a0 3e 72 4c cd 3e f3 0f a9 be 2c aa 89 bd
       0.3142838 0.40097386 -0.3301998 -0.06721911
0001f0 5f e0 d3 bb 47 33 b5 be ac 44 81 3e cf 10 9f be
       -0.006465956 -0.35390684 0.25247705 -0.3106751

net.2.weight f4 [128, 128]
000000 78 d1 1b 3d 08 81 6c bd 58 f8 0b 3d 71 5c 83 bc
       0.03804156 -0.05774024 0.034172386 -0.01603529
000010 07 ad 67 3c 9e ab 6b bd 5b cc 94 3d d5 2c 4f bd
       0.014140374 -0.057536714 0.0726554 -0.050579865
000020 5e 73 13 3d 51 22 80 bc 3b f6 8a 3c 3e 4c 4f bd
       0.035998695 -0.015641363 0.016963115 -0.05060982
000030 3f ec 92 3c 94 f3 86 bd d7 9c 0a bc 3b 85 a0 bc
       0.017934917 -0.065894276 -0.008460245 -0.01959478
000040 3c 1b 5b 3d 13 04 39 3d de 98 79 bd 8b 6a 8e bd
       0.05349277 0.0451699 -0.0609368 -0.06953915
000050 6c e7 9f 3c a9 ea 98 bd bd 2a 2a 3d 75 d8 62 3d
       0.01951953 -0.07466633 0.041544665 0.05538221
000060 b5 3a 52 bd 37 f1 d9 bc 9e 8d 10 3c 88 54 97 3d
       -0.05132552 -0.026604278 0.008822827 0.0738917
000070 c0 75 af bd 53 ba da bd 06 88 e7 bd a4 a0 c8 3d
       -0.08567381 -0.1068007 -0.11305241 0.09796265
000080 3f a6 92 bd 83 7d 8e 3d b5 06 3d bc 5e 09 75 bd
       -0.07160615 0.06957533 -0.011537244 -0.059823386
000090 09 88 fe bb 56 d5 c9 bd 3b c6 ac bd 83 14 ac bc
       -0.0077676815 -0.09855144 -0.08436247 -0.021005874
0000a0 1b a8 f2 ba 94 36 91 3d f2 35 40 bd fe 5d 58 3c
       -0.0018513234 0.07090488 -0.046926446 0.013206003
0000b0 31 d7 c0 3b e8 1b 32 bb 0a 35 3b bb af b4 b5 3d
       0.005885028 -0.0027177278 -0.002856555 0.08872353
0000c0 5b 37 45 3d 1e 43 d5 bd ee 78 7d bc 20 14 1e bd
       0.048148494 -0.10413192 -0.015470726 -0.03859341
0000d0 c4 e1 d9 bd e3 f4 49 bd d3 af 90 bc 97 15 21 bd
       -0.106387645 -0.049305808 -0.017661965 -0.03932723
0000e0 ec e8 85 3d 74 e3 ce 3c 8d 79 c9 3c 95 8d 3a 3c
       0.06538567 0.025254942 0.024594093 0.011386295
0000f0 ce 3b 54 3c 23 82 60 bd 1e 45 83 3d e0 d1 84 bd
       0.012953712 -0.054811608 0.064096674 -0.06485343
000100 05 8f 77 3d 04 4d 32 3d 30 d6 3a bc 24 de 10 3d
       0.06043913 0.04353048 -0.011403605 0.0353681
000110 9a b1 b1 3c af 9a 93 bd 79 c1 93 bc bc 0d 21 bd
       0.021691132 -0.07207238 -0.01803659 -0.03931974
000120 ee 0d e9 bc 16 42 41 3d 41 bd 44 bc 94 d9 15 3c
       -0.028449025 0.047182165 -0.012008012 0.009146113
000130 6c 60 8a bd ca a3 07 3d f8 6b b3 3c 0c cc 2c bc
       -0.06756672 0.033115186 0.02190207 -0.010546695
000140 ce 8d 17 3c 9d 78 63 bd 71 29 53 3d 8f ab 82 3c
       0.0092501175 -0.055534948 0.051553193 0.015950946
000150 81 3a bf bd f8 ac 4f 3d 0e d3 02 3d b4 b5 49 bd
       -0.093373306 0.050702065 0.03193956 -0.04924555
000160 cc de 86 bc ba 89 2e bd fe 9c a3 3d 4a 9f d9 bd
       -0.01646366 -0.042611815 0.07988928 -0.10626085
000170 e2 fb 82 3d 78 89 fa 3c a5 80 29 3d a1 3a 9a bd
       0.06395699 0.030583128 0.04138245 -0.07530714
000180 16 82 d6 bc 95 04 e1 bd 0e d7 cb bd 51 ff d0 bb
       -0.026185077 -0.10987202 -0.09953128 -0.0063780923
000190 dd 1d 25 3c e4 9c 29 3d 71 cd e0 bd 83 c6 18 3d
       0.010077921 0.04140939 -0.10976685 0.03729869
0001a0 84 36 23 bd 0c 63 c5 bc 72 a8 37 bd 57 3c 57 3d
       -0.039846912 -0.02409508 -0.044838376 0.05254778
0001b0 40 e9 9b bd 0c a0 4c 3d b3 b1 ba 3d 77 27 60 3d
       -0.07612848 0.04995732 0.09115925 0.054725137
0001c0 c1 10 81 3c f6 c4 42 3d 2b aa 1f bd 92 ae 72 bc
       0.01575506 0.047551118 -0.038980644 -0.014812129
0001d0 0d ff 1d bd 79 8f 77 3c ce 8b 88 bd 0d ae 6f 3d
       -0.038573314 0.01510989 -0.06667291 0.058515597
0001e0 97 2a c3 bd ec 49 cb bc 73 85 0e 3d c4 15 20 3d
       -0.09529608 -0.024815522 0.034795236 0.039083257
0001f0 76 2f 9a 3d 2d d6 bb bc b3 0b c5 3d 65 36 5e 3b
       0.07528584 -0.022929275 0.09621372 0.0033906933
000200 68 1f b5 3d ca 86 96 3d a8 37 86 bd 52 58 2f 3d
       0.08843881 0.07349928 -0.06553584 0.04280884
000210 10 79 ac 3d 1d f6 67 3d ce 53 5c 3d 18 87 40 3d
       0.08421528 0.056631196 0.05379086 0.047003835
000220 12 1e c1 bd 3b ce 89 3d ea c5 37 bd 47 ae 26 3d
       -0.094295636 0.067287885 -0.04486648 0.040693548
000230 f4 4b 3e bd 8e 32 38 3c c8 98 75 3d fd 45 84 bd
       -0.046459153 0.011242522 0.059960157 -0.06458662
000240 c3 c9 6f 3c e3 65 4d bd bf 83 e8 bc 06 88 c6 3c
       0.014635506 -0.050145995 -0.028383134 0.024234783
000250 53 6e 96 3d 78 58 84 3d 5b c7 25 3d 58 73 77 bd
       0.073452614 0.064621866 0.040473323 -0.060412735
000260 c9 15 97 bd 80 c5 54 3d 2a f9 8c 3d 90 bf 90 3d
       -0.07377202 0.051946163 0.06883462 0.07067788
000270 ba 6f e3 3d 71 56 d1 3d 66 4d 73 bd 6d bd 21 3d
       0.111052945 0.102215655 -0.059399985 0.03948729
000280 0e c2 8b 3d 23 3c 7a 3d b3 7b 9b 3d 04 60 3f 3d
       0.06824122 0.061092507 0.07591953 0.046722427
000290 e9 4e 9a 3d 0d 70 f7 3a d3 c1 ba bb 4c 59 d9 3d
       0.07534582 0.0018877998 -0.005699375 0.10612735
0002a0 ae 74 6a bd d6 77 98 3d 93 31 87 3d 3f 7e a8 bc
       -0.05724018 0.07444732 0.066012524 -0.020568011
0002b0 bb b5 03 bd 11 46 2d bd 14 50 93 bc 5d f8 ce 3c
       -0.032155734 -0.04230315 -0.01798252 0.025264913
0002c0 7b a6 6b 3d f6 e9 a9 3d 71 ee b4 3d b5 bc 78 3c
       0.057531815 0.08296578 0.088345416 0.01518171
0002d0 d2 33 89 3d b1 0e 63 3d 4f 62 82 3d df e2 f6 3c
       0.06699337 0.055433933 0.06366407 0.030137477
0002e0 91 21 7d bd ac 37 89 bd 4b 02 42 bc e4 ef ce bc
       -0.06179959 -0.06700072 -0.011841367 -0.025260873
0002f0 2b 46 7e 3d 4f 0c ef 3c d0 8b 32 3d d7 00 a7 3d
       0.062078636 0.029180674 0.043590367 0.08154457
000300 72 ed 8e bd a8 ae 8f bd 97 f1 f9 3b a8 56 fa bc
       -0.06978883 -0.07015735 0.0076276767 -0.030558899
000310 35 5c 31 bd 44 59 74 3d 78 1a ac 3c 95 77 99 3d
       -0.043300826 0.059655443 0.021008715 0.074935116
000320 62 e2 b6 3d d0 45 a9 bd 39 80 6c bd 9a 85 9c bd
       0.08929898 -0.08265269 -0.05773947 -0.0764267
000330 4b 50 88 bc e2 02 83 bc 90 7a 5e 3d ae c0 b2 3c
       -0.01663985 -0.015992586 0.054316103 0.021820392
000340 49 6d 63 3d 0c 5e 84 bb a8 91 59 3d 08 b5 e9 3d
       0.055524144 -0.0040395316 0.053117424 0.11411482
000350 e7 4b 78 bc c6 b0 b0 3d db a0 3f bd 0b 30 c1 bd
       -0.015154815 0.08627467 -0.046784263 -0.094329916
000360 76 7a e8 3c 0b 54 a6 3d 6c d0 87 bd 82 1b 6a 3d
       0.028378706 0.08121499 -0.0663155 0.05715514
000370 5e a5 87 bd 67 25 93 3c 17 3a 84 bd 3e 5a b5 3d
       -0.06623338 0.01796217 -0.06456392 0.08855103
000380 ae f4 98 3c f8 12 c6 3d 58 9c a6 bd ed 66 93 bd
       0.01867136 0.09671587 -0.08135289 -0.07197366
000390 cf b5 51 3d 3a 9b 5e bd df 7d 77 bd fe 57 60 bd
       0.051198777 -0.054347254 -0.060422774 -0.054771416
0003a0 ea c8 b4 bc c1 8b 0b bc 84 23 c7 bd 7b dc 67 bd
       -0.02206846 -0.008517207 -0.09723571 -0.05660675
0003b0 e1 78 43 bd 1a 75 90 bd b7 37 1c 3d d3 8f c4 ba
       -0.0477227 -0.07053585 0.03813907 -0.0014996476
0003c0 93 14 03 3d 11 a8 40 3d a2 24 49 3d 2f fe aa bd
       0.032002043 0.04703528 0.0491072 -0.08349263
0003d0 a7 73 82 3d 1f 15 67 3d b2 2e a0 3c 6c d0 7a bc
       0.06369715 0.056416627 0.019553516 -0.015308481
0003e0 3b f4 b7 bc d8 6d 3a 3d 59 1f b3 bd 26 28 c1 3c
       -0.022455325 0.04551491 -0.087462135 0.023578715
0003f0 0a f3 2e 3d 2c 34 54 3c 75 5f eb bd b2 0a 02 bd
       0.04271225 0.012951892 -0.11492816 -0.03174848

net.2.bias f4 [128]
000000 63 d0 de 3d 38 de db 3c 92 fe 1d 3e c3 48 b4 bd
       0.1087959 0.02683936 0.15429142 -0.08802941
000010 da ba 83 3d fb 50 73 bd d1 e6 89 bc d7 2b 3b be
       0.064321235 -0.0594034 -0.016833695 -0.18278442
000020 5c 9f 03 3e 7b 0a 81 3c e9 bc b0 3d ef 16 5b bd
       0.1285376 0.015752068 0.08629782 -0.053488668
000030 ca 0e 84 3d d0 9f ab 3d 1d a7 fd 3c 15 5b cb 3d
       0.06448133 0.08380091 0.030963475 0.09929482
000040 cc 37 0a 3d dc f7 b2 3e 63 bc df 3d 60 42 84 be
       0.03374462 0.34954727 0.10924604 -0.2583189
000050 13 27 a2 bc 54 4c a4 bd 7a 49 96 3d 03 7c 05 3d
       -0.019794023 -0.08022371 0.07338233 0.03258897
000060 68 2f 2a 3d 40 ab 76 3d 57 6d 2c 3d d1 bd 43 bd
       0.041549116 0.06022191 0.042096462 -0.047788445
000070 8f 17 3e 3d 97 04 c6 3d 62 a1 a4 bd 5a 5e 8e 3c
       0.046409186 0.09668844 -0.08038594 0.017378975
000080 ec 98 2b bd a6 ff 1c be a3 bd 16 3e 38 77 50 3b
       -0.041893885 -0.15331897 0.14720778 0.003180934
000090 2f cf b8 3d 33 30 0f bd 90 22 c6 bd db e9 b1 3c
       0.09023892 -0.034958076 -0.09674561 0.021717956
0000a0 8b c2 ae 3d da 57 b6 bd 08 db b1 3d c9 26 82 3d
       0.085332 -0.08903475 0.08684355 0.06355054
0000b0 b4 ae 8f b9 13 6f ed 3c fa 8a 77 3d 9b 5f d7 3d
       -0.0002740525 0.028983628 0.060435273 0.10516282
0000c0 f7 c2 33 3b 3c c8 41 bd 8d d9 6e 3d 98 1a 25 3d
       0.002742944 -0.0473101 0.05831294 0.040308565
0000d0 3e 4e 40 bd 3f f4 ec 3d dc 09 ae bc b8 0f 3c 3d
       -0.046949618 0.11570024 -0.021244936 0.045913428
0000e0 ba 5d d6 3c a1 a8 9b bb bf 7f 20 bb 0c a2 59 3d
       0.02616774 -0.0047503267 -0.0024490205 0.053133056
0000f0 2f e5 85 3d 70 b0 73 bc 8d c0 47 3e ed 9a 8e bd
       0.06537854 -0.014873609 0.19507046 -0.069631435
000100 bd e0 4f 3e f5 c4 ca 3d d6 de f4 bc ac ef 93 bd
       0.20300575 0.09900848 -0.029891413 -0.07223448
000110 a9 4e 8c bb d6 db 86 bd b0 35 8d 3d 01 e6 99 bc
       -0.004281838 -0.06584899 0.06895006 -0.018786432
000120 93 03 0a bc 1e 4d ba 3c c2 85 8a bc 1a 17 d0 bc
       -0.008423704 0.02274185 -0.016909484 -0.02540164
000130 f4 77 3f 3a b1 c6 b6 3d a8 0d 43 3d 56 f2 9a 3b
       0.0007303946 0.08924616 0.047620445 0.0047285957
000140 bb d4 5b bd 1d 50 38 be d3 fa b4 3d 54 55 66 3c
       -0.053669672 -0.17999311 0.088369034 0.01405843
000150 35 8d 0a be 09 49 56 bd 83 57 ba be 79 96 37 3d
       -0.13530429 -0.052315746 -0.3639489 0.044821236
000160 0f 0d 4b bd 72 a5 8e 3d 63 21 47 3d f2 b8 54 bd
       -0.049573 0.0696515 0.048615824 -0.05193419
000170 42 15 db 3d e2 90 62 3d 33 d2 b5 bc 2e 07 7b bd
       0.10697414 0.055313952 -0.022194957 -0.061286144
000180 ea fc b4 bd 37 36 29 3d 5a b4 5f bd 9c 39 a3 3d
       -0.08837302 0.04131147 -0.054615356 0.079699725
000190 ee 0e 03 3c 0f f2 19 bd 7e 44 ec 3c 70 52 c8 3b
       0.007999165 -0.03758436 0.028841253 0.006113343
0001a0 10 22 cf be 21 50 7d 3b 33 36 e0 3b dd 65 dc 3d
       -0.40455675 0.0038652497 0.0068423986 0.107616164
0001b0 b0 58 cf 3d e6 2f 24 be d0 bc c4 3d 9c f9 a8 3c
       0.10124338 -0.16033897 0.096063256 0.020626836
0001c0 19 f1 8b bd d3 d2 a1 bd 9c d8 5d bc c9 05 dd 3d
       -0.06833095 -0.0790154 -0.013540413 0.10792119
0001d0 ba 27 86 3d 06 83 8a 3d 64 39 25 3d 8c 27 8e bc
       0.06550546 0.06763272 0.040337935 -0.017352842
0001e0 dd e0 9c bc 43 b7 2b bc ed cd 7c 3d 8d db 08 bd
       -0.019150192 -0.010480705 0.061719824 -0.033412505
0001f0 c9 5c 32 3c aa 0f f1 ba bc eb 73 bd 2e 17 3a bd
       0.0108863795 -0.0018391509 -0.059550986 -0.045432262

net.4.weight f4 [128, 128]
000000 4b d5 84 bd 52 83 21 3d 86 2b 09 be df 03 80 bd
       -0.06485995 0.039431877 -0.13395509 -0.06250738
000010 0a 88 b1 3c ec b8 99 bc e9 31 87 3c 6a 31 cc bd
       0.021671314 -0.018764935 0.016503291 -0.099703625
000020 b9 21 f9 3a 28 28 09 bd 55 a1 a4 b9 76 d3 cb 3d
       0.0019007243 -0.03348556 -0.0003140072 0.09952442
000030 a9 4a 94 3d 32 53 3e 3d 85 ee b4 bd fa 83 6e 3d
       0.07240803 0.04646606 -0.088345565 0.05823133
000040 67 8b 0f 3d 9c 4d 98 3c d5 a3 a3 bd 8d 5b 81 3d
       0.035045054 0.018591695 -0.07990233 0.0631629
000050 6c 32 91 3d 44 ef a8 bd a7 83 f4 3b d9 ac bb bd
       0.07089695 -0.08248761 0.0074619832 -0.091638274
000060 d3 21 19 bd 13 82 36 3d cf 56 43 bc 84 a9 e7 3c
       -0.037385773 0.044557642 -0.011922552 0.028279074
000070 dd 50 d3 bd 9d e9 a3 3d f8 a2 80 3d bd 16 97 3d
       -0.10318158 0.080035426 0.06281084 0.07377384
000080 6f 21 c3 3d 0e 41 8f 3d 43 45 5c bd 38 86 80 3d
       0.09527861 0.0699483 -0.05377699 0.062756
000090 1a bf fa 3c 33 e8 31 bd 51 2a 83 3d 33 5e 87 3d
       0.030608702 -0.043434333 0.064045556 0.06609764
0000a0 af a0 ed 3d d4 41 f0 3d c4 e2 bb 3c 02 bf 14 bc
       0.116029136 0.11731306 0.022935279 -0.009078743
0000b0 a1 dc 90 3d b2 71 b1 3c 0b a6 ea bb 1c a9 ad bd
       0.070733316 0.02166066 -0.007160907 -0.08479521
0000c0 3e 1f c6 3d 7f 16 53 3d 0b 01 98 3c ec 33 42 3d
       0.09673928 0.051535126 0.018555185 0.047412798
0000d0 96 f8 8e bd a0 c2 d6 bd 38 40 49 bd 1d cc 00 be
       -0.06981008 -0.104863405 -0.04913351 -0.12577863
0000e0 1b b8 ce 3c c3 69 04 bd f3 be 43 3d 2f 69 58 bd
       0.025234273 -0.032327425 0.047789525 -0.052834686
0000f0 1c 5d 24 3b b0 97 42 3d 29 2d a6 bd 6f a1 77 bd
       0.0025079912 0.04750794 -0.08114082 -0.06045669
000100 53 bf a8 bd 2f a9 13 3b de 09 c1 bd 85 1e 64 bd
       -0.08239617 0.0022531261 -0.0942571 -0.05569317
000110 2b fa 38 3d 39 8e a4 bd 52 10 ca bd 0e b0 ba 3d
       0.045160454 -0.08034939 -0.09866394 0.09115611
000120 11 24 0a bd 57 9b 26 3e 7a 59 93 3d 6a fc 10 3d
       -0.0337258 0.16270195 0.07194801 0.03539697
000130 be 33 50 bd 0d 16 4a bd 6d bc 46 bd cf 3b 19 bd
       -0.050830595 -0.049337436 -0.04851954 -0.037410554
000140 5c a9 a5 3c f5 0d 46 3d 46 55 77 3d 15 88 39 bc
       0.020222358 0.048353154 0.060384057 -0.011323948
000150 a3 c9 b3 bd fa 84 87 3d 20 12 85 3d 43 64 3d 3c
       -0.087786935 0.0661716 0.06497598 0.011559549
000160 3d 53 9c 3d e0 25 ef 3c 72 6b 5e bc 63 2c 2b 3d
       0.07633064 0.029192865 -0.013575422 0.041790377
000170 d9 1f 9e 3d 0b 47 83 bd ef b4 03 3e 2f cf 17 bd
       0.07720918 -0.06410035 0.1286199 -0.03706282
000180 a7 a6 86 bc 69 08 8b 3d 55 81 5b 3e 81 9b a9 bd
       -0.016436888 0.067887135 0.21436055 -0.08281613
000190 22 53 ba bd 9e 22 cd bb df f4 22 3d 4e 5c 98 3d
       -0.090978876 -0.00626023 0.03978431 0.07439481
0001a0 b6 6e 82 3c 86 4a b7 3d 84 94 e3 bb 20 52 90 3b
       0.015921932 0.08949761 -0.0069451947 0.0044043213
0001b0 16 20 53 3b 57 7f 3d 3d bf 1b c6 bd 95 5a 56 3c
       0.003221517 0.04626402 -0.09673261 0.01308312
0001c0 6b f7 56 3b 0e 07 8a bc 4d 67 6d 3b c6 83 a1 bc
       0.0032801281 -0.016849067 0.0036224902 -0.019716155
0001d0 53 38 8a bd dd 0b 4f bd c0 f1 6c 3d 8f ec db 3c
       -0.06749024 -0.050548423 0.05784774 0.026846198
0001e0 40 67 98 bd 8f 93 33 3d 16 9a cb 3c 20 ae 2d 3e
       -0.074415684 0.043841895 0.024853747 0.16960955
0001f0 92 eb 95 bd b0 db bf 3c 9f aa c2 bd 1d 05 b9 3d
       -0.07320322 0.023420185 -0.095052 0.090341784
000200 e5 85 3d bd 51 fa 48 3c 0f d2 17 be f9 29 cc 3b
       -0.04627027 0.012266711 -0.14826225 0.0062305895
000210 8d 23 bd bd 63 39 8b bd 9f e0 16 3c 25 43 75 3e
       -0.092352964 -0.06798055 0.009208827 0.23951395
000220 5c 67 0b be d4 8e 6f bc 35 3d 8b bc 8f af a0 bd
       -0.13613647 -0.014621455 -0.01699696 -0.07845985
000230 f6 0f 2a 3c f5 78 3f 3d c4 5f ce 3c 89 16 a4 3c
       0.010379782 0.046746213 0.025192149 0.020030277
000240 90 ba d0 ba 15 ab 10 be c7 a6 b9 3c 21 fa 8a bd
       -0.0015924741 -0.14127763 0.022662533 -0.067859896
000250 fc 01 77 3c 36 07 f1 3d f8 43 00 bd d0 0f 92 bd
       0.015076157 0.117689535 -0.03131482 -0.07131922
000260 9c 62 b4 3d ce 63 e2 3d ed 23 f5 bb d0 f5 53 bd
       0.08807871 0.110541925 -0.0074810893 -0.051748097
000270 f2 90 af bd 9c 95 c9 3b f5 0d 54 3d 3d 7c b8 3d
       -0.08572568 0.006151868 0.051771123 0.090080716
000280 dc e9 9b bd f8 4b 85 3e 2e c9 87 bd 05 b6 b3 3d
       -0.076129645 0.26034522 -0.06630169 0.08774952
000290 63 5c 9e bd 2c d8 9d 3d 0e b9 66 3d 8f 70 fb bc
       -0.07732465 0.07707247 0.056328826 -0.03069332
0002a0 57 bb 1c 3e f0 dc a1 3d bb d4 bd 3c 46 fb a5 3c
       0.1530584 0.079034686 0.023172727 0.020261418
0002b0 c9 ca 38 3d 4e 2c 00 bd 66 42 f7 3d e6 37 94 bd
       0.045115266 -0.031292252 0.12073211 -0.07237224
0002c0 15 c4 b6 bd a3 4d 72 3d d3 e9 3e bd 73 77 00 bc
       -0.089241184 0.05915607 -0.04660971 -0.007840979
0002d0 bb 08 9a 3d e7 9c fd bd c8 ef f7 bb ab 28 2f 3d
       0.075211965 -0.12383442 -0.007566426 0.042763393
0002e0 44 af 10 3d fc 5d d2 3c 27 49 50 3d 6f 88 4a 3d
       0.035323396 0.02567958 0.050851014 0.04944652
0002f0 ae 21 bd bc 6a 62 2c bd cf a4 1d 3d 70 27 c3 3d
       -0.023087349 -0.042086042 0.03848725 0.095290065
000300 c9 85 61 bd ff 83 d7 bd ac 85 35 3d c0 98 44 bd
       -0.055059228 -0.10523223 0.044316933 -0.047997236
000310 68 3a 8a bd ae 3c 09 bc c4 77 66 3d 1e 51 92 bc
       -0.06749421 -0.008376284 0.05626656 -0.017860945
000320 9e 62 93 3c 23 7b d7 3b 7b fc c7 3d 30 af 8f bd
       0.01799136 0.0065759583 0.09764954 -0.07015836
000330 d5 b6 7f 3c f7 3a f0 3c af 3b 17 be eb 7b fa 3c
       0.015607555 0.029324992 -0.14768861 0.030576667
000340 ac 27 01 3d 49 6d 64 3e 29 38 25 3d e5 68 b9 3b
       0.031531975 0.22307314 0.04033676 0.0056582564
000350 66 18 2d 3c ca 82 0d 3d ba 55 47 bc 38 c8 55 3d
       0.010564899 0.03454856 -0.012166435 0.052192897
000360 a0 2c 4f bd b6 0f ed bd d0 69 c5 3b 5e de 19 3e
       -0.050579667 -0.11575262 0.0060245767 0.15026233
000370 8d b4 18 bd ea d4 22 bd 89 79 4e bd d9 a1 4c bd
       -0.03728156 -0.039753832 -0.050408874 -0.049959037
000380 9a 98 ed 3c 42 fa 09 3d 17 46 40 be 16 9a 9c 3d
       0.02900343 0.03368593 -0.18776737 0.07646577
000390 08 ea 3f 3d 70 86 15 3e d3 44 e8 3d 72 76 94 3d
       0.04685405 0.14602065 0.11341252 0.07249154
0003a0 60 cf c7 3e 92 12 01 be b2 cc 49 3d a5 65 5f 3d
       0.39025402 -0.1260474 0.04926748 0.054540295
0003b0 80 fb 80 3d 09 7f 9f 3b 28 db 67 bb 89 3f 0c bd
       0.0629797 0.0048674387 -0.003537843 -0.03424028
0003c0 1f 66 64 bd b3 35 55 3d 85 1c 2d bc 07 95 a1 3c
       -0.055761453 0.052053165 -0.010565882 0.019724382
0003d0 f0 65 b0 3c 35 da af 3d 81 d3 a0 bd 36 ea e6 bd
       0.021532983 0.085865416 -0.07852841 -0.11275141
0003e0 b8 79 03 bd 95 62 26 bd fa 64 cb bd ef 8e 09 bd
       -0.032098502 -0.04062136 -0.09931369 -0.033583578
0003f0 26 1d 0c bd d1 b5 57 bc a8 f9 ff bc 44 c1 66 3d
       -0.034207486 -0.013165907 -0.031246975 0.056336656

net.4.bias f4 [128]
000000 3a 3c b0 3d f4 38 05 be c2 11 e3 3d ca c5 fd bc
       0.08605237 -0.13010007 0.110873714 -0.030978102
000010 15 41 12 bb a6 fa ca bd 46 e0 1b 3e 3a 6c 06 3d
       -0.0022316624 -0.09911089 0.15222272 0.032818057
000020 44 89 b2 bc 3f fb 14 3c c8 23 ae bc ff 64 24 bd
       -0.021793969 0.009093105 -0.021257296 -0.04013538
000030 9c 72 6b 3c f0 0b 43 3d a4 bd 8b 3d aa dc 56 3c
       0.014370587 0.047618806 0.068232805 0.013114134
000040 50 04 f5 bc d5 0f 4f 3d dd b6 c7 3d f3 fd 65 3d
       -0.029909283 0.050552208 0.09751675 0.056150388
000050 3c 4f 87 bd 4c a1 aa 3d c7 f3 a9 3b 20 d1 56 bd
       -0.0660691 0.08331546 0.005186531 -0.05244553
000060 20 6d e8 bc 22 c3 54 3d 11 ce d4 bd fa 13 22 3d
       -0.028372347 0.051943906 -0.103908665 0.039569832
000070 22 a2 c9 bc 83 48 1c bd 22 02 67 3d ce b3 65 bd
       -0.024613444 -0.03815509 0.05639852 -0.05607968
000080 e4 28 b7 bd 11 9b c9 3d b2 bb ec 3d 8f d2 ae bd
       -0.08943346 0.0984403 0.115592375 -0.085362546
000090 ba 14 d3 3d fe 8d b1 3d b4 a7 ca 3c 13 cb 3e bc
       0.10306688 0.08669661 0.02473817 -0.011645096
0000a0 63 de ca 3a bc 17 00 3c 51 91 8e 3d 1d ab 91 3c
       0.0015477653 0.007818159 0.06961311 0.017781788
0000b0 f9 a9 9d 3c a4 1b 4f 3d 99 f3 cf bd 55 6c 4c bd
       0.019246088 0.05056347 -0.101538844 -0.049908
0000c0 3d 9c c8 3c 08 1e 55 3d f2 8e 24 3d 4b ea 17 bd
       0.024488563 0.052030593 0.040175386 -0.037088674
0000d0 46 34 66 3d 62 bf 8b bc 6e 8c 7e 3c 7d 5d 9f 3a
       0.056202196 -0.017059032 0.015536411 0.0012158599
0000e0 fb e3 cb 3d 26 4f 08 3e b1 5d c5 bc ed b2 f4 3c
       0.09955593 0.13311443 -0.024092527 0.029870475
0000f0 0c 86 7e be 8d 70 81 bd 84 4d d8 bd fc 46 19 bd
       -0.24855822 -0.063202955 -0.1056166 -0.03742121
000100 03 ce a4 bb 75 b7 91 bd 92 34 dc 3d f1 c5 b0 bc
       -0.0050294413 -0.0711507 0.107522145 -0.02157876
000110 fa 1a 4d bd fb 39 5f bd 48 3b 92 3d b5 33 97 3d
       -0.050074555 -0.054498654 0.07140213 0.07382909
000120 6f 19 e4 bc ad dd a9 bd 41 43 63 3d 95 13 07 bd
       -0.027844159 -0.082942344 0.05548406 -0.03297766
000130 5c f0 75 bd d3 50 b7 bb e9 10 5e bd 91 f3 38 bd
       -0.060043678 -0.005594352 -0.054215346 -0.045154158
000140 bf 4b 4c 3d 84 74 a1 bc 30 74 92 3c 28 1f e6 bb
       0.049876925 -0.01970888 0.017877668 -0.007022757
000150 2c f8 75 3d 00 0e 6f 3a 4b 4a 07 bd ba 91 94 3d
       0.06005113 0.00091192126 -0.033029836 0.07254358
000160 07 37 62 3d 06 22 0b 3e 93 0e 51 bd 8f 34 c6 3c
       0.05522826 0.13587198 -0.05103929 0.024194984
000170 1a b2 19 3d 6c bf b4 3d 33 95 c7 3d 6b ba 82 3d
       0.037523367 0.08825573 0.09745254 0.06383213
000180 9b 51 58 3d 42 52 04 bf 3f 3c 91 bc f7 0c 5a bd
       0.0528122 -0.51688015 -0.017728923 -0.05323502
000190 f2 d7 f4 bd c6 f7 d9 3b 62 f4 2b be 51 59 69 3e
       -0.11955251 0.0066518513 -0.16792443 0.22787978
0001a0 e6 73 d5 3c 41 28 6c bc 1c bd 44 3c 09 99 a4 bc
       0.026056241 -0.014413894 0.012007978 -0.020092504
0001b0 5a 81 f3 bc 7d 7b ee bc a0 e8 db 3d fb 00 d0 bd
       -0.029724766 -0.029111618 0.10737729 -0.10156437
0001c0 d1 3a 84 3c e4 e3 84 bd 0d fe 49 bc 30 78 c9 3d
       0.016141327 -0.06488779 -0.012328637 0.09837377
0001d0 ae 1b 33 3d ad 0f 2a bd f4 16 fa bc 57 92 a4 3d
       0.04372757 -0.041518856 -0.030528523 0.080357246
0001e0 62 18 1c bc f5 5d 6e 3d e9 58 33 3d 09 6b 07 bd
       -0.009527298 0.058195073 0.043785963 -0.03306106
0001f0 d1 57 dc 3b 73 e4 7a bd 2b 9c 04 3d b4 fd 7a bd
       0.0067243357 -0.061253022 0.032375496 -0.061277106

net.6.weight f4 [2, 128]
000000 ea af 2f be be be 00 bb 7c 28 e4 bd 1e 2f 01 be
       -0.1715695 -0.0019644941 -0.11140534 -0.1261563
000010 70 b2 0f 3e 36 ac 69 3d 77 a6 db bd b4 03 94 bd
       0.14032912 0.057049 -0.1072511 -0.07227269
000020 54 3c e3 3c c6 cd 59 3c ca e0 3f 3d 34 e0 0f 3e
       0.027738728 0.013293689 0.046845235 0.1405037
000030 ab 19 53 3a b2 2e 42 3d a1 9e 6d 3b 43 4d 03 3e
       0.0008052836 0.047407813 0.003625788 0.12822442
000040 a9 64 e6 bd f6 5b 38 3d 01 5c bc bd 0d 2a 10 3e
       -0.11249668 0.045009576 -0.09197236 0.14078541
000050 14 a8 0a 3d 05 3e 0b be 86 ff cc bd 65 4e c7 3d
       0.033851698 -0.13597877 -0.10009675 0.097317494
000060 29 20 f8 3d 95 b9 8f bd 08 15 82 bd 0f fe d3 bd
       0.12115509 -0.07017819 -0.06351668 -0.10351192
000070 34 40 c7 3c a2 c7 d5 3c 6e 7d 59 3d bc 01 c6 bd
       0.024322607 0.026096169 0.053098135 -0.096682996
000080 8b 1e 8e bd 1c 8a 2b 3e 72 ac 40 be 3d ea 0d 3d
       -0.06939419 0.16751903 -0.18815783 0.034647215
000090 6f 0e 56 be 21 c4 3f be 0f f5 40 3e fb be 41 be
       -0.20903943 -0.18727161 0.18843482 -0.1892051
0000a0 20 1c ab 3d 62 77 24 3e 61 98 ca 3d 4b 3f 62 3c
       0.08354974 0.16061166 0.09892345 0.0138090355
0000b0 ae 74 c8 3d 89 9e bd 3d ac f4 75 3e 01 b8 82 3d
       0.0978788 0.09258754 0.24019116 0.06382752
0000c0 1c 2d c9 3c d8 7a 76 bd 87 df 6e be bb dd a1 3c
       0.024557643 -0.060175747 -0.23327456 0.01975905
0000d0 66 01 41 be 2d b6 3a 3e 1a 52 04 3e 78 b7 e5 3d
       -0.1884819 0.18233557 0.12921944 0.112166345
0000e0 fc c1 e7 bd 72 47 5a bd b3 47 89 3d 59 9a c7 bc
       -0.113162965 -0.05329079 0.06703129 -0.02436559
0000f0 49 ab ed be 5f 44 6f bd 5b 30 19 3d 36 0f a8 3d
       -0.46419743 -0.058414813 0.03739963 0.08206026
000100 57 98 26 3e ea 54 3f be f9 28 f6 3d c8 04 c9 3d
       0.1626905 -0.18684736 0.12019534 0.09815365
000110 80 01 a7 bd b1 c2 b7 3d 06 8b 0c 3e b4 cc 2c be
       -0.08154583 0.08972681 0.13724908 -0.16874963
000120 57 05 b7 bc d8 41 b5 bc 2d 1b 32 3e 10 02 0a 3e
       -0.022341413 -0.022126123 0.17393179 0.1347735
000130 76 a9 c4 bd ae 2a 92 3d 90 7f be bd da 25 eb 3d
       -0.096026346 0.07137047 -0.09301674 0.11481829
000140 ec 90 53 3d 30 37 a3 bb 64 5d e2 bd de 7a 0f bc
       0.05165188 -0.004980944 -0.11052969 -0.008757321
000150 4a 7f 90 bd c1 00 18 be 61 99 84 be a4 23 ec bd
       -0.070555285 -0.14844038 -0.2589827 -0.115302354
000160 db f2 9a 3d fd 83 41 be cb 14 23 bd 00 59 b3 3d
       0.07565852 -0.18898006 -0.03981475 0.0875721
000170 ba ee 94 3d 7f 81 45 be 7f af 9a 3d fd 54 b3 3d
       0.07272096 -0.1928768 0.075530045 0.087564446
000180 a6 70 03 bd 16 62 11 bf af 14 cc bd 3c a7 a6 3d
       -0.03208985 -0.5679029 -0.099648826 0.08137366
000190 c9 6d ea ba c6 9c 9b bd 6b 5d 82 3e b5 63 96 3d
       -0.0017885502 -0.075982615 0.25461897 0.07343236
0001a0 56 9e ed 3d 8d 37 d0 bc 6e 78 95 3d 98 8d 91 3d
       0.11602466 -0.025417114 0.07298361 0.07107085
0001b0 80 64 0c be f6 20 c8 3d 07 c4 05 be 2f b9 ae 3d
       -0.13710213 0.09771912 -0.1306306 0.08531415
0001c0 0b 2d 96 bd 14 0e 8b be af 7e 87 be 11 6c 82 3d
       -0.0733281 -0.27159178 -0.2646384 0.06368268
0001d0 18 5f f8 3d c2 b3 77 bc ae 66 29 be a0 c4 16 bd
       0.12127513 -0.015118541 -0.16543075 -0.03680861
0001e0 a1 bd bb bc 86 88 d8 ba c4 86 dc bc 12 74 57 bd
       -0.02291757 -0.0016520179 -0.02691973 -0.052600928
0001f0 6f 4e 5e bc d3 bc a9 3d d0 48 d3 3c 83 48 82 bc
       -0.013568505 0.082879685 0.025791556 -0.015903717
000200 be 7a ac 3d 16 3a bb bd b2 9e f7 bd e4 ad 0c bd
       0.08421849 -0.091419384 -0.120908156 -0.034345523
000210 4b ed 44 3d 3f 67 0b be bb 97 b3 bd e3 8b 2c 3d
       0.048077863 -0.13613604 -0.08769175 0.042125594
000220 e1 2c 2a 3d 2d bf b4 bd 7a b4 1a 3d e6 99 90 3d
       0.041546706 -0.088255264 0.037769772 0.07060604
000230 02 04 63 bd c7 8e a0 3d 78 d1 99 3d 9d b5 80 bd
       -0.055423744 0.078397326 0.07510656 -0.0628464
000240 8d 34 b0 bd 46 be a1 3d 54 d4 86 bd c5 5e 4b 3d
       -0.08603773 0.0789762 -0.06583467 0.049650926
000250 10 7d 35 3d 39 c4 b5 3d 4c d4 a2 bd fc 49 c2 bc
       0.044308722 0.08875317 -0.07950649 -0.02371692
000260 a7 99 9a 3d d7 41 9b 3d ed b6 e1 bd 2d 8f 5e bd
       0.07548838 0.07580917 -0.110212184 -0.05433576
000270 aa 36 58 bd 71 61 02 3d 74 29 c4 3d 3b 91 d1 bd
       -0.052786507 0.03183121 0.09578219 -0.10232779
000280 75 41 70 3d 03 e0 20 bd de 45 11 3b a1 59 47 bd
       0.058656175 -0.039276134 0.0022166888 -0.04866946
000290 18 dc ca 3c 0d f0 22 bd 10 90 93 3a f6 47 02 3d
       0.024763152 -0.03977971 0.0011258144 0.03180691
0002a0 64 d7 6e 3d fe 45 47 bd 0e 61 86 bd 73 3e d2 3d
       0.05831088 -0.048650734 -0.065614805 0.102658175
0002b0 fc 98 cd bd 1b 30 af 3d 08 29 ab 3c 53 b2 6c 3d
       -0.10038945 0.08554097 0.020893589 0.05778725
0002c0 88 6e be bd 59 d1 17 3d 9e 15 b6 3c a0 88 64 3d
       -0.09298426 0.037064884 0.022227105 0.05579436
0002d0 3f 11 9e bc 62 5a ca 3c 47 21 8c 3c 90 17 4d 3d
       -0.019295333 0.024701301 0.017105712 0.0500713
0002e0 7f 7f 12 3d f1 10 28 bd 98 4c ce bd 61 06 b1 bd
       0.03576612 -0.04103178 -0.10073203 -0.08643795
0002f0 34 3d af bc ec fb 84 bd db cb c2 3d 84 35 a3 bd
       -0.021391489 -0.06493363 0.095115386 -0.07969192
000300 b9 4c 1c 39 4d bb 48 3d a1 fa ff 3d 4f 8f a1 3c
       0.00014905901 0.04900675 0.124989755 0.019721655
000310 6c b7 c5 3d 50 4d c7 3d 3c 23 0e 3d 08 86 88 3c
       0.096541256 0.09731543 0.03470157 0.016665474
000320 dd 25 cd 3d 8a 55 92 3d 2b 83 f0 bb c3 fb eb ba
       0.100169875 0.071452215 -0.007339855 -0.0018004108
000330 f5 45 10 bd 98 15 4d 3a 81 65 95 3d 80 3d a7 bd
       -0.035222966 0.0007823347 0.07294751 -0.08166027
000340 ce 41 81 bd 22 da 7a bd 69 66 9e bd f2 2e b0 bd
       -0.063113794 -0.061243184 -0.07734377 -0.08602704
000350 60 65 72 3d 75 d3 38 3d 75 3d 49 3d 77 52 78 3d
       0.05917871 0.045123536 0.049130876 0.06062552
000360 13 94 71 bd 88 d1 41 3d 3e bd af bd ed 66 97 3c
       -0.058979105 0.047318965 -0.08581017 0.018481696
000370 64 61 85 3d ad 1b ec 3c 01 be d3 bc 5d f4 b4 3d
       0.065127164 0.02882179 -0.025847437 0.08835671
000380 47 5e 43 bd 51 43 c5 3c 44 64 d9 3d ad 19 36 bd
       -0.04769733 0.02407995 0.10614827 -0.04445808
000390 0d 82 ff 3d 1b 09 b2 bd d2 45 1c 3c 3b 15 b2 bd
       0.12475977 -0.08693143 0.009538131 -0.08695456
0003a0 9f 0c 3f 3d 5b fb e6 bd 2d 99 54 3d 73 a7 45 3d
       0.046642896 -0.11278411 0.051903892 0.048255395
0003b0 26 4e e7 bd 7b 07 92 3c 80 dd aa bd 8f 06 a0 3d
       -0.112942025 0.017825833 -0.08343029 0.07813751
0003c0 78 c9 a8 3d 9a 37 c8 3d 1f 8c 45 3d 3b 4f 68 bd
       0.08241552 0.0977623 0.048229333 -0.056716185
0003d0 59 6b b1 bc 3c 80 90 bd db 3a 7f 3d 37 49 d6 bd
       -0.021657633 -0.07055709 0.06231199 -0.104631834
0003e0 24 37 cb bd 1c 26 ab bd 82 2d ca bd 92 f1 9e 3d
       -0.099226266 -0.08356878 -0.09871961 0.0776092
0003f0 6c 30 0a be 52 0b 8c 3d e1 f5 cd bd 85 60 a6 3d
       -0.13495034 0.06838097 -0.10056663 0.081238784

net.6.bias f4 [2]
000000 11 27 97 bd 05 fb 05 be
       -0.07380498 -0.13084038
