model/PbTe.pth (torch, 139456 bytes, 8 tensors)

net.0.weight f4 [128, 6]
00000000: 55a7 8cbd c1bc 863e ad90 3abf 04a6 05be
00000010: d91b c0be c082 8dbd fe88 c73e ac19 3a3d
00000020: 4a05 223d b9bd b13e 8cf9 99bd da68 3ebd
00000030: 0b9c 16be e266 193e c6f4 e2be 96e9 a8be
00000040: 7f23 8c3e 895b e63e 7e2f 2e3e 8148 97be
00000050: c785 bcbd 7aa2 ddbe 8eca 4fbe 78c2 643e
00000060: 48f8 cf3e cc84 aebe 4fae 243e 04a1 793e
00000070: 7e51 f8bc 2057 c43c 00be a53e 466a 6dbe
00000080: 2236 b83e 6190 d13e efaf 90bc bbf3 9ebe
00000090: 3f56 ae3c de28 89bb 9072 0b3e 1e9a a1be
000000a0: 4e16 76bd 8b18 8cbe 2016 36bb adc2 b63e
000000b0: fb56 37be 4a3a c5be 579a 143e 30e5 bfbe
000000c0: 2a02 e2bd 5661 19be f8f4 093e 47e3 773e
000000d0: 1c94 b5be 8e7c d5be 65d3 c43e 39a3 fd3c
000000e0: 720b 9c3e 0964 123e ab9a a63e 9d06 013f
000000f0: 80b4 0abe 8212 52bd 99de b7bc 8151 be3e
00000100: 6963 8d3b 49c7 90be d85a d43e 5842 cb3d
00000110: 9776 7cbe ad4e c83e 7848 ccbe e8ec a6be
00000120: fd61 8a3d b5eb 7b3d c96b 2c3e 452e e0bd
00000130: ee00 e83d 40a0 233e b4d4 653e d42b 71bd
00000140: 1ba0 3cbd e7f2 b03e ae11 e43e 1c16 c0be
00000150: 7521 61be b3fa 75be d214 a8be dc13 e9be
00000160: e8d2 c93d 825c 103d d55e 783e 5395 823d
00000170: e9f4 b43e 2652 703e 68d0 b33e abcf c43e
00000180: 856c 3d3e 5037 c03e 74d8 22bc b39f abbe
00000190: 78fb 7ebe 83c7 8a3e 154f ba3e 8330 39bc
000001a0: 8429 123e 6d95 d0bd 5890 4a3e 65b5 e83e
000001b0: f64e 1dbe 0ed2 1abe 1c0c b9be 4c26 8bbc
000001c0: eeb4 89bd fd43 59bd 7788 833e 3c3f a53e
000001d0: a313 a73c d332 62bd 9eed 5abe b07c d63e
000001e0: 35a4 133e b979 273e 9a88 a2be 9345 0ebe
000001f0: 503a 283e 03bd 2cbe 0444 c8be b6d3 84be
00000200: 59f2 483c 3ecb 7cbd 3aba b53d 3e74 2a3e
00000210: 6312 6d3e 84dc 88be 0e8e a83e dd2a bf3e
00000220: 8047 e0be 4a70 283e df2a 97be b27f 243e
00000230: 1ce2 02be 8726 00bd 0033 fdbd 5bae c5be
00000240: 32d2 fbbc 5878 aebe 1060 d9be 8261 963e
00000250: 428a 3b3e 0654 aa3e 7fa0 a43c e08f c23e
00000260: 0a70 ce3e 0118 46be 8343 cdbe 83b0 abbe
00000270: d894 7c3e 388c 9c3e f1c4 7b3e 4e93 bc3e
00000280: 672b 8d3e 433c f73e 7831 0dbe fc61 cdbe
00000290: 0469 773e e1db 67be 2743 cabc 7660 683e
000002a0: bf44 65be 7f6a ae3e cf2d e2be e672 b43e
000002b0: f6a1 9a3e ce31 6f3e e802 613e c511 adbd
000002c0: 426c acbe ee84 a1be fcf6 82be dda3 1d3e
000002d0: 018c 05be 8b77 aabe 6ff3 cc3e 1dab b1be
000002e0: 504b 2dbe 53dd ec3e e4ef 163e c2f4 cdbe
000002f0: bfdf 943e 5ab8 0dbe b402 b8be 26f2 96be
00000300: d59d 79bd fd2a b5bd 27a1 ad3d f3a7 9abe
00000310: c7b1 af3d 4961 abbd 2b9f f63d bb11 ad3e
00000320: 237f 93be 81f3 b83e 81f3 863e fcb8 843e
00000330: 59c5 e23b 0ffd a73e e271 83be dcc2 273d
00000340: f758 b43b 5843 a3bd 0c18 9abe 6923 91be
00000350: 3b47 e43d 6814 8c3e ec00 70be 57b6 90be
00000360: 8899 98be 9a05 b73e a94d ccbd fe8e fc3e
00000370: 7026 03bf 510d 6a3e de0b 483e fa0f 343e
00000380: 7335 813e ed79 9b3e 5c9e 86be 4d7a 3d3d
00000390: a3b9 c4be 029d 35be d829 f33d 0339 05be
000003a0: 5ff3 d83c 6bab 04be a148 663e 8930 423e
000003b0: 28b0 95bd 501d 7fbe a536 573e 0d06 e83e
000003c0: 7049 7fbe f463 e3be 191a 133d bea4 923e
000003d0: 5ce3 9bbd 20a6 9b3e fee7 1a3e f270 70be
000003e0: 49fb 4b3e e6e3 cfbd ab04 d9be d23a 323e
000003f0: 00d3 0f3e d074 3ebe bd6d 113e 3210 adbe
-0.068678536 0.26315883 -0.7287701 -0.13051611 -0.37521246 -0.06909704 0.38971704 0.04543464
0.039555825 0.3471506 -0.075183004 -0.046486713 -0.14707963 0.14980653 -0.44327372 -0.32990712
0.2737083 0.4499171 0.17010304 -0.29547504 -0.092052035 -0.43288022 -0.20292112 0.22339809
0.4061911 -0.3408569 0.16082118 0.24377829 -0.030312296 0.023967326 0.3237152 -0.23185071
0.359788 0.40930465 -0.017662017 -0.31045327 0.02128136 -0.00418578 0.13617921 -0.31562895
-0.060079865 -0.27362475 -0.0027784184 0.356954 -0.17904274 -0.38521034 0.14512001 -0.37479544
-0.11035569 -0.14978537 0.13472354 0.24207793 -0.3546456 -0.4169659 0.3844253 0.03096162
0.30477482 0.14295973 0.32539877 0.50400716 -0.13545418 -0.05128718 -0.02244501 0.37171558
0.004314829 -0.28277043 0.41475558 0.099247634 -0.24654613 0.39122525 -0.3989904 -0.3260262
0.06756971 0.061504085 0.16837992 -0.10946325 0.11328302 0.159791 0.22444421 -0.05887969
-0.046051126 0.3456032 0.4454474 -0.37516868 -0.21985419 -0.24021415 -0.32828385 -0.45522964
0.0985468 0.035244472 0.24254926 0.063761376 0.35343102 0.23468837 0.3511994 0.38439688
0.18498428 0.375422 -0.009939302 -0.33520278 -0.24900615 0.2710534 0.3638846 -0.01130307
0.1427365 -0.10184751 0.19781625 0.45450893 -0.15362152 -0.15119192 -0.3614205 -0.016986035
-0.06723963 -0.053043354 0.25690052 0.32274806 0.020395106 -0.05522425 -0.21379706 0.41892004
0.14418109 0.16355027 -0.31744844 -0.13893728 0.16428494 -0.16868977 -0.39114392 -0.25942773
0.012264811 -0.061717264 0.088734105 0.16645905 0.23151545 -0.2673074 0.3292088 0.3733739
-0.4380455 0.16449085 -0.29524896 0.16064337 -0.12781566 -0.031286743 -0.12363243 -0.38609585
-0.030739877 -0.3407619 -0.42456102 0.29371268 0.1831446 0.3326723 0.020096062 0.38000393
0.40319854 -0.19345094 -0.4009057 -0.33533105 0.24666154 0.30575728 0.24586846 0.36831135
0.27572176 0.48288164 -0.13788402 -0.4011382 0.24161154 -0.22642471 -0.024690224 0.22693047
-0.22389506 0.34065625 -0.44175574 0.3524391 0.3020169 0.23358843 0.21973765 -0.08450655
-0.33676344 -0.3154673 -0.2557906 0.1539454 -0.13041689 -0.3329433 0.40029475 -0.34700862
-0.1692326 0.46262607 0.14739949 -0.40225798 0.29076955 -0.13839856 -0.35939562 -0.2948162
-0.060941536 -0.0884609 0.08478003 -0.3020626 0.0857883 -0.08368165 0.12042078 0.3380259
-0.28807935 0.3612328 0.26357654 0.25922382 0.0069204983 0.32810256 -0.25672823 0.040957317
0.0055037695 -0.07971829 -0.3009647 -0.28347328 0.11146399 0.2735932 -0.23437852 -0.28264114
-0.29804635 0.3574646 -0.0997575 0.49327844 -0.51230526 0.22856642 0.19535777 0.1758422
0.2523609 0.3036646 -0.26292694 0.046259213 -0.3842288 -0.17735675 0.118732154 -0.1301003
0.026483236 -0.12956016 0.22488643 0.18963827 -0.0730899 -0.24913526 0.21016939 0.45317116
-0.24930358 -0.44412196 0.03591356 0.28641313 -0.07611725 0.3040018 0.1512756 -0.23480585
0.19920076 -0.1015089 -0.42386374 0.1740525 0.14045334 -0.18599248 0.14202018 -0.3380142

net.0.bias f4 [128]
00000000: 38c3 ccbe dfe1 3e3e 480b cc3e 5091 0bbf
00000010: 5fd2 17bf cf44 40be 2d49 163f 76b3 19be
00000020: 90be 8cbd 9f81 20bf 32d7 af3e ffa5 2dbe
00000030: e94a a2be d505 c53c 1ef0 03bf 08fd c4bd
00000040: a0aa 50be 1b8b 16be caee 4fbe d3ee 8abe
00000050: fc66 adbe c33f 693e 8836 05bf ca29 f13e
00000060: b615 ffbd 72f4 b03e c2a4 dfbc 1467 02bd
00000070: e8a9 c2bd 8f7a c53e 6d7f cdbe 0b1d 4fbe
00000080: a051 053f 02b2 843e 397e 003f d44b a1bd
00000090: 5945 b53d 5d9d a0be 5c58 843d 332c dc3e
000000a0: 2bae aa3e 2e29 893d 63a3 113e 280c d6be
000000b0: 7e42 66be 3792 1f3d 5811 ac3e 8e88 9a3e
000000c0: 8651 403d 2bef c0bc 2bbc 563e ff26 c33e
000000d0: e754 0cbe 8106 0ebe 0fd1 d03e fbef c63e
000000e0: 7d0a 833e 3ec9 e8be 42b0 6cbe c3db a7be
000000f0: 89d2 0f3f ae48 aabe 1ab4 e93e 0c97 613e
00000100: 251d 6abd eda0 b73e b00d 78be ba48 8ebe
00000110: cad3 98be 3afe 043f a491 c9be 95f3 823e
00000120: e74e 8dbe ad1f 853e 82a6 263d b20f 8a3e
00000130: a757 913e 42c7 33be 3208 ebbe 5b4d d23e
00000140: c884 463e 2edd a03e aa06 733e 7e54 963e
00000150: 6611 a4be 210e ec3c f6f5 a93e a866 a3be
00000160: 4743 eb3e f9da a53e b7ea 98be b515 38be
00000170: dcc4 d33e 3faa 84be 5e6d 3cbe e5ff 6ebe
00000180: 98f0 863e 12e2 afbe e159 d4bc e567 cc3e
00000190: 16ab 5ebd 5abe 13bd 64b1 443e c542 ae3e
000001a0: b868 60be d5a3 94be 1f8a d23d 4f09 d2bc
000001b0: 62e6 6c3e e99a 8dbe 12f0 c53d d2a5 26bd
000001c0: 3709 54be 6b8f 8bbd 2afd 91bc 33b5 1d3e
000001d0: bd03 c3bd 3187 97be 8a1e 9b3e 32bf 293e
000001e0: 5e8d 013e ebd1 223f 1e12 e93e 0c52 1dbe
000001f0: 3f0f b8be e8b9 993b 8d74 33be b09d 0c3e
-0.3999269 0.1864085 0.39852357 -0.54518604 -0.59305376 -0.18776248 0.5870541 -0.15009865
-0.068722844 -0.62697786 0.34343868 -0.16957854 -0.31697777 0.024050632 -0.51538265 -0.096185744
-0.20377588 -0.14701502 -0.20305935 -0.27135333 -0.33867633 0.2277823 -0.52036333 0.47102195
-0.12455313 0.34561497 -0.027300242 -0.031836584 -0.09505063 0.38570067 -0.4013628 -0.20225923
0.52077675 0.2591706 0.501926 -0.07875791 0.08851118 -0.3137006 0.06462166 0.4300247
0.33336005 0.066973075 0.14222483 -0.4180615 -0.22486302 0.0389578 0.33606982 0.30182308
0.046952747 -0.023551544 0.20970218 0.3811569 -0.13704263 -0.13869669 0.407845 0.38854966
0.2559394 -0.45466036 -0.23114112 -0.32784852 0.56180626 -0.33258575 0.4564522 0.22030276
-0.0571567 0.35864964 -0.24223971 -0.2778986 -0.29849082 0.5195042 -0.39368927 0.25576463
-0.2759926 0.2600073 0.040686138 0.269651 0.28387186 -0.1755648 -0.4590469 0.41074643
0.1938659 0.31418747 0.23733011 0.29361337 -0.32044524 0.028815331 0.33195466 -0.31914258
0.45949766 0.32393625 -0.29866573 -0.1797703 0.4136113 -0.25911137 -0.18401095 -0.23339804
0.26355433 -0.34352165 -0.025921764 0.39923015 -0.05436238 -0.036070205 0.19208294 0.34035316
-0.21914947 -0.29031244 0.10280251 -0.025639204 0.23134759 -0.2765725 0.096649304 -0.040685482
-0.2070664 -0.06814464 -0.017820913 0.15401153 -0.095221974 -0.2959533 0.30296737 0.16576841
0.12651584 0.6360156 0.45521635 -0.1536333 -0.35949132 0.004691351 -0.1752493 0.13732028

net.2.weight f4 [128, 128]
00000000: 29e5 873d 66cc 94bd 82bc 0d3d 6dbd 3b3d
00000010: b98a 5a3d 949e 353d b1b7 ca3c 6fad fa3d
00000020: 25bd 23bd 4a9a 1bbd f13e 0fbc 21ed 073d
00000030: 6862 cb3a 99a9 47bd 5926 3fbc ac67 443d
00000040: fbd6 233d e489 16bc f9a3 773d bbf8 e93c
00000050: 418d 903d b147 36bd 745c aebd 8cc0 dcbc
00000060: a11b 8b3c 87f6 0fbd 1e42 7b3d 54ac 8cbd
00000070: 072b b03d 2641 e73c 3bb3 05bc ce7a 333d
00000080: bddf 05bb 4737 c63d 0296 c93c 6873 e2bc
00000090: 4c4a c8bd 5886 7d3b d084 d1bd 9945 453d
000000a0: 08d1 cabd b25b 98bb 0b02 91bd bbb1 7f3d
000000b0: 0eff 34bd 7ae6 633d 61d8 d8bd 7462 3d3d
000000c0: 47fe 1fbd 6a0a ea3b 4172 373c 2e98 ff3b
000000d0: ec01 88bd 0033 483d 9fad e13b d9a9 01bc
000000e0: fda0 a6bd b978 5dbd e819 c0bd 253f 40bc
000000f0: 55cd bebc 50a5 2f3c 9e2c e03d f38b 1a3d
00000100: 9505 833d 6515 813d 8926 b33d 65a5 783d
00000110: 84b0 373d 7f7f 7b3d 6f51 d63d a157 0bbc
00000120: 13ab b93b 5f3c 163d d830 763d f1a7 713d
00000130: 72d1 9e3d 86e3 5a3d 2b0b 8a3a 6230 ad3c
00000140: 10d8 4dbd 4dac 933d b408 dcbc bcd9 0abb
00000150: 7ba0 073e 3b10 7dbd a2f8 9b3d d26b c3bd
00000160: bc4d 513a 33c1 2cbd 3b37 3cbd c125 c63d
00000170: 2816 5a3d 7247 cebc a4c2 8dbc 2583 263c
00000180: 43d9 41bd 7589 e4bd 3517 8c3d 5e08 73bd
00000190: 700b f93b b1ac af3d f881 3d3d 4806 29bd
000001a0: c19d 02bc ab63 cd3c 5abd 263d e02c 1f3d
000001b0: b2fc d13c 7b3b 76bd d12c 2cbd a601 24bd
000001c0: 2de5 0ebd d3ba 8f3b c807 3e3d dd9a 44bc
000001d0: 676d 94bd bf64 433d c360 dd3c 4843 69bd
000001e0: 8df6 f83c 54ac 4ebd ec51 2b3d 318a 863d
000001f0: ba2e c63d 757c 4ebd b3d4 9f3d a95a 213d
00000200: f578 7abd 9837 cabc c452 52bd d929 bbbd
00000210: e0a9 933c 0507 46bb dc98 dabc 0352 e2bc
00000220: 2492 433d 8226 ea3c bcb9 c33d 185f e93c
00000230: 4acd 74bd 5beb 473d f8df b5bd daa2 39bd
00000240: 8624 50bd 1f28 e5bd 405b 9cbd 9546 0c3d
00000250: 4e98 a93c f453 b6bd 42b5 3a3d 7a6a 623c
00000260: 136d 81bd f59b 863d d2c9 173c bebd 283c
00000270: 6560 c5bc d9c5 c1bc 7bcd 36be 505d 863d
00000280: 5c06 8fbd bfba ecbc 41c3 653b 0550 5f3c
00000290: 0cf3 f63d f4da cf3d 29f0 58bc 201e 543c
000002a0: 7aea 9dbd 425e d43d 6666 cb3d f58e 23bd
000002b0: ebdc 6e3d b4b4 693d c811 e33d a20e b3bd
000002c0: 5a3d 91bd b140 a03b e2ea 6fbb 781d 65bc
000002d0: 82e2 80bd 88dc d4bc 87c0 5abd e638 1bbd
000002e0: 53bc 56bd e0de 9b3b 2b3c d03d 8107 0f3d
000002f0: f378 973d f1d0 9cbc 8cc4 43bd 2acf 3d3d
00000300: 29b3 483d 54a2 493d af67 d8bd 44ed e1bb
00000310: f983 263d ef6c 8bbc be5b cfbc c5bd 343b
00000320: c7a6 033e 0e92 86bd 09ed a1bc ae9e ae3a
00000330: c0ff 17ba 6835 ad3b b772 9fbd dd77 543d
00000340: 0dac c83d 6824 9fbb 76a9 223e 0ae2 82bc
00000350: d874 7bbd d1bf 913d 7dad c43d 8337 eebc
00000360: 7cb2 99bd dc4b cfbb 970e 54bd 50dc 83bd
00000370: 46a0 983d 4cd7 14be dca5 a13d 56f3 b4bd
00000380: 6c0a d2bb 2fa4 b23c ff69 e33a ce6f c83c
00000390: 8b0a 693d 18e5 5dbb 8497 c53c 9a80 adbd
000003a0: 6a89 c1bc f9ba 54bc 84ce 55bc 955c a3bd
000003b0: 5041 d9ba d8d3 56bd 50e4 20bc f3e7 02bd
000003c0: 3a90 ab3c 32cb 06bd 5ac4 4abd c8c3 5c3d
000003d0: 8e1c a2bd d792 30bc 661b 6b3d a63a b93d
000003e0: ecf0 303c f792 083e 5ba8 51bd 5ed4 963c
000003f0: a99b be3d ca0d 533d 5e21 8d3c 588f 693d
0.06635506 -0.072655484 0.034603603 0.045834947 0.053354952 0.044340685 0.024745794 0.12240111
-0.039975304 -0.03798894 -0.008743034 0.033185128 0.0015516998 -0.048745725 -0.011666858 0.04795043
0.039999943 -0.009188149 0.06045911 0.028560987 0.07058192 -0.044501964 -0.08513728 -0.026947282
0.016980948 -0.035147216 0.06134235 -0.068688065 0.08601957 0.028229307 -0.008160408 0.043818288
-0.0020427548 0.09678512 0.024607662 -0.02764292 -0.09779796 0.0038684811 -0.1023041 0.048162077
-0.09903151 -0.004649603 -0.07080468 0.062425356 -0.04418855 0.05563972 -0.10588146 0.04623647
-0.039060857 0.0071423547 0.011196674 0.0078001237 -0.066409916 0.048876762 0.0068871523 -0.00791403
-0.08136175 -0.05407021 -0.09379941 -0.011733805 -0.02329127 0.010720566 0.1094601 0.037731122
0.06397549 0.06302909 0.087475844 0.060704608 0.044846073 0.061400887 0.10464751 -0.008504779
0.0056661456 0.036678668 0.060105175 0.058998052 0.07754792 0.05343964 0.0010531893 0.021141235
-0.05025488 0.07210598 -0.026859619 -0.0021186909 0.13244812 -0.061783057 0.07615782 -0.095420495
0.00079843006 -0.042176437 -0.04595111 0.0967517 0.053243786 -0.025180552 -0.017304726 0.010163103
-0.047326338 -0.1115903 0.06840364 -0.05933415 0.0076002404 0.0857786 0.046266526 -0.041265756
-0.007972182 0.02507194 0.040707923 0.038861156 0.02563319 -0.06011532 -0.042034928 -0.040040635
-0.034886528 0.004386285 0.04639414 -0.011999813 -0.07247429 0.0477035 0.027023679 -0.05694893
0.030391002 -0.050457314 0.041826174 0.06569327 0.09676881 -0.05041166 0.07804241 0.0393931
-0.06115051 -0.024684712 -0.051348463 -0.09138841 0.018025339 -0.0030216586 -0.026684217 -0.027626997
0.047746792 0.028582815 0.095569104 0.028487727 -0.05976609 0.048808437 -0.08880609 -0.045321323
-0.05081608 -0.11189293 -0.07634592 0.034247 0.020702507 -0.089027315 0.045583017 0.013819331
-0.063196324 0.06572715 0.009264426 0.010299144 -0.024093816 -0.023653911 -0.17851822 0.06560767
-0.06983635 -0.028897641 0.0035059007 0.013629918 0.12058076 0.10149184 -0.013240852 0.0129466355
-0.077107385 0.10369541 0.0993164 -0.039931256 0.058316153 0.057057098 0.11087376 -0.08743025
-0.0709178 0.0048905243 -0.0036608507 -0.013984077 -0.06293203 -0.025984064 -0.053406265 -0.03789606
-0.052425694 0.0047567934 0.10167726 0.034919266 0.07396116 -0.0191426 -0.047794864 0.046340145
0.048998985 0.049227074 -0.10566651 -0.0068947393 0.040653203 -0.017019717 -0.0253123 0.0027578932
0.1285659 -0.065708265 -0.019766347 0.0013322437 -0.00057983026 0.0052859075 -0.07785552 0.051872123
0.09798441 -0.004856635 0.15884957 -0.015976924 -0.061390728 0.07116664 0.09603403 -0.029079204
-0.07504746 -0.006326182 -0.051771726 -0.06438506 0.07452445 -0.14535254 0.07892963 -0.08835475
-0.006409934 0.021806804 0.0017350315 0.024467375 0.05689482 -0.0033858474 0.0241201 -0.084717944
-0.023625094 -0.012984031 -0.013049725 -0.07976643 -0.0016575251 -0.052448124 -0.009820059 -0.031959485
0.020942796 -0.032908626 -0.04950366 0.05389765 -0.079156026 -0.010777197 0.057399176 0.090443894
0.010799628 0.13337313 -0.051185947 0.018411811 0.093070336 0.051526822 0.017227825 0.05702147

net.2.bias f4 [128]
00000000: 24b1 2d3d c12e e33d 00e9 d9be 814e 8c3d
00000010: 18b5 70bd 46d1 113d 9734 7e3e 994a 96bc
00000020: 80e8 1cbd 8d36 babb 6a29 9c3d c7af 03bd
00000030: 381a 12bc b1bf 123d ba92 ce3d 7d0c cd3c
00000040: f824 b6bd 578f 2a3d 5eff 71bc f350 a93d
00000050: 7840 6f3d c9d0 90be 2e5f 6ebc 66b1 e13c
00000060: 6886 71be 1876 303b 6090 afbd 3772 3bbd
00000070: 28e4 55bd 24d3 923d 2864 6e3c 8ed7 e63b
00000080: 9024 04bd 5275 8bbc 41f4 813d 84d7 b43c
00000090: 7790 d3bc 0b3e a53d c744 d43d 936d 56bd
000000a0: ff56 843d d03c 363c ea08 eabc 1ef7 d73d
000000b0: 9826 53bd 03c6 4d3c 2bd4 383e 7191 823d
000000c0: 5cf6 31bd a3c5 ae3d 5761 e83d f381 f03d
000000d0: 6fcf 44bd 8914 d53b 4522 c53c 2caf a03d
000000e0: 9263 26bd 8c5d dd3d ff6e 92bc 1ec0 37bc
000000f0: 6e96 a53d 8a5e 393c 19a1 4b3b daea 8bbd
00000100: 3225 51bd 6535 6d3e c70d b83d f6ae 433d
00000110: 0046 723d e971 e63d f1ce c13d 3b03 ecbd
00000120: 64d0 efbd 806e 2fbd 4748 24bd 9b70 343d
00000130: c1b8 06bd f1cd c0bc cb48 1bbd c37e 20be
00000140: 0d51 4ebd 4798 1d3e 2df8 94bd d202 be3d
00000150: 41b0 8c3d d833 41bd 861c d33d 1a4e 60bd
00000160: e06c 583d 87f6 a4bb f9df 04be e221 bebb
00000170: 57ba 1bbd 5db8 ca3d b87f 223d 0b03 0a3d
00000180: 4bf3 6f3d f897 e93c 87d1 24bd b512 a73d
00000190: 3ed8 a8bd 9222 ab3d 787b 513e ef74 bc3d
000001a0: 3ed1 813d 2aa1 ab3d 377e d63c e442 21bd
000001b0: f7cd 543c ce1b 56bc 1ed3 913d 338a 7abd
000001c0: 4dc5 e53d 2682 55bd 9d03 443d 7487 dc3d
000001d0: 090d 813d 869b 3b3d c6ba d9bc 7cb4 823d
000001e0: 58b5 3bbd 0f86 583c 11ec 023d 06b2 41be
000001f0: c3cd 273d 5f2a c1be d661 16bc 3cd7 993d
0.042405263 0.11092902 -0.42560577 0.06850911 -0.058766454 0.03559997 0.24824749 -0.018346118
-0.038307667 -0.0056827725 0.076250866 -0.032150056 -0.008917384 0.035827342 0.100865796 0.025030369
-0.0889377 0.041640606 -0.014770357 0.08267393 0.05841109 -0.2828429 -0.01454906 0.02755041
-0.23586428 0.0026925858 -0.08572459 -0.04576322 -0.05221954 0.07169178 0.014550246 0.007044739
-0.03226143 -0.017023716 0.06345416 0.022075422 -0.025825722 0.080684744 0.10364681 -0.052350592
0.06461906 0.011122897 -0.028568704 0.10545181 -0.051550478 0.012559417 0.18049686 0.06375397
-0.043447837 0.0853379 0.11346691 0.11743536 -0.048049387 0.006502692 0.024064193 0.078459114
-0.0406223 0.10808858 -0.017875193 -0.011215238 0.08085333 0.011314044 0.0031071363 -0.06831904
-0.051060863 0.231649 0.08987003 0.047774278 0.05914879 0.112521954 0.09463299 -0.11524054
-0.11709669 -0.04282999 -0.04010799 0.0440527 -0.03289104 -0.0235357 -0.037911218 -0.15673356
-0.050370265 0.1539012 -0.07273898 0.09277882 0.06869555 -0.047168583 0.10308175 -0.054761983
0.052838206 -0.005034271 -0.12976064 -0.005802379 -0.038019504 0.09898446 0.039672583 0.03369431
0.05858163 0.028514847 -0.040238883 0.08157865 -0.0824437 0.08356203 0.20457256 0.09201991
0.06338738 0.08380349 0.02618323 -0.039370432 0.012988559 -0.013068153 0.071203455 -0.061166953
0.11219273 -0.052126072 0.04785501 0.10768023 0.063013144 0.045802616 -0.026578318 0.06382081
-0.04582724 0.013215556 0.03196341 -0.18915567 0.040967714 -0.3772764 -0.009178599 0.07511756

net.4.weight f4 [128, 128]
00000000: 9b5d 683c 2d1a dd3c b640 2cbe e622 0a3d
00000010: a6ae a8bd bfa2 c4bc eb7d ce3b 5ad8 7fbd
00000020: 30f9 283e 776a 083c a081 e33c 1463 e73c
00000030: 896f 09bd 3799 34bd 5d0d b63d a287 63bb
00000040: 1fd3 27bc 5850 0dbd 2d6f bf3b a203 2fbd
00000050: 9f29 b5bd f02a 8b3d 4f9c 3abd ef6d 553c
00000060: 1f4f 203d 4bce c7bd a34f 7ebc d1c8 d5bd
00000070: 77d2 a43c e08a 923d 7711 2f3b 68a9 0f3d
00000080: a1c3 7abd 34ab 1dbd 1b09 c2bd aa68 c2bc
00000090: 0525 8dbd eedd 863d 5168 de3d 9658 133d
000000a0: aea5 a2bd 6efc 77bb b072 84bc 2e76 193d
000000b0: 5464 31bd ecbb 90bd 9c1e bfbc f08f 78bd
000000c0: 18f2 823d 024d a63d 813a adbd 152d f6bd
000000d0: af85 c03d f361 323d c294 8dbd bb13 b0bd
000000e0: 029f 74bd cee2 6bbd a6fd a1bc 0719 45bd
000000f0: 734c 8ebd e968 ae3d 8396 bf3d 4083 263b
00000100: 604c 453d 7e92 18be 880b 15bd 50f2 20bc
00000110: 5971 a1bd 321b b2bd bb9e 84bd f8cd 59bd
00000120: 945b 06be f101 d9bc 0cf6 cbbc 8564 d3bc
00000130: 0fc0 6bbd e553 823d cda2 efbc 6b31 3dbd
00000140: 64eb d43c ec8d 193d fa7a f3bb 17d4 2abd
00000150: 71b5 1fbd b61f 94bd c30d b63d 7df5 93bd
00000160: 51da adbb 99fa 9bbd 0d04 85bd e7c1 adbd
00000170: 4d67 b63c b8c3 463d d7a9 833d ea51 8abd
00000180: 609e bdba bec9 8cbd 4528 9ebd c132 bcbc
00000190: 1da8 96bd 2e26 bcbd 3da9 853d 5427 62bc
000001a0: 2b9b afb9 16a2 3e3c 0d9e 433d 35bd 8e3d
000001b0: 94ba 28bc 367a 8fbc e94a 83bd 37b2 3a3d
000001c0: b011 acbc 130f 07bd 595d 393d 7ac2 e5bc
000001d0: 01fa 9f3c 4fb5 b1bc c17d 3f3d 33bb abbd
000001e0: 93e1 a1bd 229c 083e d220 58bd b9ed 0abc
000001f0: ee36 9e3d 4d23 013e 415d a6bc 3612 70bd
00000200: a1c1 463d 86a4 613d 7334 28bd 8eb9 a03d
00000210: 78e8 043d 343f ff3b d420 fabd b513 d43b
00000220: 4f32 223b 6faa b63d 5f0a c43d 9acb 63bd
00000230: 65de 05bd b2fa a0bd 4bb3 8e3d be88 b73d
00000240: 22ea 37bc 434f 2b3b 638d 49bd 11b5 353d
00000250: 4e70 86ba 3a0e 713d 712f 2cbd 7538 8f3d
00000260: e363 2e3e 0f26 4f3d 31bb b5bd 2363 92bd
00000270: 5986 90bd 36bb 9d3d c5ac 71bc 5edc bc3d
00000280: 3bd5 13bd 3f34 603c 132d 1c3d bd02 b53c
00000290: e344 9fbd 825c 09bd 7189 bd3d 39bc a7bd
000002a0: 87da 0abd 26c4 48bb 9e3b 203a 4cf8 093c
000002b0: fd6b d1bc ff6f 15bd a4af 81bd 50ea 643d
000002c0: 71f1 a53d 13ce a13d 88fc 583b c538 1c3d
000002d0: b72c c03d f4b8 9fbd ab8c 07bd 4efd 7a3c
000002e0: dbe3 94bd dad0 1fbd 203f 1e3c 3e64 b1bc
000002f0: 59d2 abbc 04e4 ac3c 2ebd 37bd 6b6a b43b
00000300: 39c8 893d 6fdf 073d d581 dabc c471 26bd
00000310: 1fcf 8cbd ad7d c73d 563f 413d f1f0 4fbe
00000320: 8da2 203e 68c9 de3d 604b 193d 0527 f5bc
00000330: 02d8 e33d 1e23 84bd fc5b 89bc 39a3 86bd
00000340: 63ab e63d 5e6f 423d b149 123d fb0e c9bd
00000350: 25fa 1d3a 9c7c 0fbd 2b25 953d 203a 6ebd
00000360: ff8e 30bc 7a71 913c da64 64bd 6ee1 883d
00000370: 2f2a a6bc 4966 ab3c a10c 02bc 8830 1c3d
00000380: 07cd 543c 8b2c e53c 6ef9 913d 1929 ab3d
00000390: 161d 1dbc 07df febb ebf5 a83c e972 27bd
000003a0: e5e5 803d 830c ff3d bc47 343e 011b 5b3d
000003b0: 15ae 913d ce24 3cbc b3d0 353d 0440 943c
000003c0: b4bf ae3d d0ea af3d a630 9a3c 54ae b43d
000003d0: 7277 993b 2f75 07bd 7670 d7bb bff3 293d
000003e0: a92c 9a3d efa2 db3a 0f84 77bc bb01 863e
000003f0: b32e 24bd e096 143d 2c65 693a d4f7 b73a
0.0141824735 0.02699002 -0.1682156 0.033724688 -0.082364365 -0.024003385 0.0063016317 -0.06246219
0.16501307 0.008326164 0.027771771 0.028245486 -0.033553634 -0.04409143 0.088892676 -0.0034718295
-0.010243206 -0.03450045 0.0058421106 -0.042728074 -0.08845829 0.06795299 -0.045559224 0.0130266985
0.039137956 -0.09756144 -0.015521917 -0.10438693 0.020119889 0.071553946 0.002671329 0.035073668
-0.061221723 -0.03849335 -0.09474393 -0.023731548 -0.068918265 0.065852985 0.108597405 0.035973154
-0.07941757 -0.0037839669 -0.016167969 0.03746622 -0.04330857 -0.07067093 -0.023330025 -0.060684144
0.06393832 0.08120157 -0.08458424 -0.120203175 0.09400498 0.043550443 -0.06913139 -0.08597513
-0.059721954 -0.057589345 -0.01977427 -0.04811957 -0.06948175 0.08516104 0.0935488 0.002540782
0.04816854 -0.14899632 -0.03638795 -0.009823397 -0.078829475 -0.08696593 -0.06475588 -0.053174943
-0.13120872 -0.026490184 -0.024897598 -0.025804767 -0.05755621 0.06363658 -0.029252434 -0.046189707
0.02599115 0.037488863 -0.0074304314 -0.04170617 -0.038991395 -0.07232611 0.088893436 -0.072245575
-0.0053055664 -0.07616157 -0.06494913 -0.084842496 0.022266055 0.048526496 0.06428879 -0.06753905
-0.0014466755 -0.06874417 -0.077225246 -0.02297342 -0.07356284 -0.0918697 0.0652642 -0.013803322
-0.0003349421 0.011635324 0.04775815 0.06969682 -0.01029839 -0.01751433 -0.06410772 0.045580115
-0.021004528 -0.03297336 0.04525504 -0.028046835 0.01952839 -0.0216929 0.046750788 -0.08385315
-0.07904353 0.1334081 -0.052765675 -0.008479529 0.07725321 0.12611122 -0.020308139 -0.058611117
0.048524503 0.055088542 -0.041065644 0.07847892 0.032448262 0.007789517 -0.12213293 0.006472076
0.0024749225 0.089192264 0.09572291 -0.05561409 -0.032682795 -0.07860316 0.06967791 0.089616284
-0.011225255 0.0026139773 -0.049207103 0.04436213 -0.0010256858 0.058851458 -0.04203743 0.0699319
0.17030291 0.050573405 -0.088735946 -0.07147815 -0.07056875 0.07701723 -0.014750664 0.09221719
-0.036092024 0.013684331 0.038128924 0.022096032 -0.07776811 -0.033535488 0.092547305 -0.081901975
-0.03389981 -0.0030634492 0.0006112399 0.008421015 -0.025564188 -0.03648376 -0.06332329 0.05588752
0.08102692 0.07900634 0.0033109505 0.038140077 0.09383529 -0.07798949 -0.033093136 0.015319182
-0.072700225 -0.039017536 0.009658605 -0.021654245 -0.020974325 0.02110482 -0.04485815 0.00550585
0.067276426 0.033172067 -0.026673237 -0.04063584 -0.06875443 0.09740768 0.047179542 -0.20306756
0.15687008 0.10878259 0.0374254 -0.029925833 0.111251846 -0.064520106 -0.016767494 -0.06574101
0.11263158 0.04746949 0.03571481 -0.098173104 0.0006026349 -0.035030946 0.0728248 -0.0581609
-0.01077628 0.017754305 -0.055760242 0.06683622 -0.020283787 0.020922797 -0.007937581 0.03813222
0.012988335 0.027975341 0.07127653 0.08357448 -0.009589454 -0.007778052 0.020625075 -0.04088107
0.06293849 0.12453558 0.1760549 0.05349255 0.07113282 -0.011483384 0.044388484 0.018096931
0.08532658 0.08589709 0.018822026 0.08822313 0.0046834284 -0.03307074 -0.0065746857 0.04149222
0.075280495 0.0016756932 -0.015107169 0.26173195 -0.0400836 0.036276698 0.00089033204 0.001403565

net.4.bias f4 [128]
00000000: 13c5 9c3d e0b2 923c 8212 a13d e3bf 85bd
00000010: 7307 e43c 391d 48bd 5762 cdbd 91b6 c63d
00000020: ada6 fdbc 72a3 783c 2408 34bd 10db 503d
00000030: d989 aebb aabf 923c e116 c339 8a9e b3bd
00000040: 3051 4d3d e265 903d 5b34 823d 92a0 c73d
00000050: 7b5d 0c3d 931e 003e 2c75 bdbd 4727 c7bc
00000060: ec6c ce3b d0b4 4bbd 49fb 2839 ee3c 243c
00000070: 7cd4 e9bd eecb a73d 932f 3b3c 854a 1bbd
00000080: 7c42 0f3d e787 323c 62e6 cebc 464e f43b
00000090: d3f0 44bb fdac 26bd 376b 88bd 8031 26bd
000000a0: ef35 bb3a 377d cfbc b008 913c 0145 e73c
000000b0: c882 5cbd dbe7 bd3d fb8b ecbc 7fcc c0bc
000000c0: 2289 18bd 96cc ecbc d48e 87bd 6fe0 9bbd
000000d0: 45c4 6bbd ef44 b4bd 74f6 0b3d 2a88 98bd
000000e0: fc84 b63d 0a62 8dbe ac60 28bd c2f6 ab3d
000000f0: edb0 353d d6e9 6a3c 1fe6 b5bd 8a02 b23d
00000100: e674 7a3d 2ae8 9b3d 04d0 ab3d 1eab c63c
00000110: b574 333c 341a 933d 614f 51bd e525 533d
00000120: d42c cc3d 93c7 703d 074a 3a3d db59 ec3c
00000130: 5d11 57bd 2f2b bc3d 1abd a93c 8674 873d
00000140: 3f0f 40bb 06d4 113c 8c9d 583d 67e6 883b
00000150: ba32 173d 667e 9c3e 5856 86bd d5aa f13c
00000160: 4e4a 38bd e2d5 80bd 9a2d 10bc 0a94 7fbd
00000170: 59c2 4fbd b326 763d 618f cabd 3c24 95bd
00000180: bb06 3abb 40ea f4bd 4410 5fbb f6db 963d
00000190: fc6d 073d 4f95 643c 05af 0bbd 34fd 8bbe
000001a0: c4d2 953d 2306 af3d dd9a 803d d971 e6bd
000001b0: 82e4 72bd 011e 36bc 2a0a f03b 702d 1f3c
000001c0: ca59 a13c cb74 653c 091b 81bc 59ee 93bd
000001d0: be10 56be c022 bebb 036f 0fbd 4b32 ab3d
000001e0: a353 253d 4d3d b8bc eb55 9f3d 394a b23d
000001f0: 677a a83d 8ea2 c6bd 5186 8d3c 0dc3 54bd
0.076547764 0.01790756 0.07864858 -0.0653074 0.027835583 -0.048855994 -0.100285225 0.097027905
-0.030963266 0.015175687 -0.043953076 0.050990164 -0.0053264913 0.017913658 0.00037210344 -0.08770473
0.050126255 0.070506826 0.06357642 0.09747423 0.034268837 0.12511663 -0.092508644 -0.024310721
0.0062996056 -0.049732983 0.0001611534 0.010024292 -0.11417481 0.081931934 0.011424917 -0.037912864
0.034975514 0.010896659 -0.02525634 0.00745562 -0.003005077 -0.04069232 -0.066610746 -0.04057455
0.0014283041 -0.025328262 0.017704338 0.028231146 -0.05383566 0.092727385 -0.028875342 -0.023535011
-0.037240155 -0.028906148 -0.06619039 -0.07611167 -0.057560224 -0.088022105 0.034170583 -0.07447846
0.089120835 -0.2761386 -0.04110782 0.08396675 0.044358183 0.014337977 -0.08881783 0.086918905
0.06114664 0.07612641 0.08389285 0.024251517 0.010953118 0.07182732 -0.051101092 0.05154981
0.09969488 0.05878408 0.045480754 0.02885144 -0.052506793 0.09187924 0.020720053 0.06614022
-0.0029305962 0.008900648 0.052884623 0.0041778567 0.03691361 0.30565184 -0.065594375 0.029500404
-0.044992737 -0.06290795 -0.008799935 -0.06239704 -0.050722454 0.0600955 -0.098906286 -0.07282302
-0.002838536 -0.11958742 -0.0034036795 0.07366173 0.033063874 0.013951614 -0.03410246 -0.27341616
0.07315591 0.08546092 0.06279538 -0.112521835 -0.059299953 -0.011115552 0.0073254304 0.009715423
0.019696135 0.014004896 -0.015759962 -0.072231956 -0.20904824 -0.0058024824 -0.03501798 0.08359202
0.040362965 -0.022490168 0.077800594 0.08705563 0.082264714 -0.096989736 0.017275961 -0.051943827

net.6.weight f4 [2, 128]
00000000: a887 0d3e fd83 933d 55d4 2f3e 513b f13b
00000010: 8fd0 04bd 5ac9 5fbd ca6b 3f3e 5aca 903d
00000020: ecf6 dabc 9120 9bbc 4489 c13d b7d4 8cbe
00000030: 978b b6bd a667 e53d c662 573d f59f 1b3e
00000040: b4c2 91bd d00b 6cbd 35df d53d ede3 253e
00000050: c347 13bd 56be 43be bcd1 003e f98f 983d
00000060: 11d9 e23d 6070 823d 910f 23be 1ed5 303e
00000070: f4f9 663e cd00 95be e4f0 c0bd a73e 13bd
00000080: cc29 22be 19ce 5bbd b91f 8f3d 5db9 a63d
00000090: 42f2 e03d 6b27 64be 8ded 263e 1b21 5bbd
000000a0: e579 a43b 567b 4abd 140a b83d 7829 06bc
000000b0: a972 7abc 70fc 4fbe 9e00 6bbe 3ad6 173e
000000c0: 8a21 303e c191 26bd cc01 d53c caa7 b2be
000000d0: 011e 87bd 518c 03bd 58f4 b3bd 6733 613b
000000e0: e88c cdbd f60b efbe 8b7f 343e 9f31 bdbd
000000f0: 94b1 00bc 2612 203e 3c43 503e 4e20 b53d
00000100: 18c4 09be f7fb 28be 74ac e3bd fd3b 033e
00000110: e9b4 b2bd 5f11 38be d0fa dfbd 35bc 123e
00000120: 53ed 04be cea9 70be 547f 5abe 268a 173d
00000130: e852 b7bd 18ed 5bbe c8f1 bb3c 3d4d 2bbd
00000140: 73e5 2ebe a153 153e 4b7d a13d 6c3d fdbd
00000150: dc9f 193e f3ee c43d 2ab0 ecbd be81 a43d
00000160: 2d94 64be 2922 0dbe 2dea 24be 290c 11bc
00000170: fec8 cf3d 032a 023e 2f26 063d e327 9cbe
00000180: 402a a9bd 7cdd bebe c5b9 1fbe 3425 2f3e
00000190: 1128 dbbd bf21 e5bd 47bf 303d 79f3 013f
000001a0: 2f4e 653d 2fe2 eabc 8d89 2f3e 2be3 033e
000001b0: 47ca 0b3e f252 613d 9fac 1cbe de17 1c3e
000001c0: f3ea 10be 104e a5bd 9c5f 4b3e c5cf c73d
000001d0: 6a1f a9be 0274 a8bd b333 a53d f3dc 303d
000001e0: af51 003e 6cc7 4bbe b9b5 f43d 3a1e d43d
000001f0: 7e7e 7e3d b353 db3d 77d8 4d3d 64d9 94bd
00000200: bc1c 58bd 5fab 41bd f8ed 443d d852 ecbc
00000210: b5bf 06be 63d2 c93d 04c7 eeba ad15 923d
00000220: 9920 533d 76d3 c93d 0cc3 68bd d02d b53d
00000230: ccb3 49bd 36e9 94bd 693d 643d c88d bf3d
00000240: a309 44bd 786c 983d 1e6e 8e3c 5d4b 6fbd
00000250: 1246 bc3d fcd5 12bd f85d 9d3d 5ddf a4bd
00000260: a463 493d 9afd b33d a10d c7bc 16f7 06bd
00000270: 8926 dbbc 3463 403d 1c1c 9bbd 63a2 ebbd
00000280: 935e 91bd d0f1 203d d53d d23c 9b9f a23d
00000290: d00e 54bd 67a7 c6bc 756d e4bc 67fb bebd
000002a0: 2459 473d 28bb bbbd da13 0bbd caec b43d
000002b0: 43b9 abbd 7aac 12bd a4d4 7d3d 9176 b93c
000002c0: a3da 553b 1415 b8bd d19b 253d 5563 a33c
000002d0: 7f22 05bd 448f d1bd abac c0bd c521 72bd
000002e0: 5f26 a13d 78b6 33bc 77c4 563d 0c1c babd
000002f0: 1cdf ab3d ca89 943d a9c5 87bc aceb 6a3d
00000300: 2764 8e3d 2ea7 863d 944f 71bd a203 93bd
00000310: 6b34 d33c c6cd 92bd b3f0 09bd ebf8 fd3c
00000320: a772 be3d 1595 38bc 732d 273b ac24 1fbd
00000330: f653 c4bd fe5d 673d b4a0 a8bd ff71 ca3d
00000340: 2569 293d 80fc 883d 601b 783d 3790 29bd
00000350: a3f6 c93d 4665 23be d6f6 e5bd 4f8d 82bd
00000360: 5ac7 323c 0be2 a63d afca 293d 429a 803d
00000370: 5895 82bc 9426 ed3c 8182 a53d 585e 84bd
00000380: 9ba6 d5bd d23f 723d 698e ba3d 4fbc cc3c
00000390: 5a3f 823d 0e3c 5abd 7300 c0bd f051 14bc
000003a0: cbf7 eb3c ba53 3bbd 1a1e 1b3d 74b6 193d
000003b0: 3316 703d f4bd b3bd cac5 3d3d 670c 21bc
000003c0: 5f65 8a3d f557 963d d52f d23c 0b74 133d
000003d0: e314 ee3c 032a 983d 7c3c a0bd 941b aebd
000003e0: 3ce4 c43c e58c 02bd fa4a 3ebd c381 513d
000003f0: 65fe bf3d 4965 9bbc 7b45 96bd 91f8 8bbd
0.1382128 0.07202909 0.17170842 0.0073618074 -0.03242546 -0.054635383 0.18693462 0.070698455
-0.02672907 -0.018936427 0.094500095 -0.2750604 -0.089133434 0.1120141 0.052584432 0.15197738
-0.07117215 -0.057628453 0.10442964 0.16200228 -0.03595711 -0.19115576 0.12580007 0.074493356
0.110765584 0.0636909 -0.15923907 0.17268798 0.22556287 -0.29102173 -0.09420946 -0.03594842
-0.15836257 -0.053663347 0.069884725 0.08140824 0.10983707 -0.22280662 0.16301556 -0.05349837
0.005019414 -0.04943403 0.08986297 -0.008188598 -0.015286126 -0.20311141 -0.22949454 0.14827815
0.17200294 -0.040666346 0.026001833 -0.34893638 -0.0659752 -0.032116238 -0.08786839 0.0034362914
-0.10036641 -0.46688813 0.17626779 -0.0923798 -0.007854838 0.15631923 0.20338148 0.08844052
-0.1345371 -0.16502367 -0.11116877 0.12815852 -0.08725912 -0.17975377 -0.109365106 0.14329608
-0.12981157 -0.23502275 -0.21337634 0.036996983 -0.0895136 -0.21477163 0.022942439 -0.041821707
-0.17079715 0.14582683 0.07885226 -0.12365231 0.15002388 0.096158884 -0.11557038 0.08032559
-0.2232215 -0.13782562 -0.16104956 -0.008852997 0.10145758 0.12711339 0.03275126 -0.3049918
-0.08260012 -0.37278354 -0.15598209 0.17104036 -0.107010014 -0.11188077 0.043151166 0.50762135
0.055982765 -0.028672306 0.17142315 0.12879626 0.13651381 0.055010743 -0.15300225 0.1524348
-0.14152126 -0.0807153 0.19860691 0.09756426 -0.3303178 -0.08225252 0.080665015 0.043179464
0.1253116 -0.19900292 0.11948723 0.10357328 0.06213235 0.10709324 0.050255265 -0.072680265
-0.05276178 -0.047282573 0.048078507 -0.028848097 -0.13159068 0.09854581 -0.001821727 0.071330406
0.05154476 0.09854786 -0.056826636 0.08846629 -0.049243733 -0.07271044 0.055722628 0.093532145
-0.047860753 0.07442564 0.017386492 -0.05842148 0.09193052 -0.035848603 0.07683939 -0.08050416
0.04916729 0.08788605 -0.024298491 -0.032950483 -0.026751773 0.046969607 -0.07573721 -0.11505582
-0.07098117 0.03929311 0.02566425 0.079405986 -0.05177194 -0.024249746 -0.027884224 -0.09325295
0.048668995 -0.091665566 -0.03395448 0.088342264 -0.08384945 -0.035809018 0.061970368 0.022639545
0.0032631538 -0.08988395 0.0404318 0.019944826 -0.0325036 -0.10232404 -0.09407934 -0.059114236
0.07868647 -0.010968797 0.052433457 -0.09087381 0.08392164 0.07252844 -0.016573744 0.05735366
0.06952696 0.06574856 -0.058913782 -0.07178427 0.02578183 -0.071681544 -0.033676814 0.031002482
0.09299212 -0.011266013 0.0025509268 -0.038853332 -0.09586327 0.056486122 -0.08233777 0.09885024
0.04136004 0.066887856 0.06057298 -0.0413973 0.09861495 -0.15956602 -0.11228721 -0.06374609
0.010911787 0.08148583 0.04145306 0.06279422 -0.015940353 0.02894906 0.08081532 -0.06463307
-0.10432168 0.059142895 0.09109194 0.024992136 0.063597396 -0.05327993 -0.09375086 -0.009052739
0.02880468 -0.045734145 0.037870504 0.037527516 0.05861492 -0.08776465 0.046331204 -0.009829617
0.06757616 0.07340995 0.025657574 0.03599934 0.029062694 0.07429888 -0.078240365 -0.08501354
0.024034612 -0.03187265 -0.046458222 0.05114914 0.09374694 -0.018969195 -0.07337471 -0.0683452

net.6.bias f4 [2]
00000000: 4a23 303d b238 92bd
0.043002404 -0.0713972
