model/SnS.pth (torch, 139444 bytes, 8 tensors)

net.0.weight f4 [128, 6]
00000000: 3d83 013e e536 ca3c 81e1 bfbe bf91 753e
00000010: 3f21 943e 9dcc bd3e c88e a83e 0eef 31bb
00000020: 3b6e 503e cf8e af3e 3d77 02be f75d a9bd
00000030: 74ef 0bbd 6317 623e 6e6d e53e 076f 98be
00000040: 6707 b4bd 6419 2ebe 2e5a cd3e da30 6b3e
00000050: b276 513e ddb9 3a3d 1abe 683d b806 eabe
00000060: f7e7 6c3e f3c4 293e 19a4 133d be74 9b3e
00000070: bcfd e6be 92d8 babb 9434 37be d886 5f3e
00000080: a062 4ebe 1c21 ab3d 71f6 cdbe 5af0 f4bd
00000090: b334 81be 17e1 18bd a859 c8be 89e4 c73e
000000a0: 626f dcbe 8d89 98be 3466 ba3e 602c 393d
000000b0: e9ac 80be edfc 8d3e 1bb6 ea3e 1240 bb3c
000000c0: 8cc4 1cbd e673 c6bc 86f3 bebe 6248 dbbd
000000d0: a40b 243d a7da cf3e 4dea f13d 4526 493e
000000e0: 9827 edbe 34c6 b63e 3af8 36be 8bdc e9bd
000000f0: 5616 b8be b194 663e 6e93 413e 02dd 40bd
00000100: 27cc 873e 713b 78be 24a9 6c3e 1a6c bfbe
00000110: 9798 2dbf 9d60 a8be 1f17 f73d 2bd2 70be
00000120: bcd6 67be d299 d6be 307c eebe f2b2 a03e
00000130: f191 26be 494f a73e b7b1 75be cd67 203e
00000140: 0982 853d 73ef c73d 16cb 9dbd 6edf 94bd
00000150: 0956 5fbe 983c 81be 0ca1 e23c d6a5 8bbe
00000160: f401 993e b74f ef3d 5a65 bebe 7333 9b3e
00000170: 056c b13e 4990 983e 8fb3 613b 27be ccbe
00000180: 2536 923d 2faf 6c3d 20a9 abbd 2783 94be
00000190: b845 bcbe cf88 953e b60e ed3c 9647 7abd
000001a0: 1344 89be f985 c3be ff68 6abe dd2b ce3c
000001b0: 7b8e 883e c838 ae3d 8d99 c5be cafd c2be
000001c0: f599 983e 1773 2dbe 6326 f2bd 6585 bb3c
000001d0: 8676 f3bd d84a 8abe f7d7 46be 7383 a93e
000001e0: e306 833e 041b 96be e1f7 df3e 186d a93b
000001f0: 5516 3dbe 6ffe 3fbe c4ee 2c3d cf22 ae3e
00000200: 18df 253e 7061 afbe f8b7 9abe 282a 913d
00000210: fcc7 9cbe 74c7 adbe ef52 be3e 9ef9 c53e
00000220: 9a6a 493e 0305 013f 98a9 cc3c 9a74 85bc
00000230: e39b 323d 03aa 00be ecdb 93be 93be a33e
00000240: 047e c9be c361 1c3d 26f6 053e 8201 093e
00000250: e096 753d bb4f acbe b266 2abe c802 ad3e
00000260: 015d 9ebd 8ab0 c53e ab8d 293c 299f c1bb
00000270: c296 573e d8b4 663c dcec babe 7905 7dbe
00000280: c6b0 553e 485f a43e 3d15 e2be 6401 ebbe
00000290: 1498 1cbe 598e a0be 294b 8a3d 1e24 8fbd
000002a0: 8004 72be db54 cf3e feca 3b3b 2a03 243e
000002b0: de4d 08bf 1a4f 4fbe 0681 943e 0060 2e3e
000002c0: e5f6 383e 9a5b bd3e 9f08 04bf a60b a9be
000002d0: 6fbb b13e a7db 333c e778 f8bd 4553 18be
000002e0: 33ba a23c bb0a 5e3e 7d71 9abe e2ab 38be
000002f0: 44bb 223e c377 4cbd d34b 973e fd76 bfbe
00000300: cd12 b13e 19c1 643c 7954 733c 2213 9dbb
00000310: e72d c53e b51e 1abf dc5d 223e e68d 4ebe
00000320: cc60 d93e dfdd ad3e 189b 48be def7 e6bd
00000330: 37ce 923c 6145 7bbe 8029 1abd f399 463e
00000340: f9db e93e c374 92be d031 27be 9726 803e
00000350: 18c0 da3e 9e54 943e 6f85 6e3e 5151 b8be
00000360: 1c7c 523e 499c abbd b905 2ebf cf49 01be
00000370: 4748 333e dbb3 e7bd bc90 8d3e 3526 0b3e
00000380: bde0 a4be af22 eabe dd2e 443e d6f0 e5be
00000390: 31d8 96be 1f47 77be 4110 363e ef35 99be
000003a0: f015 4e3e 96de ed3e 78f3 05be 414e 983e
000003b0: cab8 07bf 05ba 753e bb0d 723e f04f ddbd
000003c0: 0086 84be c64b cebe fcf6 1abe 10f2 a33e
000003d0: f094 debe 06ec ca3e bd73 c43e fd14 a33e
000003e0: 901c eebe 231e 85be 3cf1 bd3e 3b23 12be
000003f0: 3db0 b2bd 29aa bebd 7b32 a93e bfe1 913e
0.1264772 0.024684379 -0.37476733 0.23981379 0.28931615 0.3707017 0.32921433 -0.0027150544
0.2035455 0.34288642 -0.12740798 -0.082698755 -0.034163907 0.22079234 0.4481005 -0.29772207
-0.087904744 -0.17001873 0.40107864 0.22967854 0.20455435 0.04558741 0.05682192 -0.4570825
0.23135363 0.16579036 0.036045168 0.30362505 -0.4511546 -0.0057020867 -0.1789115 0.21828783
-0.2015481 0.083559245 -0.40227082 -0.11959906 -0.2523552 -0.037324037 -0.39130902 0.39041546
-0.43053728 -0.29792443 0.364061 0.045208335 -0.2513192 0.2773203 0.4584206 0.0228577
-0.03827338 -0.024225187 -0.3729517 -0.10707165 0.040050164 0.40596506 0.118122675 0.19643505
-0.4631927 0.35698092 -0.17868128 -0.11419018 -0.3595454 0.22517659 0.18903896 -0.04708577
0.26522943 -0.24241425 0.23111397 -0.37387162 -0.6781096 -0.3288621 0.12064957 -0.23517673
-0.22640508 -0.4191423 -0.46579123 0.31386524 -0.1626661 0.32677677 -0.23993574 0.15664597
0.06518943 0.09762468 -0.07704751 -0.07269178 -0.21810164 -0.25241542 0.027664684 -0.2727496
0.29884303 0.11685126 -0.371867 0.3031269 0.34652725 0.2979758 0.00344393 -0.39988825
0.071392335 0.057784256 -0.083818674 -0.2900631 -0.3677194 0.2920594 0.028937679 -0.061103426
-0.2680975 -0.3818815 -0.22891615 0.0251674 0.26671204 0.08506924 -0.38593712 -0.3808425
0.2980496 -0.16938435 -0.11823728 0.022890756 -0.11887841 -0.27010226 -0.19418322 0.331081
0.25591192 -0.29317486 0.43743804 0.0051704757 -0.1846555 -0.18749402 0.042219892 0.34010932
0.16198385 -0.34254026 -0.30218482 0.07088119 -0.30621326 -0.33941233 0.37172648 0.38667005
0.19669572 0.5039827 0.024983212 -0.016290952 0.043605696 -0.12564854 -0.28878725 0.31981334
-0.39353955 0.03817917 0.1308218 0.13379481 0.05995834 -0.3365458 -0.16640738 0.33791184
-0.07732583 0.3861125 0.010348718 -0.005908866 0.21053603 0.014081202 -0.36508834 -0.24709119
0.20868215 0.32103944 -0.4415683 -0.45899498 -0.15292388 -0.31358603 0.06752617 -0.06989311
-0.23634529 0.40494427 0.0028654928 0.16016832 -0.53243816 -0.20245019 0.29004687 0.17028809
0.18062933 0.3698395 -0.51575655 -0.330167 0.34713313 0.010977662 -0.12132435 -0.14875515
0.019864177 0.21683781 -0.3016471 -0.18034318 0.15891749 -0.0499189 0.29550037 -0.37395468
0.34584656 0.013962054 0.014851683 -0.0047935406 0.38511583 -0.60203105 0.15856117 -0.20171317
0.42456663 0.33958337 -0.19590414 -0.11277746 0.017920597 -0.24538185 -0.037637234 0.19394664
0.45675638 -0.28604707 -0.16327596 0.25029442 0.4272468 0.28970808 0.23293088 -0.3599954
0.20555156 -0.083794184 -0.6797748 -0.12625812 0.1750804 -0.113136016 0.27649486 0.13588794
-0.32202712 -0.45729586 0.19158502 -0.44910306 -0.29461816 -0.24148224 0.17779638 -0.2992396
0.20125556 0.46458882 -0.13081157 0.29747203 -0.5301634 0.23996742 0.2363805 -0.108062625
-0.25883484 -0.40292186 -0.1513328 0.32020617 -0.43473005 0.39633197 0.3836955 0.3185195
-0.46506166 -0.25999555 0.3709811 -0.14271252 -0.08725021 -0.09309799 0.33046326 0.28492543

net.0.bias f4 [128]
00000000: b739 2d3e ad86 403e 1030 583e 99ea a2bd
00000010: fd76 663e c1c5 873c f447 d53e 0699 903e
00000020: aa47 853e cdf9 493e 4d1e ae3e 0386 73be
00000030: 7b95 433d b675 bb3d 7bd9 80bc de14 e53e
00000040: a941 2e3e 5150 853e 3408 11be 5473 5c3e
00000050: 867d f7bd 8294 473e 1e5d 763e fdcc 123f
00000060: 3130 e1be 8cde ecbe d55e c83e 8015 e0be
00000070: a080 9abe a6ad 47be bfd0 edbd d0bd 98bd
00000080: aa7e 1b3f bac1 e0be 88c0 a7bd aa46 3e3e
00000090: b2fa 93be 593d 013f 49d6 91be 03cc 633e
000000a0: a584 8cbd 8cd7 a1be 6d51 cc3e 0481 07bf
000000b0: c94f 8ebe 537d bc3e 12c7 e53e 25e9 66be
000000c0: 79cf 6a3c 8d7e 0c3e 647a 0bbe 2543 bbbd
000000d0: 166d 6abc 6d25 0b3f 6c14 9cbe f91a a33e
000000e0: 7f6c 21be 1991 853e c801 a13d dd61 a13e
000000f0: e93d b03e 32c8 813e 4ee2 ed3e 1a5c 943d
00000100: 7f03 25bd fcb0 b0bd 733a 9cbd a6c7 fd3d
00000110: 0ab2 0fbe bb2a a73e 8490 a7be 9453 1d3e
00000120: f8ff a1bd 0f71 ad3e 881d d0be 70f1 2a3e
00000130: dd59 513e 05f2 14bf 6c1e 90be f1a8 0cbf
00000140: fd40 98bd 13d4 61be cef3 c83c cb37 963e
00000150: 451b eb3e 8eff b03d 6c54 a3bd d48a ce3c
00000160: 9ce9 903e 2166 4c3d ae8a c83e 95e2 cc3d
00000170: f57f 02bf 00b0 4f3e 832d 863e 0f5c c0bd
00000180: affe d73e 77f2 ce3e 839a d53e d6a6 013f
00000190: d209 e2be b5b3 e63e 613a b63e fde7 a73e
000001a0: 7a3a 393e 00fa e5bd 6657 02be 601a b9be
000001b0: 5def 723d 1310 c63e 3035 093c 34d0 423e
000001c0: c792 963e 3989 713e a419 933d 3bc0 c3be
000001d0: e51b 5e3e 51a1 003c 11f9 603e 0ebe d93e
000001e0: 8ee7 723c 299a 123f 398e 4b3c 2b20 95be
000001f0: 6899 903e ba79 b83e 6a8a f23e 360c 5bbe
0.16916548 0.18801375 0.21112084 -0.07954902 0.22506328 0.016573789 0.41656458 0.28241748
0.26031238 0.19724198 0.34007493 -0.2378159 0.047749978 0.09153311 -0.015728703 0.44742483
0.17017235 0.2603784 -0.14163285 0.21528369 -0.120844886 0.19490245 0.24058959 0.5734404
-0.4398208 -0.4626354 0.3913485 -0.43766403 -0.30176258 -0.19499835 -0.11612081 -0.07458079
0.6074015 -0.43897802 -0.08191019 0.18581644 -0.28902203 0.50484234 -0.284838 0.22245793
-0.068612374 -0.31609762 0.39905873 -0.5293124 -0.27795246 0.36814365 0.4487844 -0.22549875
0.014331692 0.1372015 -0.13620907 -0.09143666 -0.014308235 0.5435398 -0.3048433 0.31856516
-0.15764044 0.26087263 0.07861668 0.31519976 0.34422234 0.2534805 0.4646172 0.072441295
-0.040286537 -0.08627507 -0.07628336 0.123915955 -0.1403276 0.32649788 -0.32727444 0.15363914
-0.0791015 0.3387532 -0.4064753 0.16693664 0.20444436 -0.5818179 -0.2814821 -0.54945284
-0.074342705 -0.22053556 0.024530318 0.29339442 0.45919243 0.08642493 -0.079750866 0.025212683
0.2830323 0.049902085 0.39168304 0.100041546 -0.50976497 0.20281982 0.26206598 -0.09392559
0.42186496 0.4041936 0.41719446 0.50645196 -0.44148117 0.4505898 0.35591415 0.3279418
0.18088713 -0.11229324 -0.12728652 -0.36152935 0.059310306 0.3868414 0.008374497 0.19024736
0.29408857 0.23587503 0.07182625 -0.38232598 0.21690328 0.007850961 0.21970011 0.42527813
0.014825715 0.5726648 0.012424045 -0.29126105 0.2824204 0.3603037 0.47371227 -0.21391377

net.2.weight f4 [128, 128]
00000000: bd3c 813d 2c65 e1bb a50f a53d 5355 82bc
00000010: 0d27 2c3e a550 813d 3f46 b43c 3f31 6d3d
00000020: 66e8 3f3d 010c 883d c062 e33d 6b3c 13bd
00000030: d7f9 9dbd 0589 d1bc 9936 12be 0ed8 953d
00000040: f4de 323d 1e9a 803e 506c 003d 9f41 773d
00000050: 7ada 803d 7f93 753d 73d4 c83d 1d31 343e
00000060: 299e 26be 84c4 9bbe 5b26 3b3d cfb4 2cbd
00000070: 9093 873c 8a88 85bd ef58 a13c 6033 63bb
00000080: 9521 443e 6859 4bbd fa6c fb3c ab9d 8bbd
00000090: 4f49 57be 23fd f53d ef01 acbe bbc0 a53c
000000a0: 2974 9d3b f6ab bebc 065a 983d 195f a5be
000000b0: cfff 95bc 1171 eb3c 7ff0 003e 2e90 2dbe
000000c0: 3c2e 0bbe 28a2 553d b4be fcbc bbff c4bd
000000d0: 9904 f2bb 667d 7a3e 426f bbba 1b28 623d
000000e0: 176f 773b 0636 203d 6cbd a6bc 3712 5e3d
000000f0: 7777 543c 5d19 4b3d aad5 c5b9 d0c5 703d
00000100: d5fc 763b ee69 a9bc 21cc 4e3c 12c4 d1bd
00000110: 2215 8bbc 7129 803c 7b12 03be 552e 8abd
00000120: e1a5 4abd 20ee 173d cca0 9ebd 9903 cd3c
00000130: 1789 d63d 94cc 4cbe e470 a4bd ccc2 65be
00000140: 2bde acbd 4f69 28be d8b9 173c 32df fc3d
00000150: 4c1a 603e 5f98 c7bd 4e6e 803d cd77 8bbc
00000160: 7bf3 d33d b82d 0cbd cf60 a23d 9899 933d
00000170: 816d 5cbe 5e06 4e3e 9142 dc3c e4b5 c8bc
00000180: 6fdf 793e c409 f5bc 45a0 853d f0d9 bc3d
00000190: bc13 b1bd 3d56 a73d 3c63 31bd 41c5 b93c
000001a0: 759b c13d aba0 c6bc be91 fcbc ff65 35be
000001b0: 1053 d33d 1bc7 413e d64c cdbd fc16 213d
000001c0: fffb da3d 5724 8e3d 8563 223d b668 c1be
000001d0: e41f 1bbc 75ec 8c3c 8937 d43c 0fdd 1a3e
000001e0: 2e1d f1bc cbc5 093e 7ffc 813d 4db6 d33c
000001f0: 928f 58bd 709d df3d 3217 e73d 0b8f d5bd
00000200: 6376 56bd c704 2b3d a3eb 993d c2c8 dcbd
00000210: c179 8ebd b1a8 d83d 1e07 973d 0326 58bc
00000220: c7db b0bd c11f 923d e82a 27bd eb7a a13a
00000230: c98b d03d 2746 833d 9f02 f33d 462f 1a3d
00000240: 60ce 573d 416d ce3d 9047 8cbd 7011 b13d
00000250: 47c9 963d d4ae 7abd c091 b5bd 818d 193d
00000260: 421c ae3c 6cf1 46bd 0a5b c6bd 6582 0d3e
00000270: 3da8 c8bc 5212 33bd 00b7 7f3c 6663 373c
00000280: 4f9d 8fbd 146b e5bb 4fe6 da3d 1430 4e3d
00000290: ade0 a9bd 06e6 b5bc 7db8 4c3d 5d77 e63c
000002a0: f19d 803c 5fa0 87bd 772a b63c f230 75bd
000002b0: 5bba 8f3c 93e3 f9bd a39c 2abd 84ee da3c
000002c0: d541 c1ba aa17 83bd 186b c83c 0b34 7d3b
000002d0: 9e3c 053b 6eda 23bd f925 603c f98e ec3b
000002e0: feaa 6d3d 4524 6bbd fdc3 f13c 3460 aa3d
000002f0: 7251 5ebd 937a 7f3c 97f5 05bd 81c6 8fbd
00000300: 8d9d 793d f745 ad3d 7487 84bd 8c42 953d
00000310: eeab f5bb ceb8 8abd 57a2 78bd 79d6 f83c
00000320: a31d 7dbd a1ea ca3d b515 973d 8a63 023c
00000330: a880 c8bc 9817 7cbd d400 093e dd03 6cbc
00000340: 5abc 803c 1b59 55bd a22a 64bd ffb7 3cbc
00000350: e0f1 163d 7ade b8bd 9d0a 5bbc da45 68bd
00000360: 3a74 5b3d 5ca5 adbd 8776 a4bd f8ca 11bd
00000370: e784 273c 7ee6 9fbd 0d8d b2bd 0e27 8bbd
00000380: 4f99 3a3c fe99 25bd 8175 46bc ccaa 163d
00000390: ac7e 0c3d 1b5b a6bd 5e80 843d bdb5 1fbd
000003a0: e010 ad3d 34eb eb3d 1022 023a 6e8f ed3d
000003b0: 8f06 ebbc f854 22bd b8ca f5bc 48fe 1f3d
000003c0: 7d1e 84bd 505f acbd cc15 233c bf1e 313d
000003d0: ab44 5fbd 845b 34bc 8ff6 a03d a940 d6bd
000003e0: 7c73 3d3d 79e8 93bd f685 2b3d 1cb3 6c3c
000003f0: 3764 48bd cdec 6c3d 649e 993d 2847 38bd
0.06310413 -0.0068785157 0.080596246 -0.015909826 0.16811772 0.0631421 0.022006152 0.057908293
0.04685249 0.066429146 0.111028194 -0.03594629 -0.07713669 -0.025578031 -0.1427864 0.073166
0.043669656 0.25117582 0.031353295 0.060365316 0.06291671 0.059955116 0.098061465 0.1759686
-0.16271271 -0.30423367 0.045690876 -0.04216462 0.016549855 -0.065201834 0.019695727 -0.0034668073
0.19153436 -0.04964581 0.030691613 -0.06817182 -0.21024059 0.120111726 -0.33595225 0.020233503
0.004805107 -0.023275357 0.074390456 -0.32299116 -0.018310456 0.028740438 0.12591742 -0.16949531
-0.13591856 0.052156597 -0.030852653 -0.09619089 -0.007385802 0.24461898 -0.0014300125 0.05521403
0.0037755424 0.03911402 -0.020353995 0.05421659 0.012967936 0.049584735 -0.0003773396 0.0587824
0.003768732 -0.020680394 0.01262191 -0.102424756 -0.01697785 0.01564476 -0.12800018 -0.067471184
-0.0494746 0.037092328 -0.07745513 0.02502613 0.104753666 -0.19999915 -0.08029345 -0.2243759
-0.08440813 -0.16446422 0.009260617 0.123472586 0.21885031 -0.09745859 0.06271039 -0.017024899
0.103491746 -0.03422329 0.07928621 0.0720703 -0.21526147 0.20119616 0.02688721 -0.024500795
0.2440164 -0.029911883 0.065247096 0.09221256 -0.08646342 0.081707455 -0.043307528 0.022677066
0.09453479 -0.024246534 -0.030831214 -0.1771469 0.10318577 0.18923609 -0.10024421 0.03932856
0.10692596 0.06940525 0.03964569 -0.377752 -0.009468053 0.017202595 0.025905387 0.1512339
-0.02943286 0.13454358 0.06346988 0.025843764 -0.052871294 0.10918701 0.11283721 -0.10427674
-0.052358996 0.041752603 0.07515647 -0.10780479 -0.069568165 0.1057905 0.07374404 -0.013192656
-0.08635669 0.07134963 -0.040812403 0.0012319958 0.10182912 0.06409865 0.11865734 0.03764274
0.05268705 0.10079432 -0.06849587 0.08645904 0.07362609 -0.061201885 -0.0886569 0.037488464
0.021253709 -0.04857008 -0.09685333 0.13819273 -0.024494285 -0.043718643 0.015607595 0.011193132
-0.07012426 -0.00700129 0.10688459 0.05033882 -0.08294807 -0.02220441 0.04998063 0.028133089
0.015700312 -0.06622385 0.022237046 -0.05986113 0.017544916 -0.122016095 -0.041653287 0.026725061
-0.0014744351 -0.06400998 0.024465129 0.0038635756 0.002033032 -0.040003233 0.013680928 0.007219192
0.0580244 -0.057407636 0.0295124 0.083191305 -0.05427689 0.015593189 -0.032704916 -0.070202835
0.060941268 0.0846061 -0.06471148 0.072880834 -0.0074973023 -0.0677353 -0.060701694 0.030375706
-0.061795842 0.09908033 0.07377187 0.007958302 -0.02447541 -0.06154594 0.13379222 -0.014405218
0.015714813 -0.05208693 -0.05570472 -0.011518477 0.036851764 -0.09026809 -0.01336923 -0.05670724
0.05357764 -0.084788054 -0.0803042 -0.035593957 0.0102245575 -0.07807635 -0.087183096 -0.067945585
0.011389091 -0.04043006 -0.012112976 0.03678398 0.03430049 -0.08122846 0.064697966 -0.03899168
0.08450484 0.11519471 0.0004964182 0.11599623 -0.02868965 -0.039631814 -0.03000389 0.03906086
-0.06451128 -0.08416617 0.009953927 0.043242212 -0.054508846 -0.011008147 0.07859527 -0.10461552
0.046252713 -0.07222075 0.041875802 0.014447 -0.048923697 0.05784302 0.07500914 -0.044989735

net.2.bias f4 [128]
00000000: 8449 753e c2c5 ca3c 8d55 813d 8592 c73d
00000010: 68fb a3be e57c 873d 8fe5 88bd 4edf 613d
00000020: 0659 ef3c 881f 1a3c b43d 11bd b3cd 89bd
00000030: de8e 953d 470d 603d bbee 87ba ee82 143c
00000040: 511e 8bbe bc53 893c abd1 30be 8c87 c0b7
00000050: bee7 a9bc e513 20bc 6afc 42bd 7b52 38bc
00000060: 1117 45bd b6c7 9d3b 047d f13d ca1a 4a3e
00000070: 882f 033d fe7b ec3d d6f8 483d 8953 463d
00000080: 3898 b93d 883e 073d f962 763d f63f fdbd
00000090: cf24 8a3d c8f9 853d f85c e33e c626 673c
000000a0: f422 ab3d d173 33bb e249 cd3d 403d df3a
000000b0: 66dd c53d e56e b23d ee82 2dbd 38d2 873c
000000c0: 5a1e 843d 3a42 9b3d 33f0 5ebd 48ea 0b3d
000000d0: 94d8 f93c 9372 80bb 6c99 fcbc e274 e33d
000000e0: 6d3e 0bbe dcde a8bd fdf4 b8bd d945 ff3c
000000f0: 19a6 36bc b1d1 15be fa08 5dbd 176d e5bd
00000100: 6d68 103d c925 763d 3e90 d4bd 128e 903d
00000110: f98a cf3d f3c0 e43a d12f e33c 3a82 473d
00000120: 2e41 2c3d a32c 73b9 f7b6 b23b 72c1 a93d
00000130: 0267 033e e62c d53d c599 1a3e 66af f3bb
00000140: 0e5d 6dbd 6eb5 a53b 5ecb 3dbd 1d4e b9be
00000150: be94 d9bc 1146 ce3c c1d4 89bc f930 b63d
00000160: 4909 e33c 3684 e33d 7b24 54bc c1a3 f8bc
00000170: 5d76 3a3d 530c a1bd e852 58bc b656 2cbd
00000180: d6c8 a63b cd10 8b3c e8d8 323e dd70 3d3d
00000190: d3ae 0bbb 3a6a de3c b5e9 5b3e eb62 38bd
000001a0: 5133 70bc 61e5 e6bb 9aac a3bd 67b3 44bd
000001b0: 097c b33c 7d86 a4bd 7b86 b3bb efc2 95be
000001c0: 12dc 4d3d e51d ef3d bb1a 073c 6bed 8b3c
000001d0: 0af0 28be 4153 b5bd 8ce2 723d 69de 483d
000001e0: 53ad c73c 1d7b 9b3d d7c6 ccbd 0b64 25bd
000001f0: b9ca 69bd 45e7 6abd fab2 013e 823b b4be
0.23953825 0.024752501 0.06315146 0.09744743 -0.32027745 0.066156186 -0.0668441 0.0551446
0.029217254 0.009406932 -0.035459235 -0.06728687 0.073026404 0.054700162 -0.001037083 0.009064419
-0.27171567 0.01676356 -0.17267482 -2.2951303e-05 -0.020740386 -0.009770368 -0.047604002 -0.011250134
-0.0481177 0.004815067 0.11791423 0.19736782 0.03202775 0.11547087 0.049065433 0.04841951
0.090622365 0.03301862 0.06015298 -0.12365715 0.06745302 0.065417826 0.44406867 0.014108365
0.08356276 -0.0027382264 0.10023858 0.0017031804 0.09661369 0.08712558 -0.042361192 0.016579732
0.064511016 0.07580991 -0.05442829 0.034158975 0.03049878 -0.0039199083 -0.030834876 0.11106278
-0.13598032 -0.08245632 -0.09031103 0.031161236 -0.011147999 -0.14630772 -0.05396364 -0.11202448
0.03525584 0.06009463 -0.103790745 0.07058348 0.10133929 0.0017452523 0.027732762 0.048708178
0.042054348 -0.00023190914 0.00545394 0.0828885 0.12832263 0.10408954 0.15097721 -0.0074366806
-0.057950072 0.0050570285 -0.046336524 -0.36192408 -0.026560184 0.025179895 -0.016825082 0.088960595
0.027714388 0.111092016 -0.012948151 -0.030351521 0.045523036 -0.07863679 -0.01320336 -0.04207488
0.0050898595 0.016975785 0.17465556 0.046250213 -0.002131392 0.027150262 0.21475871 -0.04501621
-0.014660672 -0.007046387 -0.079919055 -0.048022654 0.02190973 -0.08033464 -0.005478678 -0.29250285
0.050258704 0.11675624 0.008246119 0.017080983 -0.16497818 -0.0885377 0.059298083 0.04904023
0.02437464 0.07591841 -0.09998863 -0.04037861 -0.057078097 -0.057349462 0.1266593 -0.3520165

net.4.weight f4 [128, 128]
00000000: c0af 47bd c3c7 653d 0bb4 56bd d0d1 273d
00000010: 1f2b 77bd cf4f 10bd 168e 4a3d 9975 17bd
00000020: 1021 593c aff3 52bd a458 ccbd 3c6e 21bd
00000030: ed33 38bc 68d0 923d 5e54 783d b04f 7f3c
00000040: c8b6 2bbd 2ca6 71bd ca5c 8dbd 35bd 55bd
00000050: 6a93 87bd f0aa 00bd de9c 173d 9cbd 553d
00000060: db95 b43c 6667 143c 7b0e a1bd 24f2 76bd
00000070: 4871 913d ab02 04be e85d a7bc c89c 8f3c
00000080: dd80 24ba 7c25 1f3d a3b6 a2bd 6f1f b3bd
00000090: 97a8 74bd 3079 773d 71b1 91bd a66c dc3c
000000a0: ff1c 76bd c8ea 45bc 3f52 803c 93ec 82bc
000000b0: f363 e4bb 9306 893c 1dac 533d b457 c2bb
000000c0: e091 463d fec3 f53b 159b c7bc 6954 743d
000000d0: 73d3 4e3c 8c46 7e3c 1484 86bc d89a 9b3d
000000e0: 489a 973d 2e79 3dbd ab58 843d bcba 11bd
000000f0: 01cc 7d3d 4a4f 1a3d 686d adba ae21 f5bc
00000100: df36 b63d 7462 30bd cb96 dd3c dfd4 3a3c
00000110: b690 5cbd b540 853d 81d5 18bc 2480 8abd
00000120: 66ae 663a 3c89 7d3c 7cea 4b3d 9644 973d
00000130: f063 6fbd 97cc a4bd 5af3 99bd 1513 97bd
00000140: 6eef a4bd ff1f a53d 41eb 61bd ebb1 163d
00000150: d2e4 02bd 208a e3bc fb3b 43bd 5bb1 b6bd
00000160: 8095 203d d4f6 84bd 17ac c13c 1c49 b5bd
00000170: a243 2a3d 32d6 c6bc 5dcb 72bd db35 ee3c
00000180: bb97 363c bc36 dcbc 5c89 4dbd 27ff 653d
00000190: 6209 663c 99c4 e7bd 9b3d b8bd cd93 5e3d
000001a0: 48dd 80bc fd47 9abd 0271 a9bd b2cf a8bc
000001b0: 142e 853d ca41 46bc 3325 e03c 137a 92bc
000001c0: 2437 5d3d c9ca afbc c896 8d3d f95f dcba
000001d0: 98af 813d 4fed c6bc 9580 8cbd fc23 8abd
000001e0: 2c2f 0d3d 27c7 43bd cce8 b8bd 8ec3 633d
000001f0: 1460 1b3d b444 66bd 6489 8cbd d69b 653d
00000200: 1aeb a4bc d272 823c 674c 8fbd 512b 3d3d
00000210: aeea acbd c096 9abc 40c9 743c fe9c d73a
00000220: eb13 fd3c 24b5 283d 4247 bfbc 4485 ab3d
00000230: 2046 153c 42b1 eb3c 37eb 6f3d 0b3a 883d
00000240: dcaa e33d 96c1 263e 48ee 32bd fdc2 07bb
00000250: a6e1 3dbc 9b62 8f3d bb76 b93d 4f54 d63d
00000260: 05d6 cb3c da04 d63b ef59 68bd 16a9 9fbc
00000270: 2a74 fa3c 7479 2cbe 767c f7bc 7302 11bd
00000280: b081 57bd d084 353d 1f80 8ebc 1978 dfbc
00000290: 87c7 fa3c 1c1e d1bd ae1d 8abe 4f5c 56be
000002a0: 995e 743d 69da d1bd 82fd f8bc c36a 2dbd
000002b0: aa2d 05be 8f32 0abb 06c1 b03d 80d4 2c3d
000002c0: 523f 833d 8b17 aa3c 1f24 543e bf5e 5ebd
000002d0: 7a23 c33d 5522 903d a9b8 a9bd 96c7 12bd
000002e0: 03d4 d9bb 43de a73d 9912 d73c 5fd6 8a3d
000002f0: ff18 8cbd be4f f0bc 41d8 a03d 15d5 f1bd
00000300: 6401 0e3b 08eb d93c 2698 323e 6692 de3d
00000310: ccf6 9fbd 4434 aa3c ec8b 9fbb 7725 eb3c
00000320: 2b47 eb3d 3de2 03bc f392 9bbc e9fc 223e
00000330: 4bd9 4a3c 7ae7 8dbc 6b3a 54be 7b84 1abd
00000340: b949 ecbc ed4f cf3d 3205 9abc b7fd 053d
00000350: fda4 30bd 1bd4 b33d 5162 e7bd 6e24 593d
00000360: 898a a4bd bbcb 083d 1131 8cbc c905 2cbd
00000370: c167 a3bc 006f 873c 33dd 91bd a29d 83bd
00000380: a9f3 b03d 89b5 ec3c 43ca 79be 1683 c03d
00000390: 29ef dc3d 99f5 173e dc3f f0b9 956b 363d
000003a0: a495 be3c 139b a13b c722 1ebd 4fc5 35bd
000003b0: 97e8 843d 82f6 11bd 9935 c13d 7fba 553c
000003c0: 9b29 273d b0da fb3c c057 dc3d 024e 983d
000003d0: c24a bb3d ee78 18bd cda0 b13b e3dd 993d
000003e0: 48e6 4a3d 3336 abbd 0d38 09be e858 c13d
000003f0: 7b43 a43c 2b12 cdbd 5574 723d b9ff d93d
-0.048751593 0.05609871 -0.052417796 0.040971577 -0.060343858 -0.03523236 0.04945191 -0.036977384
0.013252512 -0.051501926 -0.09977844 -0.03941177 -0.011242849 0.071686566 0.060627334 0.015582964
-0.04192236 -0.058996364 -0.06902464 -0.052182395 -0.06619914 -0.03141302 0.037014835 0.05218278
0.022044113 0.009057855 -0.0786409 -0.060289517 0.07101685 -0.12891643 -0.02043052 0.017530814
-0.00062753056 0.038854107 -0.079449914 -0.0874623 -0.059731092 0.060418308 -0.071139224 0.026907276
-0.060086247 -0.012079902 0.015664218 -0.015981948 -0.0069699227 0.016726768 0.051677812 -0.005930865
0.04847896 0.0075001707 -0.024365941 0.059650812 0.012623656 0.015519749 -0.016420402 0.075978935
0.07402474 -0.046258144 0.064622246 -0.035578474 0.06196213 0.037673272 -0.0013231458 -0.029923286
0.088971846 -0.043062642 0.027049443 0.0114032915 -0.053848945 0.065064825 -0.009328247 -0.06762722
0.0008799791 0.015474614 0.04978417 0.073861286 -0.058444917 -0.08046835 -0.07517119 -0.073766865
-0.0805348 0.080627434 -0.055155996 0.03679077 -0.0319565 -0.027775824 -0.047664624 -0.089205466
0.039205074 -0.06492391 0.02364163 -0.08851835 0.041568406 -0.024272058 -0.059275974 0.029078415
0.011144574 -0.026881568 -0.050179824 0.056151535 0.014040323 -0.11316795 -0.08996125 0.054340173
-0.015730515 -0.07533262 -0.08273508 -0.02060685 0.06502929 -0.012100646 0.027361488 -0.017880475
0.054007664 -0.021459 0.06913525 -0.001681327 0.0633232 -0.02428308 -0.068604626 -0.06745145
0.034468815 -0.04779735 -0.090287775 0.055606417 0.037933424 -0.056217864 -0.06862143 0.05605682
-0.020131636 0.015923891 -0.069969945 0.046183888 -0.08443199 -0.018870711 0.01494056 0.0016449986
0.030893287 0.041188374 -0.023349408 0.08375028 0.009110957 0.028771047 0.058573928 0.06651696
0.11116573 0.16284785 -0.043684274 -0.0020715587 -0.011589443 0.070012294 0.09055849 0.10465299
0.024882326 0.00653134 -0.056726392 -0.019489806 0.03057297 -0.16843206 -0.030210715 -0.035402726
-0.052613914 0.044316113 -0.017395077 -0.027278947 0.03061272 -0.10210821 -0.2697577 -0.2093365
0.059660528 -0.102467366 -0.03039432 -0.042338144 -0.130057 -0.0021087264 0.08630566 0.042194843
0.06408562 0.02076318 0.20716904 -0.054289576 0.09528251 0.07037798 -0.08287174 -0.03583487
-0.006647588 0.0819669 0.026253985 0.06779169 -0.06840705 -0.029334899 0.07853747 -0.1180822
0.002166831 0.02660133 0.17440853 0.10867767 -0.07810745 0.020776875 -0.004868975 0.028704388
0.114881836 -0.008049545 -0.01899097 0.1591679 0.012380908 -0.01732229 -0.2072541 -0.037724
-0.028843747 0.101226665 -0.018801305 0.032712664 -0.043126095 0.0878069 -0.11298049 0.053013258
-0.08034236 0.033397418 -0.01711324 -0.041997705 -0.019946935 0.016532421 -0.071222685 -0.064265504
0.086402245 0.028895156 -0.24393563 0.09400003 0.10787804 0.14839782 -0.00045823946 0.044536192
0.023264714 0.0049318164 -0.038607385 -0.04437762 0.064896755 -0.03563548 0.09434051 0.013044952
0.040811162 0.030743927 0.107589245 0.07436754 0.09145118 -0.037224703 0.0054207803 0.07513025
0.04953602 -0.08359947 -0.13400288 0.09440786 0.020051708 -0.10013231 0.059192974 0.10644478

net.4.bias f4 [128]
00000000: 2631 1ebd 62e9 7cbd 3a16 863d eaf4 553d
00000010: 59e7 883d fce7 e2bc 941f c63c 8842 66bd
00000020: 4998 cf3d 2f88 b33d 0675 85bd 49b7 babd
00000030: 0bc7 943d 5471 8abc 6ff7 c2bc 01b0 e1bc
00000040: f69e 033c d222 193d c974 06bd b681 e83c
00000050: 9351 cd3d daf2 7c3d 682b dc3a 2839 ac3b
00000060: 1f99 943d bc6e dfbe 2b96 243d 9840 2b3b
00000070: ca10 663d 8099 02bd e527 bf3c d23d aa3d
00000080: 7ab6 893d d394 a3bd 7a0e c23d c1a2 8abd
00000090: 06d8 76be c33b 0cbd 43c8 473c 0509 25bd
000000a0: 0736 5e3d a59f ba3d 9a48 8bbd ead6 a13d
000000b0: 5dc5 aebd 9338 08bc 4977 403d f346 b83d
000000c0: d887 cc3c e7b0 13bd 329d bd3c 4650 5b3d
000000d0: bd10 cbbd 3659 41bd 4d76 24bd b7f0 c13d
000000e0: 8c25 cfbc efa9 71bc 6463 6a3d e9fc 293d
000000f0: 2f17 913d 9700 14bd 64f3 1a3d e729 01bd
00000100: ba23 283c e20b ac3d 8d3f 6bbc 2b2f 453c
00000110: 2d6a 3f3d 0bb2 9b3d ca21 5f3d 3874 903d
00000120: c70b 4bbe 6b34 80bc 29cc 573d 7c8d 5d3c
00000130: 6828 d03d 92be b7bd 7be3 b2bd a568 953e
00000140: ce8f 213d 6c98 a2bd 2e94 cbbc a767 65ba
00000150: f7d3 0dbd ce9d 86bd 9109 adbd ec78 403c
00000160: de1e 76bd 4c58 a2bd 2e04 063d b35d 3b3d
00000170: f7cc 5cbd d03b fe3c 9a39 c43c 2df4 ef3c
00000180: 2de9 27bc 4d58 b0bc 3e5f 2ebd 5d48 d53d
00000190: 6ba6 86bd d8b4 24bd 434a 673d a4c0 053d
000001a0: 31b4 69bd b7a7 da3b 6944 48bd d723 b43d
000001b0: 600c b0bd 72db 01be b2b6 2c3d 7f1b 263d
000001c0: 5582 e63c a869 a43d ca2b b9bc d4e2 913d
000001d0: e1ee 65be 3d4a 71bd 78b4 7e3b c751 25be
000001e0: 7dce 8e3d 1db9 ac3b d3dc 15b9 6193 edbb
000001f0: a4ec 9ebd 1728 cbbb 0dca 8539 2adc 8dbd
-0.03862109 -0.06174601 0.06547208 0.05223552 0.06684751 -0.02769851 0.02418498 -0.056215793
0.10136468 0.08766209 -0.06516461 -0.0911699 0.07264527 -0.016899742 -0.023799626 -0.027549746
0.008033505 0.037386723 -0.03282622 0.028382163 0.10025325 0.06175504 0.0016797604 0.005255837
0.07255768 -0.4363917 0.040182274 0.002613103 0.056168355 -0.03188467 0.023334453 0.083125725
0.06724258 -0.0798737 0.094754174 -0.06769324 -0.24105844 -0.03423668 0.012193742 -0.040291805
0.054250743 0.09112481 -0.06800957 0.0790232 -0.08533738 -0.00831427 0.04698876 0.089979075
0.02496712 -0.03605738 0.023146246 0.05354335 -0.09915302 -0.04720422 -0.040151883 0.09469741
-0.025286458 -0.014749988 0.057223693 0.04150096 0.070845 -0.036133375 0.03782977 -0.0315341
0.010262424 0.08400704 -0.014358413 0.0120351715 0.046732116 0.076023184 0.054475583 0.07053417
-0.19828711 -0.015649995 0.052684937 0.013522502 0.10163957 -0.08971895 -0.08734795 0.291814
0.039443783 -0.079392284 -0.024850931 -0.0008751102 -0.034625974 -0.065730676 -0.0844909 0.01174758
-0.06008803 -0.079269975 0.03271883 0.045743655 -0.053906407 0.03103438 0.023953248 0.029291237
-0.0102484645 -0.02152648 -0.0425713 0.10414193 -0.065747105 -0.04021153 0.056467306 0.03265442
-0.05705661 0.006672825 -0.048893366 0.087958984 -0.0859611 -0.12681368 0.04216642 0.040553566
0.028138319 0.08027965 -0.022603888 0.07123342 -0.22454406 -0.05890869 0.0038864892 -0.16144477
0.06972978 0.0052710907 -0.00014292011 -0.007250235 -0.07759979 -0.0061998474 0.00025518276 -0.069267586

net.6.weight f4 [2, 128]
00000000: 0c31 7fbc 9f4f 713e 9047 9c3c 88b2 be3d
00000010: 9f8d 0cbe c0b8 04be 5833 033e 8c2c 24be
00000020: 1344 eabd d514 9bbc d02e 813e 219b 663e
00000030: 1c28 46be 6c8a ecbd 099b a23d f14e a3bd
00000040: ceba 9a3d 5f76 4f3d 2bf5 553e f0e9 28bd
00000050: 00e8 c5bd 2397 583e 0496 7c3c 769a e6bb
00000060: fb74 443e a4a2 4bbf ec2e 29bb e06e 2ebe
00000070: 166a a13d 782d 443d 296c 13bd cae8 293e
00000080: 482f 45be e837 663e 3b9a 6e3d 4bc9 fe3d
00000090: 215d 09bf 2040 053e d293 8f3d b690 c6bd
000000a0: 9f90 1dbd 8d77 b1bd ea0e 0c3e b2f4 3dbc
000000b0: 7e5e ec3d e071 3cbe 5e77 e4ba 2fb6 a83d
000000c0: 0152 10be fb82 a83d c419 29be b2b8 0ebe
000000d0: b2c4 7a3e 670a 4e3d 7f2e 93be a74d fe3c
000000e0: 4777 a7bd 75af ba3c 9ae6 453e c994 07bd
000000f0: a6a8 ad3c a88f 003c 12a3 83be 4ba6 cf3d
00000100: 82f9 f6bc 9479 1cbe 7fc5 683c 11e2 97bd
00000110: 5d1e dabd 29fe f23d 244b 873d 163f 9a3d
00000120: 331b a93e 37a5 8c3d 3a38 a73d 5731 533e
00000130: c7bc d4bd 3c06 193e 92f6 a93d 93cd 013e
00000140: 30d9 35be d125 213d 267b 1e3d 37ae 25be
00000150: 247d 233c d96d b5bd 4349 533d 1823 82be
00000160: c742 0bbd a85d 50be 8be0 17be df09 d53c
00000170: 6d44 95be d1be b03d 3db8 ff3d 4f23 43be
00000180: 6cd0 f83d 00c8 ff3c af22 6e3e 517d b1bd
00000190: 4e30 a3be f470 6b3e f8ad efbd 7211 febc
000001a0: 730d 113e e119 6e3c 4d39 05be a604 0abe
000001b0: 44de eb3d ee08 5f3e 7278 77be 2b03 983d
000001c0: 9d74 a43c 299a d9bd 78f7 85be 9f88 16be
000001d0: bb14 f3be 8574 58be 6d61 debb 475a 643e
000001e0: f6de 1a3e 7ec0 2dbe 5d03 d8bd 8d24 01be
000001f0: 2ad5 2fbe 5816 a9bd 4cbc 0bbe ad29 cf3d
00000200: 9882 82bd 2076 99bc dd8d a03d b6e7 543c
00000210: 4977 b63d a317 9ebd 1c72 3dbd f10b 743d
00000220: dce9 82bd f34c 8fbd 8868 3d3d 7683 2fbd
00000230: d956 823d 1414 adbd 49a8 bebd ef01 4f3d
00000240: 5618 8a3d 453a a9bd 6c14 f9bc 1f18 d1bd
00000250: 534d adbd e4b8 b3bd bf46 9a3d 9368 6abd
00000260: fc0d 073e bedb 913c 1471 6c3d 9a56 a2bc
00000270: 168a 593d b355 3a3d b289 b93d 64c6 0e3d
00000280: 1e10 1fbc 2e6a ce3c a785 abbd 317b 683d
00000290: 6326 91bc 45bd 3fbd 910f 8d3d 1c92 f4bc
000002a0: 9efb 943d 300e cbbd 09de 4f3d 1a5b 94bd
000002b0: b910 1c3d 0537 433d 4960 d13d 79db 7bbd
000002c0: 8959 3fbd f24e a83d 86e7 503d d8cb 28bd
000002d0: 6b5d 6f3c 203f bfbd f2bd b23c 0e98 2dbd
000002e0: d346 84bd ac22 a5bd 0b48 2cbd 82bb fabc
000002f0: 5eae 823d 898e 633d 9de0 05bd 2431 123d
00000300: 37b5 283d 62c1 5abd 348a 833d 1b1e b83d
00000310: 2026 8a3d ec2b c43d f6eb 023d bc8d c03d
00000320: 95e1 18bd 41d2 2e3d 2de5 1ebd c21e f93b
00000330: 402e dbbd 404b 193d edfb f13c b47c 4bbe
00000340: 602c 1ebd 0f49 4e3d 783b b1bd 2e67 c93d
00000350: 1877 2c3d 4d8b 0d3d b7fd 7e3d 4ddf 03bd
00000360: d581 bc3d d6c7 683d 5ca2 5dbd 692d b23d
00000370: 39d7 e53c 17f3 3b3d ba7b 87bc ad8d 75bd
00000380: 986d 37bd 3fa9 c7bd 7824 8bbc ad97 29bd
00000390: 7fdd 263e a95d 8ebd 2e5c c43d 0d06 ffbc
000003a0: 606f 733d 69f0 38bd 13d5 92bd 67a8 d0bc
000003b0: 9034 993d a0d4 0a3b e3b4 3dba dc48 43bc
000003c0: 4c09 9e3d d795 ca3d 7120 f1bc b0e3 b53d
000003d0: df8c 28bc 35b9 eabc 5e5e ab3d 6d88 96bc
000003e0: bea3 f4bc 93f4 3bbd a318 ae3d 1059 a23d
000003f0: cf09 8c3d e6b4 3cbd c7e4 ae3d 3082 df3d
-0.0155756585 0.2356553 0.019077092 0.09311396 -0.13725899 -0.12961102 0.12812555 -0.16032618
-0.114387654 -0.018930832 0.25231028 0.22520114 -0.19351238 -0.115498394 0.07939727 -0.07974041
0.075551614 0.050649997 0.20894305 -0.041238725 -0.09663391 0.21151404 0.015416626 -0.007037456
0.1918525 -0.79545045 -0.002581532 -0.17034483 0.078815624 0.047894925 -0.03599182 0.16592708
-0.19256318 0.22482264 0.058252554 0.12440737 -0.5365773 0.13012743 0.07010616 -0.0969557
-0.038468 -0.086653806 0.13677564 -0.011593984 0.115414605 -0.18402815 -0.0017430594 0.08237874
-0.14093782 0.082281075 -0.16513735 -0.13937643 0.24489096 0.05030289 -0.2874641 0.031042887
-0.08177047 0.022788743 0.19326249 -0.033100877 0.021198582 0.00784675 -0.2571035 0.1013914
-0.030148271 -0.15280753 0.014207243 -0.074161656 -0.106503226 0.118648835 0.06606129 0.07531564
0.33028564 0.0686745 0.08165021 0.2062429 -0.10387569 0.14943784 0.08298983 0.12676077
-0.17758632 0.039342705 0.038691662 -0.16179739 0.009978566 -0.088588424 0.05158354 -0.254174
-0.03399923 -0.20348227 -0.1483175 0.026005683 -0.29153767 0.08630145 0.124863125 -0.19056438
0.12149128 0.031223297 0.23255418 -0.0866648 -0.3187279 0.22992307 -0.11703104 -0.031014178
0.14165287 0.014532537 -0.1301014 -0.13478336 0.11517003 0.2178075 -0.2416704 0.07422479
0.020075137 -0.10625107 -0.26165366 -0.14700554 -0.47476754 -0.21138199 -0.0067865164 0.22300063
0.15124115 -0.16967961 -0.105475165 -0.126116 -0.1717116 -0.08256215 -0.13646048 0.10115371
-0.06372565 -0.018733084 0.07839558 0.012994697 0.089094706 -0.07719352 -0.0462514 0.0595817
-0.063922614 -0.06997099 0.046242267 -0.04284998 0.06364221 -0.08451095 -0.093094416 0.050538953
0.06742923 -0.08263067 -0.030405246 -0.10209679 -0.08462014 -0.087754995 0.07533025 -0.057228636
0.13188928 0.017804977 0.057725027 -0.019816685 0.053110205 0.045491885 0.090594664 0.03485717
-0.0097084325 0.025197115 -0.083751015 0.05675811 -0.0177185 -0.04681136 0.06887735 -0.029854827
0.07274555 -0.099148154 0.05074886 -0.07243939 0.038101885 0.047659893 0.10223443 -0.061488602
-0.046716247 0.082181826 0.051002048 -0.041210026 0.014609675 -0.09338212 0.021819089 -0.04238134
-0.06458821 -0.08063254 -0.042060893 -0.030606989 0.06380914 0.055555854 -0.03268491 0.035691395
0.041188445 -0.05340708 0.064228445 0.08990117 0.06745553 0.0957869 0.03196331 0.09402034
-0.037324507 0.042680983 -0.038792778 0.0076025436 -0.10702181 0.03742528 0.029539073 -0.19871789
-0.038616538 0.050362643 -0.08653921 0.09834133 0.042105764 0.034556676 0.06225368 -0.032195378
0.09204451 0.056831203 -0.054109916 0.087000675 0.028056728 0.045886125 -0.01653849 -0.059949566
-0.04478225 -0.09749078 -0.016985163 -0.041404415 0.16295432 -0.06951458 0.095878944 -0.031130815
0.059432387 -0.045151148 -0.07169547 -0.025470925 0.074807286 0.0021183863 -0.0007236732 -0.0119192265
0.07716617 0.09891861 -0.029434415 0.088813186 -0.010287493 -0.028652767 0.083676085 -0.0183756
-0.029863235 -0.04588754 0.08500793 0.079271436 0.06837808 -0.046070956 0.085397296 0.10913503

net.6.bias f4 [2]
00000000: c9c2 c13c e0db e4bb
0.023652451 -0.006984219
