model/SnSe.pth (torch, 139456 bytes, 8 tensors)

net.0.weight f4 [128, 6]
0	0x3ec8e7c8	0.39239335
1	0x3e904a30	0.281816
2	0x3e56a54f	0.20961498
3	0xbed30e40	-0.4122181
4	0x3ec92988	0.39289498
5	0xbe399ad5	-0.1812547
6	0x3e546d48	0.20744812
7	0x3eb35cc9	0.35031727
8	0xbe8d62f7	-0.27614567
9	0x3e866fc9	0.2625716
10	0x3f244773	0.6417152
11	0xbe502c56	-0.20329413
12	0x3ecf0e92	0.40440804
13	0xbe8e4be4	-0.27792275
14	0x3ebbb7b2	0.36663586
15	0x3e7068e6	0.23477516
16	0xbebffbe2	-0.3749686
17	0xbe7a5b4f	-0.24448894
18	0x3ea1e509	0.31620052
19	0x3eaad8f7	0.33368656
20	0x3e6d82f4	0.23194486
21	0x3cd4fa01	0.025998117
22	0x3e3621d0	0.17786336
23	0x3e80b61b	0.25138935
24	0x3e10e97d	0.14151569
25	0xbe87413d	-0.2641696
26	0x3e231ab3	0.15928154
27	0x3d720ebc	0.059096083
28	0xbeb5b203	-0.35487375
29	0xbe829ace	-0.25508732
30	0xbed03918	-0.4066856
31	0xbc10d862	-0.008840652
32	0x3dc71651	0.097210534
33	0xbf126110	-0.57179356
34	0xbc279956	-0.010229429
35	0xbed58ebc	-0.4171046
36	0x3e4e6dc5	0.20159061
37	0xbe882974	-0.26594126
38	0xbed12101	-0.40845492
39	0xbec37a5a	-0.38179284
40	0x3eb75b1f	0.35811707
41	0x3e8bbaa8	0.27290845
42	0x3dbb1980	0.09135723
43	0x3ec535d5	0.38517633
44	0xbde62354	-0.11237207
45	0xbde3b1ac	-0.111178726
46	0x3e96c5db	0.29447827
47	0x3e8ea224	0.27858078
48	0x3cbc677e	0.022998568
49	0x3d4148a1	0.047188405
50	0x3e92f6bb	0.28703865
51	0xbe15ee33	-0.14641647
52	0x3ee70d85	0.45127502
53	0x3e89df78	0.26928306
54	0xbe8b96ce	-0.27263492
55	0xbedefd24	-0.43552506
56	0x3e0f5d92	0.14000538
57	0xbe8242b9	-0.2544153
58	0x3ea5c40d	0.32376137
59	0x3f0c81ef	0.5488576
60	0xbcb6db79	-0.02232145
61	0xbeb267a8	-0.34844708
62	0x3ea74ad3	0.32674274
63	0xbede00d7	-0.43360016
64	0xbe8eaf60	-0.27868176
65	0xbe94f60a	-0.29093963
66	0xbef9e3b6	-0.48806542
67	0xbe6df32f	-0.23237298
68	0x3ee7ecc8	0.45297837
69	0xbe9f331f	-0.3109369
70	0x3f391b24	0.7230704
71	0xbe2b4241	-0.16724493
72	0x3e26f022	0.16302541
73	0xbddcd65a	-0.10783072
74	0xbf01bb69	-0.5067659
75	0x3e583236	0.21112904
76	0x3ef548bf	0.47907063
77	0x3e3a786d	0.18210001
78	0x3eb876fa	0.36028272
79	0x3e4eed87	0.20207797
80	0x3e91a5a1	0.28446677
81	0xbed1b1dc	-0.40956008
82	0x3e30497a	0.17215529
83	0x3eec9524	0.46207535
84	0xbdc7e444	-0.09760335
85	0xbe1c6904	-0.15274435
86	0xbee420f0	-0.4455638
87	0xbec500dd	-0.3847722
88	0x3dccd800	0.10002136
89	0xbeca0740	-0.39458656
90	0xbd35c185	-0.044374008
91	0x3e79cfa5	0.24395616
92	0x3eb07e02	0.34471136
93	0xbdb1ca99	-0.086812206
94	0xbefa653e	-0.48905367
95	0xbd81e3fb	-0.06342312
96	0xbe9d9a03	-0.30781564
97	0xbdd1209d	-0.102112986
98	0xbeb18da2	-0.3467837
99	0x3e710598	0.2353729
100	0x3efba0a0	0.49145985
101	0xbef59bbd	-0.4797038
102	0x3e93223d	0.2873706
103	0x3e87b08a	0.26501876
104	0xbe8df11b	-0.2772301
105	0xbea27047	-0.31726286
106	0x3ecfdcdd	0.40598193
107	0x3e45af7f	0.19305228
108	0x3d2fd84a	0.04293088
109	0x3eca65d1	0.39530805
110	0x3eee8c7a	0.4659155
111	0xbe0bd884	-0.13656813
112	0xbe859134	-0.26087344
113	0xbdfe45c1	-0.12415648
114	0xbe20df67	-0.15710221
115	0x3e9466d7	0.2898471
116	0x3ea4472d	0.32085553
117	0xbe9c6d25	-0.3055202
118	0xbc9b7167	-0.018974973
119	0x3f13df9e	0.5776309
120	0x3eb45952	0.35224396
121	0x3ec0b6f6	0.37639588
122	0xbe30153b	-0.17195599
123	0xbe97915d	-0.2960309
124	0x3eeb9634	0.46013033
125	0xbd354805	-0.044258136
126	0xbe891d4a	-0.26780158
127	0xbe996963	-0.29963216
128	0x3dc75249	0.097324915
129	0xbe4f36dd	-0.20235772
130	0xbe9e4af7	-0.3091657
131	0x3da5fc6f	0.081047885
132	0x3d83eb3f	0.06441354
133	0xbeaa7047	-0.33288786
134	0x3ea964e7	0.33084795
135	0xbe9d175e	-0.3068189
136	0x3e8bb593	0.27286968
137	0xbea394b2	-0.31949383
138	0x3dc42d47	0.095789485
139	0x3e9bf838	0.30462813
140	0xbc85bf77	-0.01632665
141	0x3ea66c54	0.32504523
142	0x3f64b8f2	0.89344704
143	0xbe957589	-0.29191235
144	0x3e859835	0.26092687
145	0x3e26be38	0.162835
146	0xbcb9fdbc	-0.022703998
147	0xbeb20ff9	-0.3477781
148	0x3e16ed6d	0.14739008
149	0x3d1d81cf	0.038453873
150	0xbd5d0bd9	-0.053966377
151	0xbe66894a	-0.22513309
152	0x3d1d0216	0.038332067
153	0x3dfd96e6	0.12382297
154	0x3ed692cd	0.41908875
155	0xbebe7abe	-0.3720302
156	0xbed8bdcc	-0.42332304
157	0xbe39bc99	-0.1813835
158	0xbeb1d288	-0.34730935
159	0x3e968a40	0.2940235
160	0xbeb41e37	-0.35179302
161	0xbc95df12	-0.018294845
162	0x3e0c9a90	0.13730836
163	0x3e12838c	0.14307994
164	0x3dfc5175	0.12320224
165	0xbed0c18c	-0.40772665
166	0xbf159f3e	-0.5844611
167	0xbe7ca361	-0.24671699
168	0x3e172116	0.14758715
169	0x3eb5bb04	0.35494244
170	0x3e50829b	0.20362322
171	0x3eb14205	0.3462068
172	0xbe1021d9	-0.14075412
173	0x3d666d76	0.056256734
174	0x3e08c0e9	0.1335484
175	0xbd97b7a7	-0.07408076
176	0xbec98a14	-0.39363158
177	0x3e03ddca	0.12877575
178	0xbd5de68d	-0.05417495
179	0xbec856d0	-0.39128733
180	0xbd1038e7	-0.035210516
181	0xbc890987	-0.016728176
182	0x3e5786d7	0.21047531
183	0x3daf6fb7	0.0856623
184	0x3ebedc31	0.37277368
185	0x3ec72b2d	0.38900128
186	0xbeed5e2f	-0.4636092
187	0xbe021ec6	-0.12707052
188	0x3dd88c26	0.10573606
189	0x3de37d2f	0.11107861
190	0xbce7d222	-0.028298441
191	0xbdd50b46	-0.10402541
192	0x3e4119ea	0.18857542
193	0xbe9d54a6	-0.30728644
194	0xbe8a0110	-0.26953936
195	0x3c8b163b	0.016978374
196	0xbda1e1cf	-0.07904398
197	0x3eda7e2a	0.4267438
198	0xbedc25e4	-0.42997658
199	0xbc993e40	-0.01870644
200	0xbe8deb88	-0.2771876
201	0xbdd10d86	-0.102076575
202	0x3e9b5266	0.30336303
203	0xbe2bd43a	-0.16780177
204	0xbdf0f4e4	-0.11765459
205	0x3e919ffa	0.28442365
206	0x3ec3504e	0.38147205
207	0xbe4b2f0e	-0.19842169
208	0x3e03e801	0.12881471
209	0xbeb2597d	-0.348339
210	0x3e5ab0d5	0.21356519
211	0x3cc65258	0.024209186
212	0x3e98cd7c	0.29844272
213	0xbdde4dc1	-0.10854674
214	0x3d5f5aaf	0.054529842
215	0xbe1bcaca	-0.15214077
216	0xbe94dbd6	-0.29073972
217	0xbcb9ce29	-0.022681313
218	0xbe9f3ea6	-0.31102484
219	0xbeaa7ab2	-0.33296734
220	0x3eb80bf7	0.35946628
221	0xbea03198	-0.31287837
222	0xbedbf5e8	-0.4296105
223	0xbe4300c9	-0.19043268
224	0xbd5bf30e	-0.053698592
225	0xbea6d5cc	-0.3258499
226	0xbe164c2c	-0.14677495
227	0x3e7b5aaf	0.24546312
228	0x3d03e6c9	0.032202516
229	0x3e199905	0.14999779
230	0xbe174f9e	-0.14776465
231	0x3f0048b3	0.5011093
232	0xbef20f05	-0.47277084
233	0xbe6fb84c	-0.23410147
234	0x3e4d976d	0.20077296
235	0x3e80cfba	0.25158483
236	0xbee02a3b	-0.4378222
237	0xbed25f06	-0.41088122
238	0xbe980463	-0.29690847
239	0x3c559de2	0.0130381305
240	0x3ec3a9bd	0.38215438
241	0xbd7dd762	-0.061972983
242	0x3e42d006	0.19024667
243	0x3ed28a5c	0.41121185
244	0xbc306dfc	-0.01076841
245	0xbe24aabb	-0.16080754
246	0xbe4f0366	-0.2021614
247	0xbd7380ac	-0.059448883
248	0xbe82b66e	-0.25529808
249	0xbe7ccccb	-0.24687497
250	0x3d8e6731	0.06953276
251	0x3e29f360	0.16596746
252	0x3d583982	0.05278922
253	0xbd36d758	-0.04463896
254	0x3e153216	0.14569888
255	0xbda1f588	-0.079081595

net.0.bias f4 [128]
0	0x3ee9207b	0.45532593
1	0xbdbfa5b3	-0.093577765
2	0x3dd47a9b	0.10374948
3	0xbe6e87d0	-0.23293996
4	0xbcd4c126	-0.025971007
5	0x3ec3a568	0.38212132
6	0x3cd45a54	0.025921978
7	0x3cfd2147	0.030899657
8	0x3d8aba4e	0.06773816
9	0xbeba36c6	-0.36369914
10	0x3ec51d2e	0.38498825
11	0xbe9db119	-0.30799177
12	0xbec8acb1	-0.39194253
13	0xbea1834a	-0.31545478
14	0x3ec3db7f	0.382534
15	0xbd738be0	-0.059459567
16	0xbeae7db2	-0.34080273
17	0x3eb57664	0.35441887
18	0x3eca6809	0.39532498
19	0xbe881a7a	-0.265827
20	0x3ef96802	0.48712164
21	0xbef5a98b	-0.47980914
22	0x3e8e71c0	0.2782116
23	0x3f2eb8f4	0.68250966
24	0x3eed6c4b	0.46371683
25	0xbebb779a	-0.36614686
26	0xbe0c1891	-0.13681246
27	0x3f29b047	0.662846
28	0xbeabeb58	-0.3357799
29	0xbe18ae88	-0.14910328
30	0xbc8fba04	-0.017544754
31	0xbdb9344c	-0.09043178
32	0xbdf7b2e1	-0.12094665
33	0xbf0895b5	-0.53353435
34	0xbd5d2d77	-0.053998437
35	0x3f11a5ae	0.5689343
36	0xbec91ce6	-0.3927986
37	0xbcc3ba23	-0.023892468
38	0xbe56178a	-0.20907417
39	0xbdf201ec	-0.11816773
40	0x3e5fad13	0.21843366
41	0xbe4b7b85	-0.19871338
42	0x3ea963eb	0.33084044
43	0x3e982796	0.29717702
44	0x3e8259f0	0.25459242
45	0x3eda71c4	0.4266492
46	0x3ef42c17	0.47689888
47	0x3e52f4ae	0.2060115
48	0xbe7db408	-0.24775708
49	0x3e60807d	0.21924014
50	0x3e8e8852	0.2783838
51	0x3f2c9eab	0.6742961
52	0xbd9876c0	-0.07444525
53	0x3e9e3f37	0.30907604
54	0xbd8a8c4a	-0.06765039
55	0xbef87a86	-0.48530978
56	0x3f103599	0.56331784
57	0x3e594e32	0.21221235
58	0x3e1c45d3	0.15261011
59	0x3e8fbd6b	0.28074202
60	0x3e661824	0.22470146
61	0x3e325118	0.17413747
62	0x3c069508	0.008214243
63	0xbec1b6ce	-0.3783478
64	0x3e875fe6	0.26440352
65	0xbea02163	-0.31275472
66	0xbd1bc6e8	-0.03803149
67	0x3d9897ac	0.07450804
68	0xbe2b3217	-0.16718327
69	0xbe3fe215	-0.18738587
70	0x3ead7db7	0.33884975
71	0x3e884796	0.26617116
72	0xbe35afb0	-0.177428
73	0xbec11d4c	-0.37717664
74	0x3e98ac9b	0.29819188
75	0xbd4e4f2d	-0.050368477
76	0xbed6d4e8	-0.4195931
77	0xbeebc203	-0.46046457
78	0xbecb0fee	-0.3966059
79	0xbe575605	-0.21028908
80	0x3e4b72bd	0.19867988
81	0xbeb27e0d	-0.34861794
82	0xbe25a014	-0.16174346
83	0x3e0f0e1e	0.13970229
84	0x3eb18dc0	0.3467846
85	0x3df5337e	0.11972712
86	0x3ef8ff77	0.48632404
87	0x3dba71f3	0.09103765
88	0x3ed93f8f	0.42431304
89	0xbd3393ba	-0.043842055
90	0x3ea1eeab	0.31627402
91	0x3e48d066	0.19610748
92	0xbe19b737	-0.15011297
93	0x3e9fc452	0.31204468
94	0xbeb78f00	-0.35851288
95	0xbeb2ac7b	-0.34897217
96	0x3e6e09df	0.23245953
97	0xbdd6e9b0	-0.10493791
98	0x3e051393	0.12995748
99	0xbeba9c7c	-0.36447513
100	0x3e5a1121	0.21295597
101	0xbeab24ea	-0.334266
102	0xbcb5d9ce	-0.022198584
103	0x3e0c063d	0.13674255
104	0xbe44d5d1	-0.1922219
105	0xbe447251	-0.19184233
106	0xbcad4ae8	-0.021153882
107	0x3ddbfc50	0.10741484
108	0x3eb42b62	0.35189348
109	0xbdd28483	-0.10279181
110	0x3d1da0c4	0.038483396
111	0x3e61652e	0.22011253
112	0x3df9bb9e	0.12193988
113	0x3d48aac7	0.04899099
114	0x3e7af533	0.24507599
115	0xbead04f8	-0.33792853
116	0xbd519bb4	-0.05117388
117	0x3d4f7f69	0.050658617
118	0x3e2943f9	0.16529836
119	0x3eee60eb	0.46558318
120	0x3ed39618	0.4132545
121	0xbe623600	-0.22090912
122	0x3e82431d	0.25441828
123	0xbd9f0063	-0.07763746
124	0x3e976735	0.29570928
125	0x3e803df9	0.2504728
126	0xbe45a3a6	-0.19300708
127	0xbb512d32	-0.0031917808

net.2.weight f4 [128, 128]
0	0xbdd37fca	-0.10327108
1	0xbd554d12	-0.052075453
2	0x3d6ab5bc	0.05730222
3	0x3dc4f0c6	0.096162364
4	0xbd46c965	-0.04853191
5	0x3d65cc35	0.05610295
6	0x3d6202ea	0.05517856
7	0xbceb0cb1	-0.028692575
8	0xbdbda5da	-0.09260149
9	0x3c7234fe	0.014783142
10	0xbda673c9	-0.08127553
11	0x3e243a74	0.16037923
12	0xbcddf617	-0.027094884
13	0x3de483d4	0.11157957
14	0x3a7ad34d	0.00095682294
15	0xbd7b010d	-0.0612803
16	0x3d931f10	0.07183659
17	0x3ca40661	0.020022573
18	0x3cf71124	0.03015954
19	0x3d5ebfee	0.054382257
20	0xbcab83db	-0.020936897
21	0x3cf3dfff	0.029769896
22	0x3dc0b1a5	0.09408883
23	0xbd319e1f	-0.043363687
24	0xbdc575db	-0.0964162
25	0x3da49b49	0.08037431
26	0x3d66d8cb	0.056359094
27	0xbdecef52	-0.11569084
28	0x3dc984f4	0.09839812
29	0xbdda7d25	-0.10668401
30	0xbda53475	-0.08066646
31	0x3da9aaa4	0.082845
32	0x3d4b361d	0.049612153
33	0x3e4aecda	0.19816914
34	0xbd81d735	-0.063398756
35	0xbdce2156	-0.10064952
36	0x3e1d1f35	0.15343936
37	0xbcf7c70f	-0.030246286
38	0x3dabef3c	0.0839524
39	0xbd61787f	-0.055046555
40	0xbd993a80	-0.07481861
41	0x3dc840f1	0.097780116
42	0x3baa28ad	0.005192837
43	0xbdac4431	-0.08411444
44	0xbd178893	-0.03699548
45	0xbddd92b0	-0.10818994
46	0xbdd64653	-0.10462632
47	0x3c5ec84f	0.013597562
48	0xbd0d6691	-0.034521643
49	0xbd96d393	-0.07364573
50	0x3d23767e	0.039907925
51	0xbd9d4a85	-0.07680229
52	0x3e0a13bb	0.13484089
53	0xbd90b019	-0.07064838
54	0xbd178eae	-0.037001304
55	0x3d3ae192	0.045625277
56	0xbdbd00e7	-0.09228688
57	0x3d84b60e	0.06480037
58	0x3dc71e92	0.09722628
59	0xbdb9acf6	-0.09066193
60	0xbd87e6c6	-0.066358134
61	0xbd85d405	-0.0653458
62	0x3ce55475	0.027994374
63	0x3d9d7100	0.07687569
64	0xbd2536a7	-0.040335324
65	0x3de930b9	0.11386246
66	0xbdd8b3b2	-0.10581149
67	0x3d602130	0.05471915
68	0xbcd71c71	-0.02625868
69	0x3c562f31	0.013072775
70	0x3d66f6fd	0.05638789
71	0xbc703fc3	-0.0146636395
72	0x3de48e49	0.11159951
73	0x3d1b173b	0.03786395
74	0xbd794fde	-0.060867183
75	0x3cb1a1ac	0.021683536
76	0x3d2cecaa	0.042217888
77	0x3da2e464	0.07953718
78	0x3d165b39	0.03670809
79	0x3d7b9153	0.06141789
80	0x3cc00776	0.023441058
81	0xbcf9f118	-0.03051047
82	0xbe11698f	-0.14200424
83	0xbda496c1	-0.080365665
84	0xbceacff4	-0.028663613
85	0xbd4a9ce6	-0.049466036
86	0xbdc61bed	-0.09673295
87	0xbccfebe1	-0.02538103
88	0xbda6f0f1	-0.08151425
89	0xbdbb74f0	-0.091531634
90	0xbd090f0e	-0.033461623
91	0xbd80a6e6	-0.06281833
92	0xbd3d93f3	-0.046283673
93	0xbd605b01	-0.054774288
94	0x3dbdc824	0.092666894
95	0xbd6f4568	-0.0584158
96	0xbcd5c839	-0.02609645
97	0x3d1fa458	0.03897509
98	0xbcadc3d1	-0.021211537
99	0xbd008fb0	-0.03138703
100	0x3d775708	0.060385734
101	0x3e1f5d62	0.15562966
102	0x3d5519d1	0.052026574
103	0x3b7da429	0.0038702583
104	0xbdf1644a	-0.11786707
105	0xbda7958c	-0.08182821
106	0x3dc2f172	0.09518708
107	0xbd92f9d1	-0.07176555
108	0xbd8b7751	-0.06809867
109	0x3d8f3f7e	0.06994532
110	0xbdc66b43	-0.09688427
111	0xbd87d295	-0.06631962
112	0xbd962a1b	-0.0733225
113	0x3de1abc8	0.11019093
114	0xbd8b96b5	-0.068158545
115	0xbce41849	-0.027843611
116	0x3e155ae1	0.14585449
117	0xbb657b7b	-0.0035016227
118	0x3ce0a808	0.027423874
119	0xbdb1232c	-0.08649287
120	0x3da3cc86	0.07997994
121	0x3d40a0e9	0.047028456
122	0x3d5efac0	0.054438353
123	0x3d30f3df	0.043201324
124	0xbcb9cbd5	-0.022680202
125	0x3b85cbb1	0.00408312
126	0xbce735f7	-0.028223975
127	0x3e11db2a	0.1424376
128	0xbde6934f	-0.11258566
129	0x3db37fa7	0.08764582
130	0x3d425b12	0.047450133
131	0xbd3ece59	-0.046583507
132	0x3d19a9de	0.037515514
133	0xbd4f02a4	-0.050539628
134	0xbd1ddcdd	-0.03854071
135	0xbbc486a7	-0.005997497
136	0xbd687182	-0.056748874
137	0xbc132ec9	-0.008983322
138	0x3dad25c9	0.084544726
139	0xbb80795f	-0.0039207186
140	0x3c06cadc	0.008227076
141	0xbcf28bc0	-0.029607654
142	0x3d62ef39	0.05540392
143	0x3d725314	0.05916126
144	0x3d167488	0.036732227
145	0xbd8cf250	-0.06882155
146	0x3c5c8fef	0.013462051
147	0x3d5364c0	0.051609755
148	0xbd623a57	-0.05523142
149	0xbd9904ed	-0.07471643
150	0x3cfc00a9	0.030762034
151	0x3d28910e	0.04115396
152	0xbdb76f2b	-0.089567505
153	0x3bef887c	0.0073099714
154	0x3cc6e9e5	0.024281451
155	0x3daeb77b	0.0853109
156	0x3dc60d90	0.096705556
157	0x3c3fb9be	0.011701999
158	0xbdc1580b	-0.09440621
159	0xbd844ae0	-0.06459594
160	0x3d0d3287	0.034472015
161	0xbdc8f5dc	-0.09812519
162	0xbc98e38f	-0.018663196
163	0x3daccb9a	0.084372714
164	0xbcc1890a	-0.023624916
165	0xbd958df0	-0.07302463
166	0x3c16bea4	0.009200726
167	0xbc923a19	-0.017849969
168	0x3ddb48c7	0.107072406
169	0xbe02e717	-0.12783466
170	0xbd5ed417	-0.054401483
171	0xbcef5c21	-0.029218735
172	0xbca18296	-0.019715589
173	0x3cec4b84	0.028844602
174	0x3d43d658	0.047811836
175	0xbde8fb93	-0.11376109
176	0xbcbd59ec	-0.023114167
177	0xbdbd43b6	-0.092414305
178	0xbd87dfd9	-0.066344924
179	0x3d95f58f	0.07322227
180	0xbd8e9ddf	-0.06963705
181	0x3ccb17fe	0.024791714
182	0x3dc83cd2	0.097772256
183	0xbdcf2fae	-0.10116516
184	0x3d3e5409	0.04646686
185	0x3d846baf	0.064658515
186	0x3d11a887	0.03556111
187	0x3db23ea5	0.08703355
188	0x3da43116	0.08017175
189	0xbd8747a1	-0.06605459
190	0x3ceef264	0.029168315
191	0xbd58dc91	-0.052944724
192	0x3da2ff6c	0.07958874
193	0x3c88fb18	0.016721293
194	0xbcf7baab	-0.030240377
195	0x3c212924	0.009836469
196	0xbd014e65	-0.031568903
197	0xbd1ea4ec	-0.0387315
198	0xbda48c24	-0.08034542
199	0x3db59749	0.08866746
200	0xbd90d12c	-0.07071146
201	0x3c0f532b	0.008747856
202	0xbd8d20a6	-0.06890993
203	0xbd0ec6af	-0.03485745
204	0xbcca2064	-0.024673648
205	0x3c1b7306	0.009487873
206	0xbc26a89d	-0.0101720365
207	0xbd3531da	-0.044236995
208	0xbd1a7706	-0.037711166
209	0x3dad5b12	0.08464636
210	0x3c8bdcf0	0.017073125
211	0xbd5cc1b5	-0.05389567
212	0xbc916fb1	-0.017753454
213	0x3dd36510	0.103220105
214	0xbdb7cb27	-0.08974295
215	0x3c7aff4a	0.015319655
216	0x3c24a7f8	0.0100498125
217	0x3dd76b04	0.105184585
218	0x3e16d0bd	0.14728065
219	0xbda6d99f	-0.08146977
220	0x3d19d1d4	0.037553623
221	0x3c403bc5	0.011733
222	0xbc7e19c9	-0.015509077
223	0xbd552397	-0.052035894
224	0x3c10d4e1	0.008839817
225	0xbcc69a41	-0.024243476
226	0x3c00e45b	0.007866944
227	0x3d1df084	0.03855945
228	0x3e05c595	0.13063653
229	0xbd53e7e9	-0.05173484
230	0x3d21e94c	0.03952913
231	0xbd811165	-0.06302146
232	0x3b3a44aa	0.0028422275
233	0xbd86175f	-0.065474264
234	0x3da1a6a3	0.078931116
235	0xbd8468b5	-0.06465284
236	0x3d3a8071	0.045532648
237	0x3de35aa9	0.111012764
238	0xbe29ed8b	-0.16594522
239	0xbd6bcc76	-0.057568036
240	0xbd24c27d	-0.04022454
241	0xbd0cb888	-0.03435567
242	0x3a99ba79	0.0011728547
243	0xbd20afa8	-0.03923002
244	0xbba7614d	-0.0051080347
245	0xbcb525ad	-0.022112692
246	0xbda2f458	-0.07956761
247	0x3d2c7fa3	0.04211391
248	0xbd8e2558	-0.069407165
249	0x3d077b90	0.033076823
250	0x3dad0e73	0.084500216
251	0xbd9c3c1b	-0.07628652
252	0xbd1058c5	-0.035240907
253	0xbd763413	-0.060108256
254	0x3dc114a9	0.09427769
255	0xbd2debd0	-0.042461216

net.2.bias f4 [128]
0	0xbdf177fa	-0.11790462
1	0x3db0cbb5	0.08632604
2	0xbda1e698	-0.079053104
3	0xbd350468	-0.044193655
4	0x3c7b15d9	0.015325033
5	0x3d19ff5e	0.037597053
6	0xbe064800	-0.13113403
7	0x3e1e6444	0.15467936
8	0x3dae3937	0.085070066
9	0x3d384d84	0.0449958
10	0x3e189d56	0.14903769
11	0x3dc0642b	0.093941055
12	0xbd517f1d	-0.051146615
13	0xbc50cfd4	-0.012744863
14	0xbd952cd9	-0.07283945
15	0xbc931922	-0.01795632
16	0xbd97ef67	-0.07418709
17	0x3e028251	0.12745024
18	0x3d8bb3df	0.06821417
19	0xbc9e254a	-0.01930489
20	0x3db4bb59	0.08824796
21	0xbd72baaa	-0.059260048
22	0xbe02ca49	-0.12772478
23	0xbd41e93d	-0.047341574
24	0xbe23be30	-0.1599052
25	0x3c1f049a	0.009705687
26	0xbb34afe1	-0.0027570652
27	0x3c51c700	0.012803793
28	0x3e00cf78	0.12579143
29	0xbb75b4e2	-0.0037491848
30	0x3b8215ac	0.0039698686
31	0xbd19a97f	-0.03751516
32	0x3d2f27ea	0.042762674
33	0x3e599ba4	0.21250778
34	0x3cf64d2f	0.0300661
35	0xbd353572	-0.044240423
36	0x3c836b23	0.016042298
37	0xbd00ab12	-0.031413145
38	0x3dc54b41	0.09633494
39	0x3db803e3	0.08985116
40	0xbcd3fd5a	-0.025877643
41	0x3dea28e2	0.11433579
42	0xbcbab33e	-0.022790547
43	0x3d20d6be	0.039267294
44	0x3e2c20e3	0.1680942
45	0xbe699c3e	-0.22813508
46	0x3e108598	0.14113462
47	0x3d0a5f87	0.03378251
48	0xbdd42525	-0.10358647
49	0xbe1ffc44	-0.15623575
50	0xbd0ed546	-0.034871362
51	0xbd9f4525	-0.0777686
52	0x3c90a9dc	0.01765912
53	0x3d3647d8	0.04450211
54	0x3d2f57bd	0.042808283
55	0xbd9e7e58	-0.07738942
56	0x3c850f8a	0.016242761
57	0x3c082c4b	0.0083113415
58	0x3e2d3195	0.16913445
59	0xbd1a9083	-0.037735473
60	0x3dd17110	0.10226643
61	0x3a283dd5	0.0006417905
62	0x3d86031f	0.06543564
63	0x3c043dc1	0.008071364
64	0x3dcf788c	0.10130414
65	0x3da71d44	0.08159879
66	0x3cee2d49	0.029074328
67	0x3d65126e	0.05592578
68	0x3cd4f6cd	0.02599659
69	0x3db0610f	0.086122625
70	0x3d01b192	0.031663485
71	0x3c6d17d0	0.014471009
72	0x3b3b852c	0.0028613312
73	0x3d1f9017	0.038955774
74	0x3c815070	0.015785426
75	0x3d3dcb70	0.04633659
76	0xbc9f407d	-0.01943993
77	0xbd692efd	-0.056929577
78	0x3d959775	0.07304279
79	0xbd9fcd5c	-0.07802841
80	0xbdd71c7c	-0.1050348
81	0xbd6bfaaf	-0.057612117
82	0x3ccc65c8	0.024950877
83	0x3e1a3a90	0.15061402
84	0x3d0abc51	0.033871
85	0xbd8f1ad0	-0.06987536
86	0x3cdf47be	0.027255889
87	0x3ed7bd95	0.42136827
88	0x3c72dff5	0.014823903
89	0xbcf66ce8	-0.030081227
90	0xbdf80104	-0.12109569
91	0x3dc4d409	0.09610755
92	0xbf23c247	-0.6396832
93	0x3d99e7a7	0.07514887
94	0xbc775675	-0.015096297
95	0x3d12f8a7	0.035881665
96	0xbda8de6f	-0.08245551
97	0xbdf44dc0	-0.11928892
98	0x3ae79c2b	0.0017670443
99	0x3da441cd	0.08020363
100	0x3d0ecdf7	0.034864392
101	0xbd5d87a0	-0.05408442
102	0xbe9e0841	-0.30865672
103	0xbc737272	-0.014858829
104	0xbd8b0a46	-0.06789069
105	0x3dc8c6ae	0.0980352
106	0x3de35289	0.11099727
107	0xbcd8dac1	-0.026471497
108	0xbbf05c59	-0.0073352274
109	0x3db73826	0.08946256
110	0xbedfc611	-0.437058
111	0x3b0af57f	0.0021203456
112	0x3d1dacef	0.038495
113	0xbd05cab3	-0.032664012
114	0x3d97745d	0.073952414
115	0xbdeafb96	-0.114737675
116	0x3d14d98a	0.036340274
117	0x3d033931	0.032036964
118	0xbda443c2	-0.08020736
119	0x3da8fe82	0.082516685
120	0xbd7eab86	-0.062175296
121	0x3e227e77	0.15868555
122	0xbe22eee1	-0.15911438
123	0xbdbb7b55	-0.09154383
124	0x3eb1a37a	0.34695035
125	0xbd4e9ade	-0.05044066
126	0x3dc2871e	0.09498428
127	0xbd8c3f17	-0.06847971

net.4.weight f4 [128, 128]
0	0xbd40fd01	-0.047116283
1	0x3d3fbd7f	0.046811577
2	0x3b1404cc	0.0022585867
3	0xbcef4087	-0.029205574
4	0xbd556385	-0.052096862
5	0xbd0475fe	-0.03233909
6	0x3d24aecb	0.040205758
7	0x3c40fde8	0.011779286
8	0x3a917250	0.001109669
9	0xbd8d056e	-0.06885801
10	0xbcd5ca3b	-0.026097408
11	0xbd39a6e6	-0.045325182
12	0x3d2f52cb	0.042803567
13	0xbd958f46	-0.07302718
14	0xb8fe41de	-0.000121239325
15	0x3dbd34fb	0.09238621
16	0x3c782ed5	0.015147884
17	0x3cce3598	0.02517204
18	0x3d6005f9	0.054693196
19	0xbda165b2	-0.07880725
20	0x3ca42c49	0.020040648
21	0xbcd76ad7	-0.026296062
22	0x3d5faadf	0.054606315
23	0xbd5c1a70	-0.05373615
24	0x3ce0a10c	0.027420543
25	0xbc7a47b3	-0.0152758835
26	0xbd964f5f	-0.073393576
27	0xbd8041ad	-0.06262527
28	0x3ae949d6	0.0017798494
29	0x3c6fecd1	0.014643864
30	0xbce881a2	-0.028382126
31	0xbd8b95f8	-0.06815714
32	0x3d9a751d	0.07541869
33	0xbcd314ad	-0.025766695
34	0xbd2945b9	-0.04132626
35	0xbd0d5e90	-0.03451401
36	0x3d6f9dad	0.05849998
37	0x3b94e169	0.0045434725
38	0x3d381ae0	0.044947505
39	0xbc950d0e	-0.018194702
40	0x3bb352ce	0.0054725176
41	0x3c39d180	0.011341453
42	0x3dc9935f	0.09842562
43	0xbd1255da	-0.035726406
44	0x3d4c6394	0.049899653
45	0x3d82e44b	0.063912
46	0xbd3ee696	-0.046606623
47	0xbd858e26	-0.06521253
48	0x3d3fd434	0.046833232
49	0x3dd426b0	0.103589416
50	0x3c2dd503	0.010609868
51	0xbc1aa783	-0.009439352
52	0xbd831791	-0.06400979
53	0xbc2fac7a	-0.010722274
54	0xbd85ab03	-0.065267585
55	0x3d47d219	0.04878435
56	0x3d02f12a	0.031968273
57	0x3cb6345e	0.022241767
58	0xbc97d630	-0.01853475
59	0xbd5a9fb5	-0.053374965
60	0xb90fd161	-0.00013715542
61	0x3d553289	0.052050147
62	0x3b62ed5e	0.0034626345
63	0x3d73343a	0.05937598
64	0x3d1a57aa	0.03768126
65	0x3caf74a9	0.021417933
66	0x3d6438da	0.05571828
67	0x3c3adb08	0.01140476
68	0x3da93001	0.08261109
69	0x3bce0a3c	0.006287841
70	0xbba4ff4e	-0.0050353175
71	0x3d07d963	0.0331663
72	0x3db59a21	0.088672884
73	0xbd1c1fa1	-0.0381161
74	0x3dca1296	0.09866826
75	0x3bfb6fde	0.0076732477
76	0xbc8ce176	-0.017197352
77	0x3c494ad7	0.01228591
78	0xbd76b687	-0.060232665
79	0xbdb939ce	-0.090442285
80	0xbd061d09	-0.032742534
81	0x3dafa0ca	0.0857559
82	0x3c97f996	0.018551629
83	0x3d361862	0.044456847
84	0xbdb16dc0	-0.08663511
85	0xbc240e9f	-0.010013252
86	0xbd8e2995	-0.06941525
87	0x3db39f2b	0.08770593
88	0xbbb8b28b	-0.0056365184
89	0x3c8def5e	0.017326053
90	0xbdc99bc6	-0.098441646
91	0x3dce38e9	0.100694485
92	0xbdbfc77b	-0.0936422
93	0xb9f80db6	-0.00047312462
94	0xbd962d35	-0.07332841
95	0xbd215fa0	-0.039397836
96	0xbd3aff68	-0.04565373
97	0x3d1394cc	0.036030576
98	0xbd9e3d31	-0.07726515
99	0xbda701d8	-0.081546485
100	0x3d3756f5	0.044760663
101	0x3c93d0d3	0.018043911
102	0x3d6a8ebd	0.057265032
103	0x3c0c5517	0.008565209
104	0x3d8f5287	0.06998163
105	0xbc612a21	-0.0137429545
106	0x3d075547	0.03304031
107	0xbd50a885	-0.050941963
108	0x3cd62093	0.02613858
109	0x3dc895a4	0.09794167
110	0xbd1a4744	-0.03766562
111	0xbdeba685	-0.115063705
112	0x3d7f46f4	0.062323526
113	0x3d9b0e27	0.07571059
114	0xbaf91ece	-0.0019006373
115	0xbd61d00d	-0.055130053
116	0xbd111f5b	-0.035430294
117	0x3d399ce6	0.045315646
118	0xbd08d281	-0.033403877
119	0x3d038d59	0.03211722
120	0xbbde383a	-0.006781605
121	0xbce1329a	-0.027489949
122	0x3d6a4df0	0.057203233
123	0x3cd9717d	0.026543373
124	0x3dfcbc86	0.123406455
125	0xbd806eeb	-0.06271156
126	0x3d93133f	0.07181405
127	0xbd9bdf36	-0.076109335
128	0xbd943f0c	-0.07238588
129	0xbd9ebffe	-0.07751463
130	0xbd2c6a5b	-0.042093616
131	0xbcfe4adf	-0.03104156
132	0xbd8b6d8f	-0.06808006
133	0xbd8b6e96	-0.06808202
134	0x3e72bba2	0.23704389
135	0x3df9b55e	0.12192796
136	0x3dd74a6d	0.105122425
137	0xbdcd7259	-0.10031576
138	0xbddf72c7	-0.10910564
139	0xbd75b35b	-0.0599855
140	0xbd652fa9	-0.055953655
141	0x3d170b53	0.036876034
142	0x3d0bcd92	0.034131594
143	0x3bf940e5	0.007606613
144	0x3d969fbf	0.07354688
145	0xbc42c111	-0.011886851
146	0xbd28d353	-0.04121716
147	0x3cc32063	0.023819154
148	0xba3e84d7	-0.00072677195
149	0x3d62a914	0.055337027
150	0x3cdec699	0.027194308
151	0x3d3db58f	0.046315726
152	0x3cc27edb	0.02374213
153	0xbdb84c31	-0.08998907
154	0x3c9d4af7	0.019200785
155	0xbc25e423	-0.010125193
156	0xbcd00841	-0.02539456
157	0xbd9f423b	-0.07776304
158	0x3d79d3fc	0.06099318
159	0x3d12c472	0.035831876
160	0xbd2c1bce	-0.042018704
161	0x3ab33a76	0.0013674039
162	0xbc6d101e	-0.014469175
163	0x3da9e31a	0.08295269
164	0x3d8ad198	0.06778258
165	0xbd6bbf74	-0.05755563
166	0xbd2af133	-0.04173393
167	0xbc5600b1	-0.013061688
168	0xbd6bf597	-0.05760726
169	0x3d40b339	0.04704592
170	0xbd8ed506	-0.06974225
171	0xbd87c597	-0.06629484
172	0xbe042a2f	-0.12906717
173	0x3db7bf78	0.08972067
174	0xbb9ab5f4	-0.0047213975
175	0xbd436139	-0.04770014
176	0x3d692056	0.056915604
177	0xbd765dec	-0.060148165
178	0xbd79916b	-0.060929697
179	0x3c1bc72a	0.009507934
180	0xbcf934ea	-0.03042074
181	0x3d925f08	0.07147032
182	0x3d1d8ef2	0.0384664
183	0x3d7a91bc	0.06117414
184	0x3d6faf72	0.058516927
185	0x3d70e296	0.05880984
186	0xbce5e4f2	-0.028063271
187	0x3d1b5725	0.037924904
188	0x3d24da49	0.040247235
189	0xbd296bf0	-0.041362703
190	0xbc897779	-0.016780602
191	0xb8577ae8	-5.137446e-05
192	0x3d2edd30	0.04269141
193	0x3d55679d	0.052100766
194	0x3d254ec0	0.040358305
195	0x3db3991d	0.087694384
196	0xbd788508	-0.060673743
197	0xbc784374	-0.015152801
198	0x3ba975be	0.0051715067
199	0x3d19cf1c	0.03755103
200	0xbd81bd75	-0.06334964
201	0xbd469d2b	-0.04848973
202	0x3cd62c28	0.026144102
203	0xbbb6fd3c	-0.005584387
204	0xbcfdfe04	-0.031004913
205	0xbd49d2c5	-0.04927327
206	0xbc565832	-0.013082551
207	0xbd755e5b	-0.059904438
208	0xbd1dfe29	-0.038572464
209	0x3d3c1284	0.045916095
210	0xbc52b427	-0.0128603345
211	0xbc12131a	-0.008915687
212	0xbd4a4775	-0.049384553
213	0xbd0a78f3	-0.033806752
214	0xbdd62157	-0.10455578
215	0xbdd639f8	-0.104602754
216	0xbd74c36d	-0.059756685
217	0xbd313a9d	-0.04326879
218	0xbc1f7c10	-0.009734169
219	0xbdbf28e3	-0.093339704
220	0x3cfaa9f6	0.030598622
221	0x3d4961ce	0.04916554
222	0x3defca8d	0.11708555
223	0xbd0013be	-0.031268828
224	0xbd54dc7c	-0.051968083
225	0x3d068c47	0.032848623
226	0x3d45bbfe	0.048274986
227	0xbd494878	-0.049141377
228	0x3ce15fef	0.027511565
229	0xbdcab00b	-0.09896859
230	0x3e78a67a	0.24282256
231	0x3d253dc0	0.040342093
232	0xbcf63f56	-0.030059498
233	0xbab844b4	-0.0014058561
234	0xbd60086c	-0.05469553
235	0x3d41aede	0.047285907
236	0xbc7bdb8d	-0.015372169
237	0xbd520152	-0.05127079
238	0x3c934e37	0.017981632
239	0xbd7bf41c	-0.061512098
240	0x3cc86975	0.024464348
241	0x3d0cb7a0	0.034354806
242	0x3cd7e496	0.026354115
243	0xbcdf849f	-0.027284918
244	0xbc1a8844	-0.009431902
245	0x3c5bf62e	0.013425393
246	0xbdd96082	-0.106141105
247	0xbd907607	-0.07053762
248	0x3c1e32bb	0.00965565
249	0xbd18d793	-0.037314963
250	0x3e200e84	0.15630537
251	0x3b4021e8	0.0029317085
252	0xbdafa298	-0.08575934
253	0xbd00559d	-0.031331647
254	0xbdacfb14	-0.08446327
255	0x3dc9b3d2	0.09848751

net.4.bias f4 [128]
0	0xbd094f6c	-0.03352301
1	0xbdff52e6	-0.124669835
2	0xbdb67497	-0.089089565
3	0xbd0c3a61	-0.034235362
4	0xbd913e83	-0.07092001
5	0xbd75613e	-0.05990719
6	0xbccc11d1	-0.02491084
7	0xbd5ddc1d	-0.054164995
8	0xbd7bbdf7	-0.06146046
9	0xbe83d161	-0.2574568
10	0x3d19fb08	0.037592918
11	0xbddc814b	-0.10766848
12	0x3d5d3a5a	0.054010727
13	0x3d04d78e	0.03243213
14	0x3db0b256	0.08627765
15	0xbd832ae6	-0.064046666
16	0xbe0c75ac	-0.13716763
17	0xbd171dac	-0.03689353
18	0x3c42fd90	0.011901274
19	0x3d8c0b9b	0.06838151
20	0x3dc778f0	0.09739864
21	0xbd2aa813	-0.041664194
22	0xbd8eb2b7	-0.06967681
23	0xbd24b50d	-0.040211726
24	0x3b0c18b5	0.0021377031
25	0xbdb2a349	-0.087225504
26	0x3d842783	0.06452849
27	0xbcf49c5f	-0.02985972
28	0x3d2e2df6	0.0425243
29	0xbd4b1ab3	-0.04958601
30	0xbd311e95	-0.043242056
31	0x3cff55db	0.031168869
32	0x3c3a1938	0.011358552
33	0xbd5cc848	-0.05390194
34	0x3df39093	0.1189281
35	0xbc8a6c62	-0.016897384
36	0xbd692e7f	-0.056929108
37	0xbc1341ce	-0.008987857
38	0x3d67fa0d	0.05663495
39	0xbd4b9558	-0.049702972
40	0xbdcb028d	-0.09912596
41	0xbd8b8b34	-0.0681366
42	0xbe17aa37	-0.14811026
43	0xbd7ffebf	-0.062498804
44	0xbc9f65e0	-0.019457757
45	0xbd9a3de8	-0.07531339
46	0xbd71a613	-0.05899627
47	0x3d897d53	0.06713357
48	0x3d23454a	0.039861
49	0x3cde7b2f	0.027158348
50	0x3d5c24b5	0.053745944
51	0x3dec8e9f	0.1155064
52	0xbbc45aba	-0.0059922608
53	0x3da75824	0.08171108
54	0xbc05774e	-0.00814612
55	0xbc96554a	-0.018351216
56	0xbd0d8326	-0.0345489
57	0x3d1943af	0.037418064
58	0x3c99e9f1	0.01878831
59	0x3cb68f55	0.022285143
60	0x3cfdd9f9	0.030987727
61	0xbd22956c	-0.03969328
62	0xbda10141	-0.07861567
63	0xbd08eb5a	-0.033427574
64	0x3e9bdcaf	0.30441806
65	0xbcb204bf	-0.021730779
66	0x3d65a7a3	0.056068074
67	0xbe2ec6f3	-0.1706808
68	0xbd1edd73	-0.03878541
69	0xbdb46f5f	-0.08810305
70	0xbed4eaa3	-0.41585264
71	0xbd8f554d	-0.06998692
72	0xbdc300c7	-0.09521633
73	0x3d38ba11	0.04509932
74	0x3e06c56e	0.13161251
75	0xbdb93b95	-0.090445675
76	0xbdb7e29a	-0.08978768
77	0xbdba8d71	-0.09109009
78	0xbd0960fa	-0.03353975
79	0x3d42cb22	0.047557004
80	0x3def6320	0.116888285
81	0x3b93d137	0.0045110243
82	0xbd00fcac	-0.031490967
83	0x3c344d11	0.011004702
84	0xbcb3082f	-0.021854488
85	0xbd29a7ec	-0.04141991
86	0xbb12e06f	-0.0022411605
87	0xbd566365	-0.052340884
88	0x3d16421d	0.036684144
89	0xbcaf8e5d	-0.021430189
90	0x3c4882a1	0.012238176
91	0xba0a166a	-0.0005267622
92	0xbd28f343	-0.041247617
93	0xbd948af7	-0.07253068
94	0x3d425f1f	0.047453996
95	0x3dc33937	0.09532397
96	0x3c2a574f	0.010396793
97	0xbee06192	-0.4382444
98	0xbd1502b6	-0.03637954
99	0x3d80d1d8	0.062900245
100	0xbd7acff7	-0.061233487
101	0xbd0ddaae	-0.034632377
102	0x3d3e1a00	0.046411514
103	0xbdbcfac1	-0.09227515
104	0xbb918a19	-0.0044415114
105	0xbcf47c56	-0.029844444
106	0x3d478d72	0.048718877
107	0x3d187506	0.037220977
108	0xbd53a5bc	-0.05167173
109	0x3d11853e	0.03552746
110	0x3d9730fb	0.07382389
111	0x3d33c97c	0.043893322
112	0xbe22926e	-0.15876171
113	0xbdb2acc8	-0.08724362
114	0x3c58311d	0.013195303
115	0x3d06a106	0.032868408
116	0xbc8e0b81	-0.01733947
117	0xbe543d6d	-0.20726557
118	0x3d968e99	0.07351417
119	0xbc4ba894	-0.012430329
120	0x3dcbbb76	0.09947865
121	0x3dc8c8b1	0.09803904
122	0x3d8c399d	0.06846926
123	0x3c00840e	0.007843984
124	0xbd748e0b	-0.059705775
125	0xbd2ec63b	-0.042669516
126	0x3be80955	0.0070811906
127	0xbea721d6	-0.32643002

net.6.weight f4 [2, 128]
0	0xbd3eeb2c	-0.046610996
1	0x3e0624f2	0.13100031
2	0xbd61310b	-0.05497841
3	0xbe379b29	-0.17930283
4	0x3cb096a0	0.021556199
5	0x3a42baba	0.0007428337
6	0xbdda38b0	-0.106553435
7	0x3cc81e1d	0.024428422
8	0xbdb76d9c	-0.08956453
9	0xbf3438bb	-0.70399064
10	0xbd689adf	-0.05678832
11	0x3dbab273	0.09116068
12	0xbd4c8d19	-0.04993925
13	0xbc9c5597	-0.019083781
14	0xbdb6c211	-0.08923734
15	0x3e1b3343	0.15156274
16	0x3e3eea1b	0.18643992
17	0x3da93292	0.08261599
18	0x3bb0df7c	0.005397735
19	0x3dcf40fb	0.10119816
20	0xbe11eaf7	-0.14249788
21	0x3dff0396	0.12451856
22	0x3e09e840	0.13467503
23	0x3e39f1ce	0.18158647
24	0x3c792ff7	0.01520919
25	0x3e05352c	0.13008565
26	0xbe1b2768	-0.15151751
27	0x3cba24d1	0.022722634
28	0xbd8aaf44	-0.067717105
29	0x3c7e2ab1	0.015513108
30	0x3df821d3	0.121158265
31	0xbcae07a8	-0.021243885
32	0xbd879345	-0.06619886
33	0xbe8d9af3	-0.2765728
34	0xbdd02ce9	-0.10164816
35	0xbe8774b7	-0.26456234
36	0x3ceddbff	0.029035566
37	0xbe4709eb	-0.19437377
38	0xbd899f27	-0.06719809
39	0x3dcfcb5a	0.10146208
40	0xbd40fe6b	-0.047117632
41	0x3d9b2379	0.07575125
42	0xbed7323b	-0.4203051
43	0x3dbe95c3	0.093059085
44	0xbe62ed8b	-0.22160928
45	0x3d60323b	0.054735404
46	0xbda86985	-0.08223251
47	0xbd44c00e	-0.04803472
48	0x3d95aad1	0.07307971
49	0x3dbb94b7	0.091592245
50	0x3ca373bc	0.019952647
51	0xbe0d2cd5	-0.13786633
52	0xbdb48124	-0.08813694
53	0xbe8167db	-0.25274548
54	0xbe4ea70a	-0.20180908
55	0xbc94f47e	-0.01818299
56	0x3d885980	0.06657696
57	0x3e0f1ee6	0.1397663
58	0x3d5a69d6	0.05332359
59	0xbcd9051b	-0.026491692
60	0xbdc84fe8	-0.09780866
61	0xbe244188	-0.16040623
62	0x3db919a4	0.09038094
63	0xbd3e6455	-0.046482403
64	0xbe2fa6fa	-0.1715354
65	0xbecb264d	-0.3967766
66	0xbdca5def	-0.09881198
67	0x3e1677e7	0.14694177
68	0xbd3fa1c0	-0.046785116
69	0x3dd5dde3	0.10442712
70	0xbf11d8e7	-0.5697159
71	0xbdbb8b5b	-0.09157439
72	0x3e177c58	0.14793527
73	0x3b61e1f7	0.003446696
74	0xbe4eec7e	-0.20207402
75	0x3de8254f	0.11335241
76	0x3dd619ad	0.10454116
77	0x3df0fee9	0.1176737
78	0xbe42c09f	-0.19018792
79	0x3c058efb	0.008151765
80	0xbe6cee9d	-0.23137899
81	0xbdc23d18	-0.09484309
82	0xbccea765	-0.025226304
83	0x3df2bb6d	0.11852155
84	0x3e038095	0.12842019
85	0x3e089393	0.13337545
86	0xbd45fcc4	-0.04833676
87	0xbc84fdb2	-0.016234253
88	0xbcbac523	-0.02279908
89	0x3bc0d5d7	0.0058848667
90	0xbe05fe2d	-0.13085242
91	0x3defc68b	0.11707791
92	0x3d50d6ed	0.05098622
93	0x3d5e069a	0.054205514
94	0xbc49e271	-0.012322054
95	0xbe7ad8b2	-0.24496725
96	0xbdcc266e	-0.099682674
97	0x3f194dc1	0.5988427
98	0x3d99771d	0.07493422
99	0x3d8fa25b	0.07013389
100	0x3e082e5f	0.13298939
101	0x3d9c3ba7	0.07628565
102	0xbd2b2253	-0.04178078
103	0x3d4f9a50	0.050684273
104	0x3e08740b	0.13325517
105	0x3cdfb0e1	0.027306022
106	0xbe5415d1	-0.20711447
107	0xbe1c74c2	-0.15278915
108	0x3d3911be	0.045182936
109	0x3e27d210	0.16388726
110	0xbda04f2b	-0.078276
111	0xbb2ee398	-0.002668595
112	0x3df64581	0.120249756
113	0x3e1b1b12	0.15147045
114	0xbe2e0ada	-0.16996327
115	0x3d9ee3a6	0.07758264
116	0x3dead36b	0.11466106
117	0x3e41b9c5	0.18918522
118	0xbd5d3561	-0.054005984
119	0x3df41e30	0.1191982
120	0xbd52bfc9	-0.05145243
121	0xbd5c454f	-0.053777035
122	0xbe15ad0d	-0.14616795
123	0x3dda43f7	0.106574945
124	0xbd1b4890	-0.037910998
125	0x3dcba290	0.09943116
126	0xbe571361	-0.21003486
127	0xbf3aa2db	-0.7290475
128	0xbd8a2035	-0.06744424
129	0x3dc8013d	0.09765861
130	0x3d9f2f32	0.07772674
131	0xbbb6c2e1	-0.0055774306
132	0x3d4480dc	0.047974452
133	0x3d9dab52	0.076986924
134	0x3d3baf46	0.04582145
135	0xbd83d661	-0.06437374
136	0xbddbb122	-0.10727145
137	0x3d6bbd99	0.05755386
138	0xbdddcdf2	-0.108302966
139	0x3d71a969	0.058999453
140	0xbd4b9ee0	-0.049712062
141	0xbdd205af	-0.1025499
142	0x3d62ca9d	0.05536901
143	0x3da4fcee	0.08056055
144	0x3cd23dd7	0.025664253
145	0xbccfff84	-0.025390394
146	0xbdc20021	-0.09472681
147	0xbdb617c5	-0.088912524
148	0xbd3064f6	-0.043065034
149	0x3c1ac267	0.009445763
150	0x3d1fa0c2	0.03897167
151	0xbca63da0	-0.020293057
152	0xbd1442d5	-0.03619655
153	0x3c44d1d3	0.012012917
154	0xbce9d92c	-0.028545938
155	0xbdc62e98	-0.09676856
156	0xbdca9d30	-0.098932624
157	0x3d95a5f5	0.073070444
158	0xbc397008	-0.011318214
159	0x3cfe495e	0.031040844
160	0x3ccc5915	0.024944821
161	0x3cfafe8f	0.030638961
162	0xbd0c5ad4	-0.034266308
163	0xbd2520f9	-0.04031465
164	0xbd9f7938	-0.077867925
165	0xbd9bb967	-0.07603722
166	0x3dbef2a5	0.093236245
167	0xbd5649f0	-0.052316606
168	0x3de82fed	0.11337266
169	0xbdbb62f6	-0.09149735
170	0x3bba8af7	0.0056928354
171	0x3db03005	0.08602909
172	0x3d61c45a	0.055118896
173	0xbdad8b78	-0.08473867
174	0x3d71d072	0.05903668
175	0x3d1085b7	0.03528377
176	0xbdc8805b	-0.09790107
177	0x3d7c844d	0.06164961
178	0x3d8f5db5	0.07000295
179	0xbde337e4	-0.11094645
180	0xbdfebb53	-0.12438073
181	0x3ccb577a	0.024821986
182	0x3d7e4112	0.062073775
183	0x3da492ec	0.080358356
184	0x3cfaac9b	0.030599883
185	0x3cec5f43	0.028854018
186	0xbda74e44	-0.08169225
187	0x3d999be4	0.07500437
188	0x3db99803	0.09062197
189	0x3d6f1304	0.058367744
190	0x3db1c248	0.08679634
191	0xbdb79e32	-0.0896572
192	0x3df2cf0c	0.11855897
193	0x3d45dfab	0.04830901
194	0xbdf21ebf	-0.118222706
195	0x3c32f3a9	0.010922351
196	0xbd94e6d7	-0.07270592
197	0x3c2557d5	0.010091742
198	0xbd07d31b	-0.03316031
199	0x3d6de2b2	0.05807752
200	0x3c83b4f7	0.016077502
201	0xbd66e585	-0.05637123
202	0xbbae080b	-0.0053110174
203	0x3d5e5e0c	0.05428891
204	0x3d50f1d6	0.051011883
205	0xbd45748a	-0.048206843
206	0x3d81f4cd	0.0634552
207	0xbb51c074	-0.003200558
208	0x3d3e8d29	0.04652134
209	0xbdae7de3	-0.08520105
210	0xbdcd99b0	-0.10039079
211	0xbd1ff9ca	-0.039056577
212	0x3ca879ae	0.020565834
213	0x3c8c3940	0.017117143
214	0xbd946caf	-0.07247292
215	0x3da71198	0.081576526
216	0x3ddb9f49	0.107237406
217	0xbd2468ff	-0.040139195
218	0x3d1dd707	0.038535144
219	0xbd8d5bc3	-0.06902268
220	0x3d6e0860	0.058113456
221	0x3da14554	0.078745514
222	0xbda547bc	-0.08070323
223	0x3d092bc3	0.033489
224	0x3da56310	0.08075535
225	0xbb88b6f7	-0.0041722017
226	0xbdc31a1a	-0.09526463
227	0xbd289250	-0.04115516
228	0xbd59a263	-0.05313338
229	0xbdad7bc3	-0.08470871
230	0x3da5c331	0.080938704
231	0x3d837889	0.06419475
232	0xbd01af57	-0.031661358
233	0xbd7f95a5	-0.06239857
234	0xbcd271df	-0.025689064
235	0xbd2b722a	-0.041856922
236	0x3d9ccd36	0.076563284
237	0xbd327ae4	-0.04357423
238	0xbd8f5a5a	-0.06999655
239	0x3cc69a49	0.02424349
240	0x3d97275f	0.07380556
241	0xbd2ba0a5	-0.04190125
242	0x3ca0f3e0	0.019647539
243	0x3dd1a1df	0.102359526
244	0x3d8945b2	0.067027465
245	0x3d527f4f	0.051390942
246	0xbd3d58d9	-0.04622731
247	0x3dbde69e	0.09272502
248	0xbdae0781	-0.08497525
249	0xbd1020d9	-0.035187576
250	0xbd57dae6	-0.052698992
251	0xbcb29240	-0.021798253
252	0x3d71be74	0.05901952
253	0x3d971488	0.07376963
254	0x3e472dce	0.19451067
255	0xbbb7b7db	-0.005606634

net.6.bias f4 [2]
0	0x3c1dcc1c	0.009631183
1	0x3d00befd	0.03143214
