model/Zintl.pth (torch, 139916 bytes, 8 tensors)

net.0.weight f4 [128, 6]
000000 a7 c7 68 be 1b 19 e5 be 26 23 b4 3d f9 d7 b9 be
       -0.22732411 -0.44745716 0.087957665 -0.36297587
000010 5d 26 04 3c 80 6b 5f be 0a 7d a8 3c 53 dd b9 3e
       0.008065787 -0.21818352 0.020567436 0.3630167
000020 f1 b1 16 bf f9 3c 95 3e b0 c0 d6 3d b9 b4 48 be
       -0.5886527 0.2914808 0.10485971 -0.1960019
000030 55 08 db 3c e7 c3 e6 be 9a 71 6b 3e 70 dc f2 3d
       0.026737371 -0.45071337 0.22992554 0.11858451
000040 bf 58 e9 3e d0 47 90 3d 80 ed b9 3c 87 1f ab 3e
       0.4557552 0.07044947 0.022696257 0.3342249
000050 b0 11 ce bd 2d 1f 26 3e a7 ad 84 be 4b 07 43 3e
       -0.100619674 0.1622283 -0.25913736 0.19045751
000060 38 e4 71 3e af 19 e0 be b4 d7 20 be 81 a0 bd 3e
       0.23622215 -0.43769595 -0.15707284 0.37036517
000070 1a aa 5d 3e 8d 95 26 be 6b 38 26 3b a1 6c 29 be
       0.2164692 -0.16267987 0.0025363218 -0.16545345
000080 b1 03 e0 3d 63 ed 13 be 49 57 41 3e b2 8d 62 be
       0.10938204 -0.14446025 0.18880953 -0.22124365
000090 00 07 fa be 9e 53 eb bd 3e 05 7b be 38 b9 14 3e
       -0.48833466 -0.11490558 -0.24513718 0.1452378
0000a0 63 39 38 3e ba 2f be be ae d0 c7 3e 00 e9 b2 3e
       0.17990641 -0.37145787 0.39026397 0.3494339
0000b0 80 dc a0 3e ea c2 a3 be b5 16 6c be ad 2c c9 3e
       0.31418228 -0.31984645 -0.23055537 0.39291897
0000c0 22 0c 98 3d 4a 42 a0 bd b4 8e ce be a1 71 2c be
       0.07424189 -0.07825144 -0.4034325 -0.16840221
0000d0 d5 27 aa 3d d0 01 00 3e 7e 1f b9 3e cc c6 3c bd
       0.083083786 0.12500691 0.3615684 -0.046088025
0000e0 d8 d2 2d be 92 db f9 3e 66 35 ea be d6 00 b6 be
       -0.16974962 0.4880033 -0.45743865 -0.35547513
0000f0 5a d0 95 be ef f5 35 bd 6a ef 85 3e e1 07 cc 3e
       -0.29260522 -0.044423994 0.2615922 0.3984976
000100 9e c3 a8 3e 0b db cb bd 8d 20 c5 3d 12 66 7b 3e
       0.32961744 -0.099538885 0.09625349 0.24550655
000110 97 3f c3 3d 1b 05 d7 3e 79 f2 ec be 73 41 20 be
       0.09533613 0.41996083 -0.46278742 -0.15649967
000120 60 25 33 be 0c 2a b2 bd df 4c 76 3e d6 1c 68 bd
       -0.17494726 -0.08699426 0.24052761 -0.056668125
000130 02 e6 8b 3e e5 ae 3d 3c 90 c7 b7 be 4e 24 84 3e
       0.2732392 0.011577343 -0.35894442 0.25808948
000140 c4 26 d1 3e cf cd 87 3e b7 93 69 3e 03 29 a4 3e
       0.40849888 0.26524207 0.22810255 0.3206254
000150 b1 ad 91 3e 7d bc 89 3b 5e a8 ad bc 05 d8 89 3e
       0.2845283 0.0042033778 -0.021198448 0.26922622
000160 9e 9d bf be 80 e3 de bd 8f 34 a3 3e 20 4e 55 be
       -0.3742494 -0.10883236 0.31876037 -0.20830584
000170 b3 06 8c be 06 7d cf be be 51 b0 3e d4 13 99 3e
       -0.2734886 -0.40525073 0.34437364 0.2989794
000180 94 88 1a 3e 34 19 13 be 98 5c 41 3e 7d 27 9e 3e
       0.15091163 -0.14365083 0.18882978 0.30889502
000190 14 56 d6 be 74 62 90 3e 96 1a e5 3d 8d ef c8 be
       -0.41862547 0.28200114 0.111867115 -0.39245263
0001a0 15 2a 84 bd 83 34 28 be 2c 53 86 3d 3f 7c 62 3e
       -0.06453339 -0.16426282 0.065588325 0.22117709
0001b0 3f c4 ab bc b7 61 c8 be 79 ef 8e be c3 c9 1a be
       -0.0209676 -0.3913705 -0.27917078 -0.15116028
0001c0 cb 25 6c be bc 66 fa bd 75 03 06 be f6 ef 06 3e
       -0.23061292 -0.12226626 -0.13087256 0.13177475
0001d0 14 ef 8a 3e 1b 4d 20 3b 48 a0 9a 3e 86 39 78 bd
       0.27135527 0.002446002 0.3020041 -0.060601734
0001e0 63 e4 7c bb 55 62 ae 3e fa dc 2c 3e 23 e7 69 3e
       -0.0038588278 0.34059396 0.16881171 0.22842078
0001f0 ef d4 c9 3b 84 c6 c9 3e 2e 47 a0 3e 14 6f c6 be
       0.006159417 0.39409268 0.31304306 -0.3875662
000200 9a 5b cb be c0 8e 47 bd 1e 58 06 3e f5 8f 48 be
       -0.39718324 -0.04872012 0.13119552 -0.19586165
000210 23 e8 7c be ea 15 e6 3c 2f ed cc bc 9c 56 86 3e
       -0.24697928 0.028086621 -0.025015442 0.26237953
000220 ff 53 0b 3d 7b 10 76 3d 08 ee 15 be fe 30 f4 be
       0.03401565 0.06007431 -0.14641583 -0.47693628
000230 11 75 4f be 4d 18 1d be ca 5d ac 3e 0e 07 53 bc
       -0.20259501 -0.15341301 0.33665305 -0.0128801
000240 4b f5 ea 3c 36 1c 21 3d e3 d3 6f 3e 39 e6 4c 3e
       0.028681418 0.039333545 0.23420672 0.20009698
000250 98 f0 ec 3e 41 a5 71 3b 0b 61 eb be dd e2 b6 be
       0.46277308 0.003687218 -0.45972475 -0.35719958
000260 0c 9b 9a 3e 27 bf 4b 3e 31 da 92 be a5 c1 d3 3e
       0.30196416 0.19897138 -0.28682092 0.41358677
000270 9d 7f b1 be 6a 2e d7 be b6 9b ee bc c3 ac dd 3d
       -0.34667674 -0.420276 -0.029126983 0.10823967
000280 a7 6f ab 3d 4f 96 fb 3a db 19 86 3e a7 8f bc be
       0.08370905 0.0019194576 0.261916 -0.36828348
000290 ae f1 14 3e 29 10 9c be a5 46 a1 3e 62 84 95 3e
       0.14545318 -0.3048108 0.3149921 0.29202563
0002a0 cf 1e 0b 3e 03 05 e8 3d c8 27 a4 bd 26 61 66 be
       0.13585971 0.11329081 -0.080154 -0.22497997
0002b0 85 6a 1c bd f7 d6 97 3d 7e 2c bf 3d 3e fe c6 3e
       -0.038187522 0.07414048 0.09334658 0.38865846
0002c0 7d b0 47 3e cc 81 66 3d 03 9f 8e 3e 46 36 d5 bd
       0.19500919 0.056276128 0.2785569 -0.104107425
0002d0 45 de 62 be 3f 53 d1 3e fc 2e 2a bf a1 ab 96 be
       -0.22155102 0.40883824 -0.6647794 -0.29427817
0002e0 19 12 32 3d 97 54 7c be ee 58 e6 bd 24 ad 8c be
       0.04347429 -0.24641643 -0.11247431 -0.27475846
0002f0 d8 20 dc be 99 ce 49 be 43 af 80 be 9a 5d e8 3d
       -0.42993808 -0.19707717 -0.25133714 0.11345978
000300 3c 61 8c 3e 8e 13 d4 bb 70 17 88 3e 2a 2e 6a be
       0.27417934 -0.0064720577 0.2658038 -0.22869173
000310 21 03 35 3e b5 33 03 bf 9c 11 73 be 55 c7 e9 be
       0.17676975 -0.51250774 -0.23737186 -0.4565989
000320 b1 ef 6d 3e 89 06 c7 3e 20 24 da bd 40 9f ac be
       0.23235966 0.38872173 -0.106514215 -0.33715248
000330 48 43 ce 3e a7 d1 b8 bd 07 ad d6 3d bd c5 04 3c
       0.40285707 -0.09024363 0.10482221 0.008103785
000340 20 da ae be 40 77 ac 3d 77 08 5c 3e 5a 04 c8 3d
       -0.3415079 0.08421183 0.21487604 0.09766455
000350 77 7a 19 be a4 07 9c 3e 48 09 6d 3e 36 0d 30 be
       -0.14988123 0.3047458 0.23148072 -0.1719254
000360 ba 63 86 3e a0 1f 3c 3e 20 f8 e9 be e9 19 0a 3f
       0.2624796 0.18371439 -0.45697117 0.53945786
000370 c8 cf 14 bf 43 e7 ad 3d 5f 8f f8 be 2b 87 f6 bc
       -0.5812955 0.08491375 -0.48546883 -0.03009375
000380 dc 1e c9 bd 4f a3 b0 39 c4 c7 96 be 58 93 f0 be
       -0.09820339 0.0003369101 -0.29449284 -0.46987414
000390 34 4b ba be 06 ef a0 be 73 91 a9 be fb 1d 84 3e
       -0.363855 -0.3143236 -0.3311878 0.25804123
0003a0 af 14 47 be f5 80 02 be 99 94 ea bc af 1a 44 3e
       -0.19441484 -0.12744506 -0.02863531 0.19150804
0003b0 37 e8 a0 3e 54 47 32 be a4 e7 34 be 79 06 d2 be
       0.31427166 -0.17410022 -0.17666489 -0.41020563
0003c0 c7 16 61 3e 4d 22 ee ba 30 01 c7 3e 24 d3 27 be
       0.21981345 -0.0018168181 0.38868093 -0.16389138
0003d0 60 f9 cd 3e 48 6f a9 be 01 8f 8a 3e ae c4 ba bc
       0.4022932 -0.33092713 0.27062228 -0.022798862
0003e0 a3 21 60 3e ae b2 b1 be bb bf 57 be ea 9f b5 be
       0.21887831 -0.34706634 -0.21069233 -0.35473567
0003f0 81 7e 52 3e cd 0c 51 be 03 8a 51 3e 5b cb 05 bf
       0.2055607 -0.2041504 0.20462804 -0.5226342

net.0.bias f4 [128]
000000 3d 7a a3 bc 7e 78 a7 bd 57 ea a6 be be e9 c8 be
       -0.019955749 -0.08177279 -0.32600662 -0.3924083
000010 d9 6f a4 3e 5c 54 82 3e a1 4b c9 be 3a fb d1 3e
       0.32116583 0.25454986 -0.39315513 0.41011983
000020 fb 2a 85 3d af fc 27 3d 3d 0a 44 3e 1c c4 82 be
       0.065023385 0.041012462 0.1914453 -0.25540245
000030 87 21 01 3f 22 39 04 be 5d d1 c9 be 7c 91 07 3e
       0.50441784 -0.1291242 -0.39417544 0.13239092
000040 31 0c d4 3e 32 a4 39 be b0 86 89 3e 44 11 8e 3c
       0.4141555 -0.18129042 0.2686057 0.017342217
000050 bc 1b a3 be 19 02 ac 3e 88 3e 99 3e 33 b6 d4 be
       -0.31857097 0.3359535 0.2993052 -0.41545257
000060 42 bb 0e 3f 51 c2 84 3e af f6 94 3d 65 6f 87 be
       0.5575448 0.25929502 0.07273614 -0.26452175
000070 b9 9e 88 3e f2 8a ca 3d 7f 58 c2 be f2 9b 82 3e
       0.26683596 0.09889783 -0.37958142 0.25509602
000080 33 bc 0b 3f 0c 6d 23 3d c1 f7 e5 3e 0b dd 9b 3e
       0.54584044 0.039898917 0.44915584 0.3044208
000090 7c 68 a6 be fd 1f f1 be f6 6c 26 bd 10 a0 e1 3d
       -0.3250159 -0.47094718 -0.040631257 0.110168576
0000a0 9a 5b 6f be d0 87 90 3e 3d 7e d3 be 95 e7 8b 3e
       -0.23374787 0.28228617 -0.4130725 0.2732512
0000b0 ac 74 36 3d d1 05 be 3d 73 a0 38 bd 93 d3 19 be
       0.04454486 0.09278453 -0.04507489 -0.15022115
0000c0 55 61 8e be e0 5b a1 be eb bf 4f 3e 66 07 67 be
       -0.27808633 -0.31515408 0.20288055 -0.22561416
0000d0 ca f1 bb be ed df 15 3d 39 11 b4 3d c4 da dc 3c
       -0.36707908 0.036590505 0.087923475 0.026959784
0000e0 37 65 8f 3d 66 18 98 be 57 dc 1b 3c b0 ef 18 3e
       0.07001727 -0.29706115 0.009512982 0.14935184
0000f0 a0 b3 67 be 96 08 bb 3d cc 56 84 3e e9 f6 6d 3e
       -0.22627115 0.09132497 0.2584747 0.2323872
000100 22 2c b5 be d4 83 28 be c4 78 b8 3e 1b e2 9c be
       -0.35385233 -0.16456538 0.36029637 -0.30641255
000110 91 a8 fc bc 6e 42 85 be 0a e6 82 3e 38 dc 66 be
       -0.030842097 -0.26027244 0.2556613 -0.22544944
000120 7d cc 3c be 35 4f dd bc de ed 49 bd e0 2f 9b bd
       -0.18437381 -0.027015308 -0.049299113 -0.07577491
000130 c4 7f 8a 3e ba cc 90 be 08 6e 8f 3e 51 b6 81 be
       0.27050602 -0.28281194 0.28013635 -0.2533441
000140 bc 0b 8f 3e 69 cd 13 3e 97 53 68 be a7 b7 91 be
       0.2793864 0.14433827 -0.22688137 -0.28460428
000150 0d 64 29 be ae 9e 1a 3f 25 32 db be 2f 66 86 3e
       -0.16542073 0.60398376 -0.42811695 0.26249835
000160 55 bd c6 3e 22 73 b4 3e fb 19 2e bf 07 00 60 3e
       0.38816324 0.3524409 -0.68008393 0.2187501
000170 75 2f 15 3e 38 9b 02 bc 69 45 63 be ff 34 b9 bd
       0.14568885 -0.007971577 -0.22194447 -0.09043311
000180 b0 92 64 3e a8 02 b5 bd 20 2b 2c be c4 39 68 3e
       0.22321582 -0.08838397 -0.16813326 0.22678286
000190 fb 8e 81 3d 4a 86 c5 3e 82 4e c2 be c9 79 83 be
       0.063260995 0.38579017 -0.37950522 -0.25678852
0001a0 a8 94 8a 3e 6f 22 9d 3e 52 06 a2 be ec d1 27 3f
       0.2706654 0.30690333 -0.31645447 0.6555469
0001b0 05 76 51 be 50 ac 5c 3c 5a 5b 39 3c 36 b1 5f be
       -0.20455177 0.013468817 0.011313284 -0.21844944
0001c0 18 3a e1 3e 59 02 01 3f 79 85 93 be db a3 7d 3d
       0.43989635 0.5039421 -0.2881277 0.061923843
0001d0 be 48 af 3e e9 9b 8e 3e d7 c4 11 3e 4e 58 b5 be
       0.34235185 0.27853325 0.14235245 -0.35418934
0001e0 d0 92 d1 3e 93 76 98 3e ea 9e b0 3e 64 a8 f2 3d
       0.40932322 0.29777965 0.34496242 0.11848524
0001f0 8e fd 3c 3e 83 60 c4 be 47 eb 4f be 94 f1 b0 be
       0.18456098 -0.38354883 -0.20304595 -0.3455931

net.2.weight f4 [128, 128]
000000 64 79 b4 3d 2a b8 12 bd 6b 02 99 3d 9c 70 69 bd
       0.08812216 -0.035820164 0.07471164 -0.05699216
000010 b4 4c 0f bd 04 08 2d 3d a6 27 56 3d 1d 91 72 3c
       -0.03498526 0.042243972 0.052283905 0.0148051055
000020 11 78 e3 bc 3d a8 5f 3d 33 ef ab 3d a6 cf 4a 3d
       -0.027767213 0.054603804 0.08395233 0.049514435
000030 31 d0 46 3b 1c 22 ac bd 53 5e 64 bd 98 2c a3 bc
       0.0030336494 -0.08404943 -0.055754017 -0.019918725
000040 0a ce 39 bd cc e5 86 bd 17 24 47 bc 7e 2a 42 3d
       -0.04536251 -0.06586799 -0.012154601 0.047403805
000050 d2 8f 8f 3d 90 93 9f bd 69 f9 8a 3d ec 05 7c 3d
       0.070098534 -0.07791817 0.067858525 0.061529085
000060 0c 59 00 bd ce 72 a6 bd 37 7f 0f 3d e1 cf 7f bd
       -0.03133492 -0.08127366 0.03503343 -0.06245411
000070 c8 26 88 bd 28 2b 29 3d 69 3b a5 3c 92 2a ad bd
       -0.06648022 0.041300923 0.02016993 -0.08455385
000080 c8 0a 7e bc 69 c6 8a bd 90 13 59 bd 91 5c 28 bb
       -0.0155055 -0.06776125 -0.052997172 -0.002568994
000090 00 f0 e2 3c c2 64 b5 bb 46 58 be 3a 49 8c 41 3d
       0.027702332 -0.005535693 0.0014522157 0.047252927
0000a0 19 15 cb 3c bb dd 88 bd b2 76 c7 bd 1f ca 1c bc
       0.024790334 -0.06682917 -0.09739436 -0.009569674
0000b0 a5 cf 42 bd 28 ec a3 ba 48 10 45 bd 8c 20 38 bd
       -0.047561307 -0.0012506293 -0.04811123 -0.044952914
0000c0 0b 48 c6 bc cb f6 8e 3d 2c e2 93 3d 17 71 12 bd
       -0.024204275 0.06980666 0.07220873 -0.035752382
0000d0 d7 fa cf 3d 14 91 93 bd 5d 9a c4 3c 83 54 0e 3d
       0.10155266 -0.07205406 0.023999387 0.034748565
0000e0 f5 0d 7e 3d a6 b5 8c 3c 9a 15 49 bb cd 18 8b bd
       0.06202503 0.01717646 -0.0030683042 -0.0679184
0000f0 bd 78 b9 bc cd dc 29 3d e7 ef ad 3d 4a 18 87 3c
       -0.02264058 0.041470338 0.08493023 0.016491074
000100 c3 ec 0e 3d a5 86 97 3d 0c ee 86 bd 55 26 92 3d
       0.034893762 0.07398728 -0.065883726 0.071362175
000110 79 f1 0a bd 58 ad b8 3d 0e c5 90 bd 5c 6e 36 3d
       -0.033921693 0.09017438 -0.07068835 0.04453884
000120 3b 2d cd 3d f0 b8 82 bb 83 77 c9 3c a9 f8 a4 bc
       0.10018393 -0.0039893314 0.02459312 -0.020138102
000130 3e ed 0e bd b5 09 8f 3d dc 73 95 bd 5d 8f 93 bc
       -0.03489422 0.06984273 -0.07297489 -0.018012697
000140 82 5c 02 3d df 05 f4 3b a0 d3 c3 bb f1 32 e3 bc
       0.031826504 0.007446989 -0.0059761554 -0.027734252
000150 34 f7 a2 bd 61 0a 22 3c d5 fe 03 3c 38 5c 5b bd
       -0.079573065 0.00989017 0.008056362 -0.053554744
000160 c3 5c 90 bb 5c ca 00 bd 49 b6 c2 3d b8 c5 8f 3c
       -0.0044055893 -0.031442985 0.095074244 0.017550334
000170 3f 42 3b 3d e9 7a 85 3c 95 75 36 3c d2 5c 31 bd
       0.045717474 0.01629396 0.011136432 -0.04330141
000180 9b 0e 9c 3d 2a fe 2f 3d 3c 43 df bd a7 f4 a7 3c
       0.07619973 0.042967 -0.10901496 0.020502402
000190 9a 5f 35 3d 67 fa 55 bd a9 31 56 bd 90 28 37 3c
       0.044280626 -0.052240755 -0.052293453 0.011179104
0001a0 ec 4a b0 bc 9b 28 2d 3d a1 91 4f 39 dc 95 ab bb
       -0.0215201 0.042275053 0.0001979531 -0.0052363705
0001b0 a9 11 d4 3c e5 07 f8 39 63 ca a2 bc 62 c7 90 3d
       0.025887327 0.00047308128 -0.019871896 0.07069279
0001c0 e5 32 b6 3a 65 ab 29 bd 64 a6 28 3d 8a 3c 85 bd
       0.0013900666 -0.04142322 0.041174307 -0.065056875
0001d0 ad fa 35 3c 4f 12 a3 3d d9 71 d2 3d 8a 89 78 3c
       0.011107129 0.079624765 0.10275621 0.015169511
0001e0 28 59 1a 3d c8 a1 8f bd 09 5c b5 3d 76 2e 9b bd
       0.037682682 -0.07013279 0.08855445 -0.07577221
0001f0 96 14 68 bb 13 73 80 bd 03 72 87 bd fb de eb bb
       -0.003541266 -0.06271949 -0.06613543 -0.007198212
000200 ce 0e 6a 3d ac aa 34 be f6 35 01 3e 82 96 9f bc
       0.057143025 -0.17643231 0.1261824 -0.019480947
000210 8e e5 74 bd 66 9c cf 3c 93 d3 5d bc 4b 79 ad 3d
       -0.059789233 0.025343131 -0.013539213 0.084704004
000220 a7 26 35 3d 92 eb 3e 3d 60 52 9a 3d 9e a1 68 bc
       0.044226315 0.046611376 0.07535243 -0.014198689
000230 30 d5 6c 3d d8 e1 03 3e 26 fb 08 bd e6 d7 88 3a
       0.0578205 0.12879121 -0.03344264 0.0010440319
000240 ac 4a 13 3e 22 02 9c 3d 2d f2 6f 3d cf 09 ca bb
       0.14383954 0.07617594 0.058580566 -0.00616572
000250 0c 34 23 3e a1 f5 17 be 98 ea 2f 3e af fa 5b 3d
       0.15937823 -0.14839794 0.17179334 0.053705867
000260 97 03 0f bd 0f 82 fe 3d 2a a7 27 3e 01 0b 07 3e
       -0.034915533 0.124271505 0.16372362 0.13187791
000270 62 d7 7e 3d 0e d3 94 bd 19 57 26 be 70 49 4e 3e
       0.062217124 -0.07266818 -0.16244163 0.20145202
000280 6d 48 53 be ea a6 68 bd 76 af 2a 3d 7c 75 b9 bc
       -0.20633097 -0.056799807 0.04167124 -0.022639029
000290 a5 7b d8 bc e8 66 02 3e e2 78 c5 3d bb a2 a9 bd
       -0.026426146 0.12734568 0.09642197 -0.082829915
0002a0 78 35 3b be bf e8 df bd 7f 9c 98 3d 50 18 0b 3e
       -0.18282115 -0.10933065 0.07451724 0.13583493
0002b0 e2 8a 1e ba 63 d3 36 bd fe 9d f0 bc 75 4d 1f be
       -0.0006047917 -0.044635188 -0.029372212 -0.15556891
0002c0 b4 80 1d 3d 63 5b 27 be 10 e3 45 3e 00 36 4b 3d
       0.03845282 -0.16343455 0.19324899 0.049612045
0002d0 24 6c 4f 3e 31 36 57 3d c2 45 64 3d a6 d6 3a 3e
       0.20256096 0.052541915 0.05573059 0.18245944
0002e0 3d 50 7f bd 36 a2 21 3e cf 2d af bd a0 48 52 bd
       -0.06233238 0.15784535 -0.08553659 -0.05133879
0002f0 93 23 17 bd 09 db 20 bd 35 4f 76 3d 99 09 93 3d
       -0.03689916 -0.03927139 0.06013413 0.07179565
000300 8f 22 14 3e 0c 12 74 3d f4 70 ed bd ac 66 b5 bb
       0.14466308 0.059587523 -0.1159381 -0.005535921
000310 03 8e f3 3d 2d 4a d3 bd 42 e7 d0 bc 07 0f 74 be
       0.11892321 -0.10316882 -0.025500897 -0.23833857
000320 3a 1f d7 3c 6d e6 98 bd ce 25 c3 3d 2f bc bf 3d
       0.026260007 -0.07465825 0.09528695 0.09362065
000330 bf ac b5 bd 1b ed 23 3d 3d 3d 94 3c d0 1b 2d be
       -0.08870839 0.040021043 0.018095607 -0.16905141
000340 53 f7 56 3d 27 6c a8 bd db 73 5c 3d de 7e cd 3d
       0.05248196 -0.082237534 0.053821426 0.100339636
000350 4a 07 3c bd ea 7b 39 be 4b 18 5a 3e c4 76 11 be
       -0.04590539 -0.18113676 0.2129833 -0.14205462
000360 ba f7 bf 3d 0e 46 f2 bd ba ae 12 3e c0 c7 34 3d
       0.09373422 -0.11829768 0.14324465 0.04413581
000370 fb 71 4c be fd 9d 87 3d 25 59 74 3d 12 56 0e be
       -0.19965355 0.06621931 0.059655327 -0.1390002
000380 31 dd 80 3e 98 db 09 3e 5d 94 94 3d 88 b9 b0 bc
       0.25168756 0.13462675 0.072548606 -0.021572843
000390 5f a7 5d 3e c4 e5 07 bd 05 3b 13 bd 1f 2d da bd
       0.21645878 -0.033178106 -0.035944957 -0.106531374
0003a0 0e b9 07 3e 7f 76 24 3b ac ba e0 bc 17 02 24 bd
       0.13254187 0.0025095043 -0.027432762 -0.040041056
0003b0 75 93 39 3e 35 f3 38 3e 1d 15 94 3d 9f 7d ec ba
       0.18122657 0.18061526 0.072305895 -0.0018042809
0003c0 d9 b4 89 3d 55 04 01 be 85 9c 68 bd fe 9f 26 bd
       0.06723947 -0.12599309 -0.056789894 -0.040679924
0003d0 06 06 9e 3d 68 f1 bf bd 86 22 02 bd 2a 0c be 3d
       0.07715993 -0.093722165 -0.031771205 0.09279664
0003e0 d9 d8 2f 3e de 54 52 3e 1e aa ca 3c c4 09 ee 3b
       0.17172565 0.20540187 0.024739321 0.0072643477
0003f0 60 21 4f bd e9 b1 93 bd 61 f4 97 bc fd 87 c0 3d
       -0.05056894 -0.07211668 -0.018549146 0.09400938

net.2.bias f4 [128]
000000 2e 52 8f 3d 42 16 d9 3b 95 a0 21 3e 56 83 a9 3d
       0.069980964 0.006624968 0.15783913 0.082770035
000010 89 a9 09 bd 38 1d 32 3c fa dc 06 bc 83 35 0b 3c
       -0.033608947 0.010871224 -0.008231396 0.008496645
000020 04 e3 40 3c 6c 16 34 bd 56 d7 20 be ae a4 a6 bc
       0.011772875 -0.043966696 -0.15707144 -0.020342197
000030 2b d4 b4 3d 15 c8 d5 bd df 83 8d bd 8a 06 97 3b
       0.0882953 -0.10438553 -0.06909918 0.004608934
000040 86 51 80 bc ff 5e 99 bd 9d b6 84 bb 9c 4a b0 3d
       -0.015663873 -0.07488822 -0.0040500895 0.086079806
000050 1b 84 d9 bc 71 8a 48 3d 79 82 d0 3d 6e 34 18 3d
       -0.02655225 0.048960153 0.10181136 0.037159376
000060 ee ee 0c 3e d1 b4 b9 bc c2 3a 52 bd 79 2c 8e bd
       0.1376302 -0.022669228 -0.051325567 -0.06942076
000070 57 8e 8a 3d a6 08 49 3d 59 6e 94 3c c0 6a 3f be
       0.067654304 0.049080513 0.018119024 -0.18693066
000080 2a fe 0c bc 5b 20 64 3d b2 e1 e3 bc 3c b9 95 bc
       -0.008605519 0.05569492 -0.02781758 -0.018276803
000090 37 ff 91 be e4 0a 72 bd 95 b5 ff 3c 29 83 37 be
       -0.28515026 -0.059092417 0.031214515 -0.17921127
0000a0 e1 5a f9 bc 3f 10 f0 3c cf a8 80 bd 38 3b 1c 3d
       -0.030438842 0.029304622 -0.06282198 0.038142413
0000b0 12 31 41 be 3f ce e6 bc 9d 68 fc 3d 03 81 28 bd
       -0.18866375 -0.028174518 0.12324641 -0.04113866
0000c0 f0 09 53 3d ff d0 24 3c 87 54 ed 3d e2 39 0b bd
       0.05152315 0.010059594 0.11588388 -0.03399075
0000d0 cd 7b 86 bc fb 99 37 3d 3f dc 60 bd 74 fb ab bc
       -0.016416455 0.04482458 -0.054897543 -0.020993926
0000e0 54 9b 18 bd 8c ea 31 bd d9 78 1e 3d 36 1d db 3c
       -0.037257507 -0.043436572 0.038689468 0.026747327
0000f0 5a 66 32 bd f7 41 dd bc f5 cf 0f 3d 42 37 a7 bc
       -0.04355464 -0.027008994 0.035110433 -0.020412091
000100 59 aa 0d 3d 6a 6c 86 bd 44 c7 23 3e 4d 35 25 bc
       0.034586284 -0.06563647 0.15993983 -0.010083509
000110 4d 4d b7 be 9a ee b2 3a cf 7f a1 3c aa c2 d6 3d
       -0.35801163 0.0013651431 0.019714264 0.10486348
000120 22 a6 0e be 8b 28 79 3d 65 03 77 bd 9b 68 d2 bc
       -0.13930562 0.06082968 -0.06030597 -0.025684645
000130 7a ea 03 bd 1c d2 3e bd e9 53 6a 3d f6 ee 32 3d
       -0.032206036 -0.046587095 0.05720893 0.043684922
000140 fd d7 d3 3d 43 1b 1d bd 8d be 59 bd 8a 7a 01 3e
       0.10343931 -0.038356077 -0.05316024 0.12644401
000150 b6 cc d4 bd 8f 39 63 bd 15 fd 53 bc 85 00 dd bc
       -0.10390608 -0.055474814 -0.012938757 -0.026977787
000160 a7 48 85 3d 9b 4b 71 bc 4b 60 2a bd 00 3c 0c 3e
       0.06507998 -0.014727498 -0.04159574 0.13694763
000170 d7 27 6a 3c 73 7e c7 3c f1 fb fc 3c b2 78 c8 3d
       0.014291725 0.024352288 0.030881854 0.09788646
000180 a4 ca c8 bb 12 4f d8 3c 3c 70 7d bd 06 66 a5 bc
       -0.0061276723 0.026404891 -0.061874613 -0.02019025
000190 82 a6 99 3c 1e ff f5 3c 3d 7a 98 bd 1b e0 ed 3d
       0.018756155 0.030028876 -0.0744519 0.1161501
0001a0 21 05 aa bd 70 92 47 bd e4 14 5b bc 8f ca a0 3d
       -0.083017595 -0.048723638 -0.01337168 0.07851135
0001b0 7c 26 87 bd b5 e2 b9 bb de 82 5b bd cc 79 f8 3c
       -0.06599137 -0.0056727775 -0.0535916 0.030331515
0001c0 8a a0 84 bb 37 51 4c 3d e1 65 d9 3d fb e7 d6 3c
       -0.004047458 0.04988214 0.10615135 0.026233664
0001d0 ee 13 9a bc 76 d5 27 bd 55 14 18 3d 74 48 f7 bc
       -0.018808331 -0.040975057 0.037128765 -0.030185916
0001e0 f8 56 27 3d 4b c5 5b be a3 c9 be bb c7 70 a4 3d
       0.040854424 -0.2146198 -0.005822377 0.08029323
0001f0 c2 4e 3b bc f9 8e cd 3d c5 b2 c2 3d d3 97 82 bd
       -0.011432352 0.100370355 0.09506754 -0.063766144

net.4.weight f4 [128, 128]
000000 aa a1 82 bc b4 a8 a9 3d 59 98 fb bd cc ab 97 3d
       -0.015946228 0.08284131 -0.122849174 0.074058145
000010 59 ae 56 3d ee f6 ec 3c 65 18 da 3c 9c d8 56 3c
       0.052412365 0.028926339 0.02662296 0.013113167
000020 9e 01 03 3d 00 9b 8b 3d b6 2f e6 3d 50 9e 46 bc
       0.031983964 0.06816673 0.11239569 -0.012122706
000030 99 f3 88 bd 49 bc 46 3d 55 77 6b bd 9b 8f 50 bb
       -0.066870876 0.048519406 -0.05748685 -0.0031823877
000040 c3 8e 1d bd e4 8f 82 3d d3 8a 3a 3d 95 28 16 bc
       -0.038466226 0.06375101 0.04554255 -0.009164949
000050 25 15 bd 3d 1c c3 22 bd 26 f8 f0 bc 7f f2 c4 bc
       0.092325486 -0.039736852 -0.029415201 -0.024041412
000060 d9 3c 4d bd 5f 9a 1d bb d0 9b 3f 3d ca 81 c8 3d
       -0.050106857 -0.0024048311 0.046779454 0.0979038
000070 b0 46 d8 bc 5c 4f 81 bd 43 f7 ed 3c 80 51 55 bd
       -0.026400894 -0.06313965 0.029048568 -0.052079678
000080 6c 0b c0 bd b9 93 c6 3d 3c 9e dd bd 52 9c b0 ba
       -0.093771785 0.096961446 -0.108211964 -0.0013474321
000090 34 49 81 3d 1c a5 69 3d 00 d8 f0 3c 16 ff 2c 3d
       0.063127905 0.057042226 0.029399872 0.042235456
0000a0 3b 21 9a 3c 6f 04 9e bc f1 96 19 bd e6 f1 29 bd
       0.018814674 -0.019289223 -0.037497465 -0.041490458
0000b0 83 ef a7 3d 7c 7f be bd 75 53 bb bd 4c 61 24 bd
       0.0819998 -0.093016595 -0.091467775 -0.040131852
0000c0 1f e4 10 3d e0 25 1f bd 2e e3 0e bd 2c 4e 94 3d
       0.035373803 -0.03885448 -0.034884624 0.072414726
0000d0 43 fe 53 3d 91 24 41 bd 2d da 8e bd a6 df 29 bc
       0.051756155 -0.047154013 -0.069752075 -0.010368263
0000e0 e5 4c da 3c 1d 51 2f bd 39 d1 f9 3c 83 c3 17 3d
       0.026647994 -0.042801965 0.030495273 0.03705169
0000f0 05 9a 0f 3d 93 35 32 3d 4e be ad bd ad ad ed 3c
       0.035058994 0.043508124 -0.08483563 0.02901348
000100 99 8e 1b 3c a0 04 f4 bb 45 ed be bd 9a dc 4f bc
       0.009494447 -0.0074468404 -0.09322599 -0.012686873
000110 99 ce 8e 3d 1e 3e 42 3d 88 20 e2 3a 93 c3 41 3b
       0.06972999 0.04742252 0.0017252127 0.0029566034
000120 b4 a8 b4 bb 77 af 48 3d 42 93 fd bc 27 b4 71 bd
       -0.005513275 0.04899546 -0.030954007 -0.059009697
000130 ae 4c 09 bd f1 1c de 3c 41 65 76 bd c3 06 13 3d
       -0.033520393 0.02711341 -0.060155157 0.03589512
000140 58 bf 56 3d 62 c9 5f bd d2 91 04 3d a7 4f 0a 3d
       0.052428573 -0.054635413 0.032365628 0.03376737
000150 ff 2d b5 3c 54 8b 06 3c c5 b5 0d 3e 7a 3e 63 3c
       0.02211666 0.008211929 0.13838871 0.013869876
000160 0b 81 39 bd 51 5c 5e bd 54 b3 a3 bc ab 9a 87 3d
       -0.04528908 -0.05428726 -0.019982971 0.066212974
000170 37 dc 27 bd 43 b1 b9 3c c2 85 a7 bd b9 fc 48 3d
       -0.040981498 0.022667533 -0.08179809 0.04906914
000180 36 4b 1b 3d 02 7d e4 bc 7d eb a1 ba 92 e0 a9 3c
       0.037913524 -0.02789164 -0.0012353506 0.020736966
000190 b4 97 0f 3d 88 f2 d6 bc 92 a4 a1 3d 8e 89 95 bd
       0.035056785 -0.026238695 0.078927174 -0.07301627
0001a0 5c 41 dc bd a9 a3 8b bd 0e 6f ae 3c 06 f8 e0 bc
       -0.10754654 -0.06818325 0.02129319 -0.027462017
0001b0 db d3 64 bd 52 3a 0f 3d 84 85 3f 3d c3 dc a0 3c
       -0.055866104 0.034967728 0.04675819 0.019636517
0001c0 6c 2b 2d 3c f6 ae c9 3d 64 8b 5a bd 8a 0f 7f 3c
       0.010569435 0.09847824 -0.05335559 0.01556767
0001d0 45 36 c4 3c b2 01 5c bd 7d e5 e6 3b 30 3e 52 3d
       0.023951659 -0.053712554 0.0070464 0.051328838
0001e0 7b 34 51 bd 23 ec c5 3c 3a c0 13 bc 3a d9 c7 3d
       -0.05107544 0.02416045 -0.009017998 0.097582296
0001f0 3c 5a 5d bd 9c 87 1b bd 80 3c 1c 3d a4 1b 4a bc
       -0.054041132 -0.037971124 0.038143635 -0.012335692
000200 3e 31 b5 bd 40 21 94 3d fa b4 db 3b 31 be a3 3c
       -0.08847283 0.072329044 0.0067049237 0.019988151
000210 bb 94 b8 bb 43 9e 83 bd 6b 7d 55 bd f9 48 a4 3d
       -0.0056329644 -0.064266704 -0.05212156 0.08021731
000220 b0 0d a4 3d 66 dc 71 bc 59 49 6c 3d 9f 75 c5 bd
       0.08010423 -0.01476202 0.057687137 -0.09641575
000230 4e 73 8c 3d 83 d7 47 3d 3a 9f 5c 3d 36 67 87 bd
       0.0685793 0.048789512 0.053862788 -0.06611483
000240 d3 0b 7c 3c e4 ab d7 bc 7b 2e b7 ba 0b d7 0b bd
       0.0153836785 -0.026327081 -0.0013975644 -0.034140628
000250 db 40 d2 b9 2b 9e d7 3c a1 24 82 3d 8b 51 af bc
       -0.00040102642 0.026320538 0.06354643 -0.021401187
000260 b6 f7 70 bc 3e 55 f1 bc a9 66 51 3d a6 14 c3 bb
       -0.014707496 -0.029459592 0.051123295 -0.005953389
000270 8a 5f 0e 3d cd 22 92 bc 42 46 15 3c 93 dd b3 3d
       0.034759082 -0.01783886 0.009110989 0.08782496
000280 f1 72 16 3c 2d 95 90 bd ab 5b 8c bc e8 70 c3 bd
       0.009182678 -0.07059703 -0.017133554 -0.095430195
000290 c0 ea 8c bd 8a ea 16 3d 4a 6d b7 bd b6 a1 c3 bc
       -0.068807125 0.036844768 -0.08956392 -0.02388082
0002a0 16 a4 0f bd 9d 38 c7 3c 4a 81 90 3d ca 01 0c 39
       -0.035068594 0.024318988 0.0705591 0.00013352107
0002b0 b0 95 1a bd 2e 9b 93 3c bd 46 ab 3c 5f 14 0f bd
       -0.03774041 0.018018331 0.020907754 -0.034931537
0002c0 57 fd c7 3d 2e 31 15 3b 7b b0 43 3d 76 08 f7 3b
       0.097651176 0.002276491 0.047775727 0.0075388504
0002d0 68 32 8e 3d 44 40 ae bd e3 79 4f bd 6f 01 87 bc
       0.06943208 -0.085083514 -0.05065335 -0.016480176
0002e0 a3 97 0f bd 91 9d 72 bd 28 ff 08 be cf 5b 8f 3d
       -0.03505672 -0.0592323 -0.13378584 0.06999933
0002f0 b2 12 e6 3c d8 99 c7 bc c8 09 84 3d 4f 14 1a bd
       0.028085086 -0.02436535 0.06447178 -0.037617024
000300 cf e1 6e 3d fb a4 af 3d 75 9b ba bd 9d fb fc bc
       0.058320817 0.085763894 -0.09111682 -0.030881697
000310 f0 f5 70 3d 33 7f 3b bc ac b6 40 3d df 71 45 bd
       0.058828294 -0.011443901 0.04704921 -0.0482043
000320 b6 81 32 bd 7f 39 f3 bc dd 76 f5 3b f1 1a 8c 3d
       -0.043580733 -0.029690502 0.0074909762 0.06841076
000330 40 85 06 bd f7 bf d8 3d 51 e2 94 3d 08 14 25 bd
       -0.03284192 0.105834894 0.07269729 -0.040302306
000340 81 0c 8a bb a0 c3 1b 3d db 40 a5 bd 42 3a 22 3d
       -0.0042129164 0.03802836 -0.08069011 0.03960634
000350 b8 8d 25 3b b3 21 a3 3b 60 47 9a 3d 7b af 93 3d
       0.0025261473 0.0049783825 0.07533145 0.072112046
000360 12 1d 73 3d 14 de 6b 3d 03 67 77 bc 61 c4 d6 3d
       0.059353895 0.057584837 -0.0151002435 0.10486675
000370 42 8b 5d 3d 2a 07 7d 3c 76 44 48 bd a2 83 a9 bd
       0.054087885 0.015443603 -0.048893414 -0.0827706
000380 6e 23 8c bd 30 d6 b7 3d 2d d5 29 3c c6 1e f2 bb
       -0.06842695 0.089764 0.0103657665 -0.0073889224
000390 6d 44 47 3c 14 5f 0b bd 6d f4 1d bd 48 c7 ad bd
       0.01216231 -0.03402622 -0.03856318 -0.084852755
0003a0 b5 7d 9f 3d 4a 2e a2 bd 5b 95 2f 3d 4d 20 3e bd
       0.077876486 -0.07918985 0.042867046 -0.046417523
0003b0 0f 6f a8 3d 18 93 39 3d b5 35 bd bd 3a 19 5a bd
       0.08224308 0.045306295 -0.092387594 -0.053246714
0003c0 a4 d7 08 bd 40 ae a3 3d 3f 9d 74 3d 71 23 75 bd
       -0.033408776 0.0799222 0.059720274 -0.059848253
0003d0 30 1d f2 3c dc 9b 1f bd 68 e0 da 3d 3f ff 3d bd
       0.029554933 -0.038967 0.10687333 -0.046386
0003e0 29 17 83 bd 02 64 64 bd 3d 0b 8b 3c 56 1f 91 3d
       -0.06400902 -0.055759437 0.016973132 0.07086055
0003f0 d5 61 57 3d 0f 8f b6 bd 23 cd 1a 3d f6 7d 62 bd
       0.052583534 -0.08914005 0.03779329 -0.055295907

net.4.bias f4 [128]
000000 4c 69 69 bd 22 9b be bd 2d c8 02 bd 80 53 4d 3d
       -0.056985185 -0.09306933 -0.031929184 0.05012846
000010 ef fc 6a bd d1 ef 90 3d b1 f6 a2 bd 51 a6 b0 bd
       -0.057370123 0.07076991 -0.07957209 -0.08625472
000020 2e 68 b8 3d 5c fe b3 bc e1 5c 61 bd bb 2f 0b 3c
       0.09004246 -0.021971874 -0.055020217 0.008495267
000030 93 e7 76 bd d7 09 cc bc 4a a6 9f 3c d3 24 93 3d
       -0.06027944 -0.024907036 0.019488472 0.07184758
000040 85 1e 44 bd 95 e2 8b 3d 38 ee 53 bc 82 3c 3c 3d
       -0.04788067 0.068303265 -0.012935214 0.045956142
000050 f1 72 7b 3d f1 b2 49 3d ff f6 24 3d 4f 57 8f 3d
       0.061388914 0.049242917 0.040274616 0.06999075
000060 69 6a b6 ba fe a5 51 3d 66 96 0d 3a 7c 05 ae 3d
       -0.0013917211 0.051183693 0.0005401134 0.0849714
000070 14 dc b2 bb 26 bd d5 bd fd 75 b3 3c 61 08 81 3d
       -0.0054583643 -0.10436468 0.021906847 0.06300426
000080 68 7f 4a 3c 82 8d c4 bc 77 e6 0c 3d 74 48 d0 bc
       0.012359478 -0.023993257 0.034399476 -0.025425173
000090 97 93 8d bc 01 5d 63 bd e5 35 9d 3d 33 ca b3 3d
       -0.01728229 -0.055508617 0.07676295 0.08778801
0000a0 4a 9c e3 39 94 22 22 bd 3b 8a 05 be 93 eb 0b 3d
       0.00043413258 -0.039583758 -0.13041012 0.034160208
0000b0 12 bb b1 3d 4f 62 8b 3d a4 04 b2 bd cf f5 c2 3d
       0.08678259 0.0680586 -0.086922914 0.095195405
0000c0 d2 13 e0 3d b5 4a 7f bd 96 b2 86 3d 5e ec 9c ba
       0.109412804 -0.062327106 0.06577031 -0.0011972298
0000d0 32 8d 5e 3d 4c c3 5e bc 11 d0 b8 3d a2 3a 7f bd
       0.054333873 -0.013596367 0.090240605 -0.062311776
0000e0 e6 ed ae bd 1a d3 9b bd 1a fe 3c be c2 4f cd 3d
       -0.08541469 -0.07608624 -0.18456307 0.10024978
0000f0 c0 5e d9 3d a3 97 d5 3d f4 70 12 3c 3b 7d 0d bb
       0.10613775 0.10429313 0.008938063 -0.0021589536
000100 f5 66 76 be 39 03 70 3d 57 aa ee 3b fe 0e 84 bd
       -0.24062712 0.058596823 0.0072834897 -0.06448172
000110 c1 10 a5 3c 6f c2 94 3d ae b9 b6 3c 8c 94 5e 3c
       0.02014959 0.07263648 0.022305336 0.013585221
000120 79 30 92 3d 56 30 b4 bd 59 94 94 3c ee 1d d0 3d
       0.07138152 -0.08798282 0.018137144 0.10161959
000130 b9 77 81 bc 39 04 dd 3d 96 9d e1 3d 7d 25 bf bd
       -0.015804159 0.10791821 0.11016385 -0.09333322
000140 9d d3 a9 bd 8c 8f 90 bd 31 f6 8e 3c aa bb 87 bd
       -0.08292315 -0.070586294 0.017451378 -0.06627591
000150 4a a4 73 3d 07 76 24 ba ea 1a 7c 3d 07 36 85 bc
       0.05948285 -0.0006273691 0.061549105 -0.016261114
000160 ca 45 3a bd 12 2e f9 bd ce b2 7a 3d 7a 6a c6 bc
       -0.045476712 -0.1216699 0.061205678 -0.024220694
000170 15 c9 4b 3d fc a3 98 bd d4 6c 96 bd 34 96 fa 3d
       0.049752314 -0.074531525 -0.07344976 0.1223568
000180 07 01 24 bc d8 da f1 3c 53 69 22 3d 81 35 80 bc
       -0.010010011 0.029523298 0.039651226 -0.015650513
000190 fc ff 4a 3d c8 a2 70 3c 1a bc a4 bd 76 df 66 3c
       0.049560532 0.014687248 -0.0804369 0.014091363
0001a0 1d 0c 19 bc 0d 29 f3 be 8b ac 8f bd 11 e1 88 bd
       -0.009341267 -0.47492257 -0.07015332 -0.06683553
0001b0 07 9a de bd cd f7 a0 3d 7b c0 60 3c 6d d7 d2 3d
       -0.10869222 0.07859764 0.013717766 0.102949955
0001c0 b6 c2 6c 3d b1 f9 48 bd a8 ef ea 3d 97 ea bd 3d
       0.05780288 -0.04906625 0.11471492 0.0927326
0001d0 2b bc ae bd d4 be 97 bb 42 51 63 bd 78 5c 0d 3d
       -0.08531984 -0.004630903 -0.055497415 0.034512013
0001e0 85 46 75 bd fd a9 db 3c 15 66 6e 3d c4 9d 8b bd
       -0.059881706 0.026814455 0.05820282 -0.06817201
0001f0 d3 96 a8 3c 87 96 fb 3c 40 36 01 be 19 29 8b bd
       0.020579731 0.030711425 -0.12618351 -0.06794948

net.6.weight f4 [2, 128]
000000 d9 85 ce 3c b0 a7 63 bc 4e d6 df 3d 50 32 98 bd
       0.025210308 -0.01389496 0.10929547 -0.07431471
000010 ed 5a f2 3d 76 70 1b 3e 88 84 20 3e a2 14 ef 3b
       0.11833749 0.15179619 0.15675557 0.007296161
000020 96 8e 02 be 52 d5 6f bd 8b f7 fb ba 51 18 27 3e
       -0.12749705 -0.058553047 -0.0019223554 0.1631787
000030 8c 3d ac bd f8 f2 ea 3d 9f 1a cf bd 45 cf 59 be
       -0.08410177 0.11472124 -0.101124994 -0.21270473
000040 5c d9 88 3c 71 64 e9 bd 79 83 e1 bd b5 ac 5f be
       0.016705208 -0.11396111 -0.110114045 -0.21843226
000050 dc f8 67 3c b1 84 e6 bc 42 a1 28 bc 20 eb 80 bc
       0.014158454 -0.028139444 -0.010292353 -0.015737116
000060 9a 70 c4 3b 08 bc 19 3e 63 81 c5 bd 5d e8 82 be
       0.0059948685 0.15013134 -0.09643819 -0.25567904
000070 cd 64 15 be 90 71 c3 bc 7c 9b d9 3c 13 bf 86 be
       -0.14589234 -0.023857862 0.026563399 -0.26317653
000080 92 5c 06 be c6 1e 26 3e 11 32 37 3e ef d9 dd 3b
       -0.1312125 0.16222677 0.17890193 0.0067703645
000090 9b 72 51 be c7 64 6a be 79 26 9a 3c 2f 6b b0 bd
       -0.20453875 -0.22890006 0.018817173 -0.08614194
0000a0 da a8 8e bd 18 60 dc b9 e1 5b 6d 3e 4a 3a 12 be
       -0.069658 -0.00042033265 0.2317958 -0.14280048
0000b0 bf c7 3a be 15 ef 45 bd b8 ce 37 3e 93 40 ef bd
       -0.1824026 -0.04832371 0.1794995 -0.116822384
0000c0 d9 6c 0e be d6 c7 e8 bd 90 14 97 3d 91 96 2f be
       -0.1390871 -0.11366241 0.07376969 -0.1714728
0000d0 f2 34 8f 3c 62 23 ae bd fd af a9 bd d7 b2 d4 bd
       0.017481301 -0.085028425 -0.0828552 -0.103856735
0000e0 d5 2f cd bb 49 f6 c3 bd a9 8e 59 3e b7 a6 10 be
       -0.0062618055 -0.095684595 0.21245827 -0.14126097
0000f0 96 3b de bd be ad 12 3d d8 45 b7 3d 73 42 72 be
       -0.10851209 0.035810225 0.089488685 -0.23658161
000100 6e c8 0a 3e d8 76 af 3d 91 7d ed 3d ee e9 8e be
       0.1355302 0.085675895 0.115962155 -0.2791285
000110 3b a9 bf 3d f6 b5 0a 3d b9 d9 7a bd d8 db 0a 3e
       0.0935845 0.033864938 -0.061242793 0.13560426
000120 06 89 84 bd fb 2a f2 bb 3b 1c 35 bd a7 9c 62 ba
       -0.06471448 -0.0073903776 -0.044216376 -0.0008644559
000130 5d cb 13 3c 6f 6f b9 bd 1c d9 0b bd 68 32 75 3d
       0.009020654 -0.090544574 -0.0341426 0.059862524
000140 0c 67 f7 3b 7c ba e5 3d f8 1a 35 3d b8 70 81 bd
       0.007550126 0.1121721 0.044215173 -0.063203275
000150 dd 9d 1b bd c1 ea 01 3e 38 26 17 3e d5 fb aa 3d
       -0.037992347 0.12687208 0.14760673 0.083488144
000160 91 7b a0 bd 3b 01 3b 3e fc d5 7f be 19 52 31 3d
       -0.078360684 0.18262188 -0.24983972 0.043291185
000170 ad 06 2f 3d aa cb 18 3e cd db 33 3e 2c 70 e2 bc
       0.042730976 0.14921442 0.17564316 -0.027641378
000180 a1 fc 04 bd de d2 ef bc 4c be eb 3d 5e 83 22 3e
       -0.03246749 -0.029275354 0.115109056 0.15870425
000190 32 30 98 3c 07 43 ff bd b4 93 10 3e bd 90 44 bd
       0.018577669 -0.12463956 0.14118844 -0.047989596
0001a0 01 7f ab 3d a2 da 13 bf 6e 4f 4b 3e 1d af dc 3d
       0.083738334 -0.5775548 0.19854519 0.10775588
0001b0 14 a8 34 3c fa 9b d0 3d 71 4f dd 3d 83 d2 c4 bd
       0.011026401 0.10186 0.10806168 -0.096104644
0001c0 2a 97 f6 3d 1f 9c 27 3e bb d2 1d be fe ee 9f bd
       0.12040551 0.16368149 -0.15412419 -0.07809256
0001d0 69 7b 54 3d 89 3b 25 3d 05 ff 86 3d 3a f3 98 bc
       0.051875506 0.04033998 0.0659161 -0.018670667
0001e0 c3 72 75 bc df a3 66 bd c9 44 9e bd e6 20 08 3e
       -0.014980975 -0.056308623 -0.077279635 0.132938
0001f0 9c 5a 10 3c d2 e1 83 bd 70 1a 40 3e 7e 00 30 3e
       0.008810665 -0.06439556 0.18760085 0.17187688
000200 17 3d 68 3d 0b 90 9e 3d 42 51 25 ba 50 d4 69 bd
       0.056698885 0.07742318 -0.0006306359 -0.057087243
000210 8b 1a 92 bd b9 26 d5 3d 1a 21 41 3d e4 60 d0 3d
       -0.07133969 0.104077764 0.04715071 0.101747304
000220 dd d5 a4 bd 7e c1 c8 bd 1a 0f bd 3d b1 80 06 3c
       -0.08048604 -0.09802531 0.09231396 0.008209393
000230 63 35 42 3d c2 28 c0 bd 1f dc fb 3c cf b8 ad 3d
       0.047414195 -0.09382774 0.03074461 0.08482515
000240 cd fe f8 3c 0c 0d 2b 3d 68 46 ba 3d 70 cc 44 3d
       0.030394936 0.04176049 0.0909546 0.04804653
000250 ab 40 ee 3c a0 80 d9 bd 1f 20 ac bd 8f 70 ec bd
       0.02908357 -0.106202364 -0.08404564 -0.11544906
000260 d7 1d e4 3d 61 19 0e bd 49 5b bb bd 86 ad 50 3d
       0.11138504 -0.034692172 -0.09148271 0.050946735
000270 9b eb 36 3d 8d 8f c9 bd 15 0a db 3c d6 49 38 3d
       0.044658285 -0.09841833 0.026738206 0.04499229
000280 49 ce 1d 3d 4d a7 bf bc d6 a3 f5 3c d5 34 d1 3d
       0.038526807 -0.023395205 0.02998535 0.10215155
000290 47 fe 94 bc 5a ef f1 bc 74 e4 79 bd 7a 9b 8a bd
       -0.018187655 -0.029533077 -0.061008886 -0.06767936
0002a0 fe 92 c5 bd 6a 8d 56 bd 71 bd c4 bb d5 03 b0 3d
       -0.09647177 -0.052380957 -0.0060040285 0.08594481
0002b0 0b 8d 78 3d 5d 18 e8 bd 25 b7 1c 3d e8 ff 86 bd
       0.060681384 -0.11332772 0.038260598 -0.06591779
0002c0 78 23 83 bd 5e 85 3a 3d 28 41 9e bd b9 64 43 bd
       -0.064032495 0.045537345 -0.07727271 -0.04770348
0002d0 f3 03 91 3d 78 7d da 3d b3 3e ca bd cd c9 ab 3c
       0.070808314 0.106684625 -0.0987524 0.02097025
0002e0 11 85 8d 3d f7 53 d3 bd bc bd 39 bc 81 b3 da bd
       0.06910146 -0.103187494 -0.01133674 -0.10678769
0002f0 33 6f 79 bd d2 8d b6 bd 2e 59 b6 3d 5f 7b af 3c
       -0.060897063 -0.08913769 0.089037284 0.021421133
000300 a0 e5 b5 3d 3c 3c 22 3d f4 de 43 3d e0 ec 2b 3d
       0.08881688 0.039608225 0.047820047 0.04197395
000310 a1 18 88 bc 00 e4 cf 3d 4e d1 84 3d d5 10 2f bd
       -0.016613306 0.101509094 0.06485234 -0.04274066
000320 c9 85 61 3d eb 7b e7 3d b6 d8 d0 3d f8 ad a8 bd
       0.055059228 0.11302932 0.10197584 -0.08236307
000330 fc 1d 00 3d 9f f9 78 bd 1e 3b a1 bd 03 be 82 3d
       0.031278595 -0.060784932 -0.07872604 0.06383898
000340 ae 9a aa 3d 39 f4 49 3d 98 0a ca 3d cb 9c af 3d
       0.08330284 0.049305174 0.09865302 0.08574828
000350 92 70 4f bd 8c 07 8a bc 1e bb 1b bb 60 75 4d 3d
       -0.050644465 -0.016849302 -0.0023762654 0.050160766
000360 d4 e9 a9 bd cd 02 7a 3c 35 94 92 3d a0 fa 6d 3d
       -0.08296552 0.015259457 0.071571745 0.058100343
000370 0b b3 d3 3d c6 45 43 3d 88 f7 6e 3d ad 23 3b bd
       0.10336884 0.047673963 0.058341533 -0.04568832
000380 89 94 9a bd 80 4e 99 bd f0 ba 8d bd ff 71 51 bc
       -0.07547862 -0.07485676 -0.06920421 -0.012783526
000390 9d e2 ba 3d 86 5c b0 bd 6d 6c fe 3d 5e 1a 35 bd
       0.09125254 -0.086113974 0.12423024 -0.0442146
0003a0 91 04 a2 bd a4 5c 2b bc 12 53 00 bd 3b 36 66 bd
       -0.07911027 -0.010459099 -0.031329222 -0.056204062
0003b0 3e 18 84 3d 1c c2 2b bd bf a5 c4 3c 5c 47 a1 bd
       0.06449936 -0.041933164 0.024004815 -0.07874939
0003c0 24 41 be bd f2 20 64 bd f7 6f 11 3d 27 dd b1 bd
       -0.09289768 -0.05569548 0.03550717 -0.086847596
0003d0 5b 0a b3 3d 3b 9b 30 bd 99 39 52 3d 8f 31 a7 bd
       0.087422095 -0.04311679 0.05132446 -0.081637494
0003e0 3a 59 f0 bd ef 08 0d 3d 85 4a b4 bc bd 04 64 bd
       -0.117357686 0.034432348 -0.02200819 -0.05566858
0003f0 e9 4f 95 3d 6b eb aa 3d 28 68 d5 3c e7 00 bb bd
       0.07290632 0.08345684 0.026050642 -0.091310315

net.6.bias f4 [2]
000000 d9 a1 1b bd 58 5a 24 3d
       -0.037996147 0.04012522
